{"format": "graph-model", "generatedBy": "2.17.0", "convertedBy": "TensorFlow.js Converter v4.21.0", "signature": {"outputs": {"Identity:0": {"name": "Identity:0"}}}, "modelTopology": {"node": [{"name": "ConstantFolding/model_272/tf.math.divide_2/truediv_recip", "op": "Const", "attr": {"dtype": {"type": "DT_FLOAT"}, "value": {"tensor": {"dtype": "DT_FLOAT", "tensorShape": {"dim": [{"size": "1"}, {"size": "1"}, {"size": "1"}]}}}}}, {"name": "model_272/181977", "op": "Const", "attr": {"value": {"tensor": {"dtype": "DT_FLOAT", "tensorShape": {"dim": [{"size": "1"}, {"size": "2"}, {"size": "84"}]}}}, "dtype": {"type": "DT_FLOAT"}}}, {"name": "model_272/tf.strided_slice_55/ones_like/tensor", "op": "Const", "attr": {"dtype": {"type": "DT_INT64"}, "value": {"tensor": {"dtype": "DT_INT64", "tensorShape": {"dim": [{"size": "3"}]}}}}}, {"name": "model_272/tf.strided_slice_55/StridedSlice/end", "op": "Const", "attr": {"dtype": {"type": "DT_INT64"}, "value": {"tensor": {"dtype": "DT_INT64", "tensorShape": {"dim": [{"size": "3"}]}}}}}, {"name": "model_272/tf.strided_slice_55/ones_like", "op": "Const", "attr": {"value": {"tensor": {"dtype": "DT_INT64", "tensorShape": {"dim": [{"size": "3"}]}}}, "dtype": {"type": "DT_INT64"}}}, {"name": "model_272/181980", "op": "Const", "attr": {"dtype": {"type": "DT_FLOAT"}, "value": {"tensor": {"dtype": "DT_FLOAT", "tensorShape": {"dim": [{"size": "1"}, {"size": "2"}, {"size": "84"}]}}}}}, {"name": "model_272/tf.strided_slice_52/StridedSlice/begin", "op": "Const", "attr": {"value": {"tensor": {"dtype": "DT_INT64", "tensorShape": {"dim": [{"size": "3"}]}}}, "dtype": {"type": "DT_INT64"}}}, {"name": "model_272/tf.strided_slice_52/StridedSlice/end", "op": "Const", "attr": {"value": {"tensor": {"dtype": "DT_INT64", "tensorShape": {"dim": [{"size": "3"}]}}}, "dtype": {"type": "DT_INT64"}}}, {"name": "model_272/tf.strided_slice_52/StridedSlice/strides", "op": "Const", "attr": {"value": {"tensor": {"dtype": "DT_INT64", "tensorShape": {"dim": [{"size": "3"}]}}}, "dtype": {"type": "DT_INT64"}}}, {"name": "model_272/tf.reshape_41/Reshape/shape", "op": "Const", "attr": {"dtype": {"type": "DT_INT32"}, "value": {"tensor": {"dtype": "DT_INT32", "tensorShape": {"dim": [{"size": "4"}]}}}}}, {"name": "model_272/tf.compat.v1.transpose_329/transpose/perm", "op": "Const", "attr": {"value": {"tensor": {"dtype": "DT_INT32", "tensorShape": {"dim": [{"size": "4"}]}}}, "dtype": {"type": "DT_INT32"}}}, {"name": "model_272/tf.compat.v1.transpose_330/transpose/perm", "op": "Const", "attr": {"dtype": {"type": "DT_INT32"}, "value": {"tensor": {"dtype": "DT_INT32", "tensorShape": {"dim": [{"size": "4"}]}}}}}, {"name": "model_272/tf.nn.convolution_619/convolution/filter", "op": "Const", "attr": {"value": {"tensor": {"dtype": "DT_FLOAT", "tensorShape": {"dim": [{"size": "1"}, {"size": "1"}, {"size": "16"}, {"size": "1"}]}}}, "dtype": {"type": "DT_FLOAT"}}}, {"name": "model_272/tf.compat.v1.transpose_335/transpose/perm", "op": "Const", "attr": {"value": {"tensor": {"dtype": "DT_INT32", "tensorShape": {"dim": [{"size": "4"}]}}}, "dtype": {"type": "DT_INT32"}}}, {"name": "model_272/tf.reshape_44/Reshape/shape", "op": "Const", "attr": {"value": {"tensor": {"dtype": "DT_INT32", "tensorShape": {"dim": [{"size": "3"}]}}}, "dtype": {"type": "DT_INT32"}}}, {"name": "model_272/tf.strided_slice_54/ones_like/tensor", "op": "Const", "attr": {"value": {"tensor": {"dtype": "DT_INT64", "tensorShape": {"dim": [{"size": "3"}]}}}, "dtype": {"type": "DT_INT64"}}}, {"name": "model_272/tf.strided_slice_54/StridedSlice/end", "op": "Const", "attr": {"dtype": {"type": "DT_INT64"}, "value": {"tensor": {"dtype": "DT_INT64", "tensorShape": {"dim": [{"size": "3"}]}}}}}, {"name": "model_272/tf.strided_slice_54/ones_like", "op": "Const", "attr": {"dtype": {"type": "DT_INT64"}, "value": {"tensor": {"dtype": "DT_INT64", "tensorShape": {"dim": [{"size": "3"}]}}}}}, {"name": "model_272/tf.concat_118/concat/axis", "op": "Const", "attr": {"dtype": {"type": "DT_INT32"}, "value": {"tensor": {"dtype": "DT_INT32", "tensorShape": {}}}}}, {"name": "model_272/tf.math.multiply_2302/Mul/y", "op": "Const", "attr": {"value": {"tensor": {"dtype": "DT_FLOAT", "tensorShape": {"dim": [{"size": "1"}, {"size": "1"}, {"size": "84"}]}}}, "dtype": {"type": "DT_FLOAT"}}}, {"name": "model_272/tf.nn.convolution_607/convolution/filter", "op": "Const", "attr": {"dtype": {"type": "DT_FLOAT"}, "value": {"tensor": {"dtype": "DT_FLOAT", "tensorShape": {"dim": [{"size": "3"}, {"size": "3"}, {"size": "8"}, {"size": "64"}]}}}}}, {"name": "model_272/tf.math.add_853/Add/y", "op": "Const", "attr": {"value": {"tensor": {"dtype": "DT_FLOAT", "tensorShape": {"dim": [{"size": "64"}]}}}, "dtype": {"type": "DT_FLOAT"}}}, {"name": "model_272/tf.nn.convolution_608/convolution/filter", "op": "Const", "attr": {"value": {"tensor": {"dtype": "DT_FLOAT", "tensorShape": {"dim": [{"size": "3"}, {"size": "3"}, {"size": "64"}, {"size": "64"}]}}}, "dtype": {"type": "DT_FLOAT"}}}, {"name": "model_272/tf.math.add_857/Add/y", "op": "Const", "attr": {"dtype": {"type": "DT_FLOAT"}, "value": {"tensor": {"dtype": "DT_FLOAT", "tensorShape": {"dim": [{"size": "64"}]}}}}}, {"name": "model_272/tf.nn.convolution_612/convolution/filter", "op": "Const", "attr": {"value": {"tensor": {"dtype": "DT_FLOAT", "tensorShape": {"dim": [{"size": "1"}, {"size": "1"}, {"size": "64"}, {"size": "64"}]}}}, "dtype": {"type": "DT_FLOAT"}}}, {"name": "model_272/tf.math.add_861/Add/y", "op": "Const", "attr": {"dtype": {"type": "DT_FLOAT"}, "value": {"tensor": {"dtype": "DT_FLOAT", "tensorShape": {"dim": [{"size": "64"}]}}}}}, {"name": "model_272/tf.strided_slice_50/ones_like/tensor", "op": "Const", "attr": {"dtype": {"type": "DT_INT64"}, "value": {"tensor": {"dtype": "DT_INT64", "tensorShape": {"dim": [{"size": "4"}]}}}}}, {"name": "model_272/tf.strided_slice_50/StridedSlice/end", "op": "Const", "attr": {"dtype": {"type": "DT_INT64"}, "value": {"tensor": {"dtype": "DT_INT64", "tensorShape": {"dim": [{"size": "4"}]}}}}}, {"name": "model_272/tf.strided_slice_50/ones_like", "op": "Const", "attr": {"value": {"tensor": {"dtype": "DT_INT64", "tensorShape": {"dim": [{"size": "4"}]}}}, "dtype": {"type": "DT_INT64"}}}, {"name": "model_272/tf.nn.convolution_582/convolution/filter", "op": "Const", "attr": {"dtype": {"type": "DT_FLOAT"}, "value": {"tensor": {"dtype": "DT_FLOAT", "tensorShape": {"dim": [{"size": "1"}, {"size": "1"}, {"size": "16"}, {"size": "8"}]}}}}}, {"name": "model_272/tf.math.add_822/Add/y", "op": "Const", "attr": {"value": {"tensor": {"dtype": "DT_FLOAT", "tensorShape": {"dim": [{"size": "8"}]}}}, "dtype": {"type": "DT_FLOAT"}}}, {"name": "model_272/tf.nn.convolution_586/convolution/filter", "op": "Const", "attr": {"value": {"tensor": {"dtype": "DT_FLOAT", "tensorShape": {"dim": [{"size": "3"}, {"size": "3"}, {"size": "8"}, {"size": "8"}]}}}, "dtype": {"type": "DT_FLOAT"}}}, {"name": "model_272/tf.math.add_826/Add/y", "op": "Const", "attr": {"value": {"tensor": {"dtype": "DT_FLOAT", "tensorShape": {"dim": [{"size": "8"}]}}}, "dtype": {"type": "DT_FLOAT"}}}, {"name": "model_272/tf.nn.convolution_589/convolution/filter", "op": "Const", "attr": {"value": {"tensor": {"dtype": "DT_FLOAT", "tensorShape": {"dim": [{"size": "3"}, {"size": "3"}, {"size": "8"}, {"size": "8"}]}}}, "dtype": {"type": "DT_FLOAT"}}}, {"name": "model_272/tf.math.add_829/Add/y", "op": "Const", "attr": {"dtype": {"type": "DT_FLOAT"}, "value": {"tensor": {"dtype": "DT_FLOAT", "tensorShape": {"dim": [{"size": "8"}]}}}}}, {"name": "model_272/tf.nn.convolution_592/convolution/filter", "op": "Const", "attr": {"value": {"tensor": {"dtype": "DT_FLOAT", "tensorShape": {"dim": [{"size": "3"}, {"size": "3"}, {"size": "8"}, {"size": "8"}]}}}, "dtype": {"type": "DT_FLOAT"}}}, {"name": "model_272/tf.math.add_834/Add/y", "op": "Const", "attr": {"value": {"tensor": {"dtype": "DT_FLOAT", "tensorShape": {"dim": [{"size": "8"}]}}}, "dtype": {"type": "DT_FLOAT"}}}, {"name": "model_272/tf.nn.convolution_595/convolution/filter", "op": "Const", "attr": {"dtype": {"type": "DT_FLOAT"}, "value": {"tensor": {"dtype": "DT_FLOAT", "tensorShape": {"dim": [{"size": "3"}, {"size": "3"}, {"size": "8"}, {"size": "8"}]}}}}}, {"name": "model_272/tf.math.add_837/Add/y", "op": "Const", "attr": {"dtype": {"type": "DT_FLOAT"}, "value": {"tensor": {"dtype": "DT_FLOAT", "tensorShape": {"dim": [{"size": "8"}]}}}}}, {"name": "model_272/tf.nn.convolution_598/convolution/filter", "op": "Const", "attr": {"dtype": {"type": "DT_FLOAT"}, "value": {"tensor": {"dtype": "DT_FLOAT", "tensorShape": {"dim": [{"size": "3"}, {"size": "3"}, {"size": "8"}, {"size": "8"}]}}}}}, {"name": "model_272/tf.math.add_842/Add/y", "op": "Const", "attr": {"dtype": {"type": "DT_FLOAT"}, "value": {"tensor": {"dtype": "DT_FLOAT", "tensorShape": {"dim": [{"size": "8"}]}}}}}, {"name": "model_272/tf.nn.convolution_601/convolution/filter", "op": "Const", "attr": {"value": {"tensor": {"dtype": "DT_FLOAT", "tensorShape": {"dim": [{"size": "3"}, {"size": "3"}, {"size": "8"}, {"size": "8"}]}}}, "dtype": {"type": "DT_FLOAT"}}}, {"name": "model_272/tf.math.add_845/Add/y", "op": "Const", "attr": {"dtype": {"type": "DT_FLOAT"}, "value": {"tensor": {"dtype": "DT_FLOAT", "tensorShape": {"dim": [{"size": "8"}]}}}}}, {"name": "model_272/tf.nn.convolution_558/convolution/filter", "op": "Const", "attr": {"dtype": {"type": "DT_FLOAT"}, "value": {"tensor": {"dtype": "DT_FLOAT", "tensorShape": {"dim": [{"size": "1"}, {"size": "1"}, {"size": "16"}, {"size": "8"}]}}}}}, {"name": "model_272/tf.math.add_792/Add/y", "op": "Const", "attr": {"dtype": {"type": "DT_FLOAT"}, "value": {"tensor": {"dtype": "DT_FLOAT", "tensorShape": {"dim": [{"size": "8"}]}}}}}, {"name": "model_272/tf.nn.convolution_563/convolution/filter", "op": "Const", "attr": {"dtype": {"type": "DT_FLOAT"}, "value": {"tensor": {"dtype": "DT_FLOAT", "tensorShape": {"dim": [{"size": "3"}, {"size": "3"}, {"size": "8"}, {"size": "8"}]}}}}}, {"name": "model_272/tf.math.add_797/Add/y", "op": "Const", "attr": {"value": {"tensor": {"dtype": "DT_FLOAT", "tensorShape": {"dim": [{"size": "8"}]}}}, "dtype": {"type": "DT_FLOAT"}}}, {"name": "model_272/tf.nn.convolution_567/convolution/filter", "op": "Const", "attr": {"value": {"tensor": {"dtype": "DT_FLOAT", "tensorShape": {"dim": [{"size": "3"}, {"size": "3"}, {"size": "8"}, {"size": "8"}]}}}, "dtype": {"type": "DT_FLOAT"}}}, {"name": "model_272/tf.math.add_801/Add/y", "op": "Const", "attr": {"dtype": {"type": "DT_FLOAT"}, "value": {"tensor": {"dtype": "DT_FLOAT", "tensorShape": {"dim": [{"size": "8"}]}}}}}, {"name": "model_272/tf.nn.convolution_570/convolution/filter", "op": "Const", "attr": {"value": {"tensor": {"dtype": "DT_FLOAT", "tensorShape": {"dim": [{"size": "3"}, {"size": "3"}, {"size": "8"}, {"size": "8"}]}}}, "dtype": {"type": "DT_FLOAT"}}}, {"name": "model_272/tf.math.add_806/Add/y", "op": "Const", "attr": {"value": {"tensor": {"dtype": "DT_FLOAT", "tensorShape": {"dim": [{"size": "8"}]}}}, "dtype": {"type": "DT_FLOAT"}}}, {"name": "model_272/tf.nn.convolution_573/convolution/filter", "op": "Const", "attr": {"dtype": {"type": "DT_FLOAT"}, "value": {"tensor": {"dtype": "DT_FLOAT", "tensorShape": {"dim": [{"size": "3"}, {"size": "3"}, {"size": "8"}, {"size": "8"}]}}}}}, {"name": "model_272/tf.math.add_809/Add/y", "op": "Const", "attr": {"dtype": {"type": "DT_FLOAT"}, "value": {"tensor": {"dtype": "DT_FLOAT", "tensorShape": {"dim": [{"size": "8"}]}}}}}, {"name": "model_272/tf.nn.convolution_576/convolution/filter", "op": "Const", "attr": {"value": {"tensor": {"dtype": "DT_FLOAT", "tensorShape": {"dim": [{"size": "3"}, {"size": "3"}, {"size": "8"}, {"size": "8"}]}}}, "dtype": {"type": "DT_FLOAT"}}}, {"name": "model_272/tf.math.add_814/Add/y", "op": "Const", "attr": {"value": {"tensor": {"dtype": "DT_FLOAT", "tensorShape": {"dim": [{"size": "8"}]}}}, "dtype": {"type": "DT_FLOAT"}}}, {"name": "model_272/tf.nn.convolution_579/convolution/filter", "op": "Const", "attr": {"dtype": {"type": "DT_FLOAT"}, "value": {"tensor": {"dtype": "DT_FLOAT", "tensorShape": {"dim": [{"size": "3"}, {"size": "3"}, {"size": "8"}, {"size": "8"}]}}}}}, {"name": "model_272/tf.math.add_817/Add/y", "op": "Const", "attr": {"value": {"tensor": {"dtype": "DT_FLOAT", "tensorShape": {"dim": [{"size": "8"}]}}}, "dtype": {"type": "DT_FLOAT"}}}, {"name": "model_272/tf.image.resize_5/resize/size", "op": "Const", "attr": {"value": {"tensor": {"dtype": "DT_INT32", "tensorShape": {"dim": [{"size": "2"}]}}}, "dtype": {"type": "DT_INT32"}}}, {"name": "model_272/tf.concat_104/concat/axis", "op": "Const", "attr": {"value": {"tensor": {"dtype": "DT_INT32", "tensorShape": {}}}, "dtype": {"type": "DT_INT32"}}}, {"name": "model_272/tf.nn.convolution_554/convolution/filter", "op": "Const", "attr": {"value": {"tensor": {"dtype": "DT_FLOAT", "tensorShape": {"dim": [{"size": "1"}, {"size": "1"}, {"size": "24"}, {"size": "32"}]}}}, "dtype": {"type": "DT_FLOAT"}}}, {"name": "model_272/tf.math.add_787/Add/y", "op": "Const", "attr": {"value": {"tensor": {"dtype": "DT_FLOAT", "tensorShape": {"dim": [{"size": "32"}]}}}, "dtype": {"type": "DT_FLOAT"}}}, {"name": "model_272/tf.strided_slice_51/ones_like/tensor", "op": "Const", "attr": {"dtype": {"type": "DT_INT64"}, "value": {"tensor": {"dtype": "DT_INT64", "tensorShape": {"dim": [{"size": "4"}]}}}}}, {"name": "model_272/tf.strided_slice_51/StridedSlice/end", "op": "Const", "attr": {"dtype": {"type": "DT_INT64"}, "value": {"tensor": {"dtype": "DT_INT64", "tensorShape": {"dim": [{"size": "4"}]}}}}}, {"name": "model_272/tf.strided_slice_51/ones_like", "op": "Const", "attr": {"value": {"tensor": {"dtype": "DT_INT64", "tensorShape": {"dim": [{"size": "4"}]}}}, "dtype": {"type": "DT_INT64"}}}, {"name": "model_272/tf.nn.convolution_559/convolution/filter", "op": "Const", "attr": {"value": {"tensor": {"dtype": "DT_FLOAT", "tensorShape": {"dim": [{"size": "1"}, {"size": "1"}, {"size": "16"}, {"size": "8"}]}}}, "dtype": {"type": "DT_FLOAT"}}}, {"name": "model_272/tf.math.add_793/Add/y", "op": "Const", "attr": {"dtype": {"type": "DT_FLOAT"}, "value": {"tensor": {"dtype": "DT_FLOAT", "tensorShape": {"dim": [{"size": "8"}]}}}}}, {"name": "model_272/tf.concat_108/concat/axis", "op": "Const", "attr": {"dtype": {"type": "DT_INT32"}, "value": {"tensor": {"dtype": "DT_INT32", "tensorShape": {}}}}}, {"name": "model_272/tf.nn.convolution_580/convolution/filter", "op": "Const", "attr": {"dtype": {"type": "DT_FLOAT"}, "value": {"tensor": {"dtype": "DT_FLOAT", "tensorShape": {"dim": [{"size": "1"}, {"size": "1"}, {"size": "16"}, {"size": "16"}]}}}}}, {"name": "model_272/tf.math.add_820/Add/y", "op": "Const", "attr": {"value": {"tensor": {"dtype": "DT_FLOAT", "tensorShape": {"dim": [{"size": "16"}]}}}, "dtype": {"type": "DT_FLOAT"}}}, {"name": "model_272/tf.nn.convolution_581/convolution/filter", "op": "Const", "attr": {"dtype": {"type": "DT_FLOAT"}, "value": {"tensor": {"dtype": "DT_FLOAT", "tensorShape": {"dim": [{"size": "3"}, {"size": "3"}, {"size": "16"}, {"size": "16"}]}}}}}, {"name": "model_272/tf.math.add_821/Add/y", "op": "Const", "attr": {"dtype": {"type": "DT_FLOAT"}, "value": {"tensor": {"dtype": "DT_FLOAT", "tensorShape": {"dim": [{"size": "16"}]}}}}}, {"name": "model_272/tf.nn.convolution_583/convolution/filter", "op": "Const", "attr": {"value": {"tensor": {"dtype": "DT_FLOAT", "tensorShape": {"dim": [{"size": "1"}, {"size": "1"}, {"size": "16"}, {"size": "8"}]}}}, "dtype": {"type": "DT_FLOAT"}}}, {"name": "model_272/tf.math.add_823/Add/y", "op": "Const", "attr": {"value": {"tensor": {"dtype": "DT_FLOAT", "tensorShape": {"dim": [{"size": "8"}]}}}, "dtype": {"type": "DT_FLOAT"}}}, {"name": "model_272/tf.concat_111/concat/axis", "op": "Const", "attr": {"value": {"tensor": {"dtype": "DT_INT32", "tensorShape": {}}}, "dtype": {"type": "DT_INT32"}}}, {"name": "model_272/tf.nn.convolution_602/convolution/filter", "op": "Const", "attr": {"dtype": {"type": "DT_FLOAT"}, "value": {"tensor": {"dtype": "DT_FLOAT", "tensorShape": {"dim": [{"size": "1"}, {"size": "1"}, {"size": "16"}, {"size": "16"}]}}}}}, {"name": "model_272/tf.math.add_848/Add/y", "op": "Const", "attr": {"value": {"tensor": {"dtype": "DT_FLOAT", "tensorShape": {"dim": [{"size": "16"}]}}}, "dtype": {"type": "DT_FLOAT"}}}, {"name": "model_272/tf.nn.convolution_603/convolution/filter", "op": "Const", "attr": {"dtype": {"type": "DT_FLOAT"}, "value": {"tensor": {"dtype": "DT_FLOAT", "tensorShape": {"dim": [{"size": "3"}, {"size": "3"}, {"size": "16"}, {"size": "16"}]}}}}}, {"name": "model_272/tf.math.add_849/Add/y", "op": "Const", "attr": {"dtype": {"type": "DT_FLOAT"}, "value": {"tensor": {"dtype": "DT_FLOAT", "tensorShape": {"dim": [{"size": "16"}]}}}}}, {"name": "model_272/tf.concat_112/concat/axis", "op": "Const", "attr": {"dtype": {"type": "DT_INT32"}, "value": {"tensor": {"dtype": "DT_INT32", "tensorShape": {}}}}}, {"name": "model_272/tf.nn.convolution_604/convolution/filter", "op": "Const", "attr": {"dtype": {"type": "DT_FLOAT"}, "value": {"tensor": {"dtype": "DT_FLOAT", "tensorShape": {"dim": [{"size": "1"}, {"size": "1"}, {"size": "64"}, {"size": "8"}]}}}}}, {"name": "model_272/tf.math.add_850/Add/y", "op": "Const", "attr": {"dtype": {"type": "DT_FLOAT"}, "value": {"tensor": {"dtype": "DT_FLOAT", "tensorShape": {"dim": [{"size": "8"}]}}}}}, {"name": "model_272/tf.compat.v1.nn.depthwise_conv2d_18/depthwise/filter_in", "op": "Const", "attr": {"value": {"tensor": {"dtype": "DT_FLOAT", "tensorShape": {"dim": [{"size": "3"}, {"size": "3"}, {"size": "8"}, {"size": "1"}]}}}, "dtype": {"type": "DT_FLOAT"}}}, {"name": "model_272/tf.math.add_856/Add/y", "op": "Const", "attr": {"dtype": {"type": "DT_FLOAT"}, "value": {"tensor": {"dtype": "DT_FLOAT", "tensorShape": {"dim": [{"size": "8"}]}}}}}, {"name": "model_272/tf.nn.convolution_611/convolution/filter", "op": "Const", "attr": {"dtype": {"type": "DT_FLOAT"}, "value": {"tensor": {"dtype": "DT_FLOAT", "tensorShape": {"dim": [{"size": "1"}, {"size": "1"}, {"size": "8"}, {"size": "8"}]}}}}}, {"name": "model_272/tf.math.add_860/Add/y", "op": "Const", "attr": {"dtype": {"type": "DT_FLOAT"}, "value": {"tensor": {"dtype": "DT_FLOAT", "tensorShape": {"dim": [{"size": "8"}]}}}}}, {"name": "model_272/tf.compat.v1.nn.depthwise_conv2d_21/depthwise/filter_in", "op": "Const", "attr": {"value": {"tensor": {"dtype": "DT_FLOAT", "tensorShape": {"dim": [{"size": "3"}, {"size": "3"}, {"size": "8"}, {"size": "1"}]}}}, "dtype": {"type": "DT_FLOAT"}}}, {"name": "model_272/tf.math.add_864/Add/y", "op": "Const", "attr": {"value": {"tensor": {"dtype": "DT_FLOAT", "tensorShape": {"dim": [{"size": "8"}]}}}, "dtype": {"type": "DT_FLOAT"}}}, {"name": "model_272/tf.nn.convolution_615/convolution/filter", "op": "Const", "attr": {"value": {"tensor": {"dtype": "DT_FLOAT", "tensorShape": {"dim": [{"size": "1"}, {"size": "1"}, {"size": "8"}, {"size": "8"}]}}}, "dtype": {"type": "DT_FLOAT"}}}, {"name": "model_272/tf.math.add_867/Add/y", "op": "Const", "attr": {"value": {"tensor": {"dtype": "DT_FLOAT", "tensorShape": {"dim": [{"size": "8"}]}}}, "dtype": {"type": "DT_FLOAT"}}}, {"name": "model_272/tf.nn.convolution_618/convolution/filter", "op": "Const", "attr": {"dtype": {"type": "DT_FLOAT"}, "value": {"tensor": {"dtype": "DT_FLOAT", "tensorShape": {"dim": [{"size": "1"}, {"size": "1"}, {"size": "8"}, {"size": "2"}]}}}}}, {"name": "model_272/tf.math.add_870/Add/y", "op": "Const", "attr": {"value": {"tensor": {"dtype": "DT_FLOAT", "tensorShape": {"dim": [{"size": "2"}]}}}, "dtype": {"type": "DT_FLOAT"}}}, {"name": "model_272/tf.concat_113/concat/axis", "op": "Const", "attr": {"value": {"tensor": {"dtype": "DT_INT32", "tensorShape": {}}}, "dtype": {"type": "DT_INT32"}}}, {"name": "model_272/tf.compat.v1.transpose_322/transpose/perm", "op": "Const", "attr": {"value": {"tensor": {"dtype": "DT_INT32", "tensorShape": {"dim": [{"size": "4"}]}}}, "dtype": {"type": "DT_INT32"}}}, {"name": "model_272/tf.reshape_38/Reshape/shape", "op": "Const", "attr": {"value": {"tensor": {"dtype": "DT_INT32", "tensorShape": {"dim": [{"size": "3"}]}}}, "dtype": {"type": "DT_INT32"}}}, {"name": "model_272/tf.nn.convolution_553/convolution/filter", "op": "Const", "attr": {"value": {"tensor": {"dtype": "DT_FLOAT", "tensorShape": {"dim": [{"size": "3"}, {"size": "3"}, {"size": "16"}, {"size": "64"}]}}}, "dtype": {"type": "DT_FLOAT"}}}, {"name": "model_272/tf.math.add_785/Add/y", "op": "Const", "attr": {"value": {"tensor": {"dtype": "DT_FLOAT", "tensorShape": {"dim": [{"size": "64"}]}}}, "dtype": {"type": "DT_FLOAT"}}}, {"name": "model_272/tf.nn.convolution_555/convolution/filter", "op": "Const", "attr": {"value": {"tensor": {"dtype": "DT_FLOAT", "tensorShape": {"dim": [{"size": "3"}, {"size": "3"}, {"size": "64"}, {"size": "64"}]}}}, "dtype": {"type": "DT_FLOAT"}}}, {"name": "model_272/tf.math.add_788/Add/y", "op": "Const", "attr": {"dtype": {"type": "DT_FLOAT"}, "value": {"tensor": {"dtype": "DT_FLOAT", "tensorShape": {"dim": [{"size": "64"}]}}}}}, {"name": "model_272/tf.nn.convolution_557/convolution/filter", "op": "Const", "attr": {"dtype": {"type": "DT_FLOAT"}, "value": {"tensor": {"dtype": "DT_FLOAT", "tensorShape": {"dim": [{"size": "1"}, {"size": "1"}, {"size": "64"}, {"size": "64"}]}}}}}, {"name": "model_272/tf.math.add_790/Add/y", "op": "Const", "attr": {"value": {"tensor": {"dtype": "DT_FLOAT", "tensorShape": {"dim": [{"size": "64"}]}}}, "dtype": {"type": "DT_FLOAT"}}}, {"name": "model_272/tf.strided_slice_48/ones_like/tensor", "op": "Const", "attr": {"dtype": {"type": "DT_INT64"}, "value": {"tensor": {"dtype": "DT_INT64", "tensorShape": {"dim": [{"size": "4"}]}}}}}, {"name": "model_272/tf.strided_slice_48/StridedSlice/end", "op": "Const", "attr": {"dtype": {"type": "DT_INT64"}, "value": {"tensor": {"dtype": "DT_INT64", "tensorShape": {"dim": [{"size": "4"}]}}}}}, {"name": "model_272/tf.strided_slice_48/ones_like", "op": "Const", "attr": {"dtype": {"type": "DT_INT64"}, "value": {"tensor": {"dtype": "DT_INT64", "tensorShape": {"dim": [{"size": "4"}]}}}}}, {"name": "model_272/tf.nn.convolution_542/convolution/filter", "op": "Const", "attr": {"dtype": {"type": "DT_FLOAT"}, "value": {"tensor": {"dtype": "DT_FLOAT", "tensorShape": {"dim": [{"size": "1"}, {"size": "1"}, {"size": "24"}, {"size": "12"}]}}}}}, {"name": "model_272/tf.math.add_768/Add/y", "op": "Const", "attr": {"dtype": {"type": "DT_FLOAT"}, "value": {"tensor": {"dtype": "DT_FLOAT", "tensorShape": {"dim": [{"size": "12"}]}}}}}, {"name": "model_272/tf.nn.convolution_544/convolution/filter", "op": "Const", "attr": {"value": {"tensor": {"dtype": "DT_FLOAT", "tensorShape": {"dim": [{"size": "3"}, {"size": "3"}, {"size": "12"}, {"size": "12"}]}}}, "dtype": {"type": "DT_FLOAT"}}}, {"name": "model_272/tf.math.add_770/Add/y", "op": "Const", "attr": {"dtype": {"type": "DT_FLOAT"}, "value": {"tensor": {"dtype": "DT_FLOAT", "tensorShape": {"dim": [{"size": "12"}]}}}}}, {"name": "model_272/tf.nn.convolution_545/convolution/filter", "op": "Const", "attr": {"dtype": {"type": "DT_FLOAT"}, "value": {"tensor": {"dtype": "DT_FLOAT", "tensorShape": {"dim": [{"size": "3"}, {"size": "3"}, {"size": "12"}, {"size": "12"}]}}}}}, {"name": "model_272/tf.math.add_771/Add/y", "op": "Const", "attr": {"value": {"tensor": {"dtype": "DT_FLOAT", "tensorShape": {"dim": [{"size": "12"}]}}}, "dtype": {"type": "DT_FLOAT"}}}, {"name": "model_272/tf.nn.convolution_546/convolution/filter", "op": "Const", "attr": {"value": {"tensor": {"dtype": "DT_FLOAT", "tensorShape": {"dim": [{"size": "3"}, {"size": "3"}, {"size": "12"}, {"size": "12"}]}}}, "dtype": {"type": "DT_FLOAT"}}}, {"name": "model_272/tf.math.add_774/Add/y", "op": "Const", "attr": {"dtype": {"type": "DT_FLOAT"}, "value": {"tensor": {"dtype": "DT_FLOAT", "tensorShape": {"dim": [{"size": "12"}]}}}}}, {"name": "model_272/tf.nn.convolution_547/convolution/filter", "op": "Const", "attr": {"dtype": {"type": "DT_FLOAT"}, "value": {"tensor": {"dtype": "DT_FLOAT", "tensorShape": {"dim": [{"size": "3"}, {"size": "3"}, {"size": "12"}, {"size": "12"}]}}}}}, {"name": "model_272/tf.math.add_775/Add/y", "op": "Const", "attr": {"value": {"tensor": {"dtype": "DT_FLOAT", "tensorShape": {"dim": [{"size": "12"}]}}}, "dtype": {"type": "DT_FLOAT"}}}, {"name": "model_272/tf.nn.convolution_548/convolution/filter", "op": "Const", "attr": {"dtype": {"type": "DT_FLOAT"}, "value": {"tensor": {"dtype": "DT_FLOAT", "tensorShape": {"dim": [{"size": "3"}, {"size": "3"}, {"size": "12"}, {"size": "12"}]}}}}}, {"name": "model_272/tf.math.add_778/Add/y", "op": "Const", "attr": {"value": {"tensor": {"dtype": "DT_FLOAT", "tensorShape": {"dim": [{"size": "12"}]}}}, "dtype": {"type": "DT_FLOAT"}}}, {"name": "model_272/tf.nn.convolution_549/convolution/filter", "op": "Const", "attr": {"value": {"tensor": {"dtype": "DT_FLOAT", "tensorShape": {"dim": [{"size": "3"}, {"size": "3"}, {"size": "12"}, {"size": "12"}]}}}, "dtype": {"type": "DT_FLOAT"}}}, {"name": "model_272/tf.math.add_779/Add/y", "op": "Const", "attr": {"value": {"tensor": {"dtype": "DT_FLOAT", "tensorShape": {"dim": [{"size": "12"}]}}}, "dtype": {"type": "DT_FLOAT"}}}, {"name": "model_272/tf.nn.convolution_530/convolution/filter", "op": "Const", "attr": {"dtype": {"type": "DT_FLOAT"}, "value": {"tensor": {"dtype": "DT_FLOAT", "tensorShape": {"dim": [{"size": "1"}, {"size": "1"}, {"size": "24"}, {"size": "12"}]}}}}}, {"name": "model_272/tf.math.add_750/Add/y", "op": "Const", "attr": {"dtype": {"type": "DT_FLOAT"}, "value": {"tensor": {"dtype": "DT_FLOAT", "tensorShape": {"dim": [{"size": "12"}]}}}}}, {"name": "model_272/tf.nn.convolution_533/convolution/filter", "op": "Const", "attr": {"dtype": {"type": "DT_FLOAT"}, "value": {"tensor": {"dtype": "DT_FLOAT", "tensorShape": {"dim": [{"size": "3"}, {"size": "3"}, {"size": "12"}, {"size": "12"}]}}}}}, {"name": "model_272/tf.math.add_753/Add/y", "op": "Const", "attr": {"value": {"tensor": {"dtype": "DT_FLOAT", "tensorShape": {"dim": [{"size": "12"}]}}}, "dtype": {"type": "DT_FLOAT"}}}, {"name": "model_272/tf.nn.convolution_535/convolution/filter", "op": "Const", "attr": {"value": {"tensor": {"dtype": "DT_FLOAT", "tensorShape": {"dim": [{"size": "3"}, {"size": "3"}, {"size": "12"}, {"size": "12"}]}}}, "dtype": {"type": "DT_FLOAT"}}}, {"name": "model_272/tf.math.add_755/Add/y", "op": "Const", "attr": {"dtype": {"type": "DT_FLOAT"}, "value": {"tensor": {"dtype": "DT_FLOAT", "tensorShape": {"dim": [{"size": "12"}]}}}}}, {"name": "model_272/tf.nn.convolution_536/convolution/filter", "op": "Const", "attr": {"dtype": {"type": "DT_FLOAT"}, "value": {"tensor": {"dtype": "DT_FLOAT", "tensorShape": {"dim": [{"size": "3"}, {"size": "3"}, {"size": "12"}, {"size": "12"}]}}}}}, {"name": "model_272/tf.math.add_758/Add/y", "op": "Const", "attr": {"dtype": {"type": "DT_FLOAT"}, "value": {"tensor": {"dtype": "DT_FLOAT", "tensorShape": {"dim": [{"size": "12"}]}}}}}, {"name": "model_272/tf.nn.convolution_537/convolution/filter", "op": "Const", "attr": {"dtype": {"type": "DT_FLOAT"}, "value": {"tensor": {"dtype": "DT_FLOAT", "tensorShape": {"dim": [{"size": "3"}, {"size": "3"}, {"size": "12"}, {"size": "12"}]}}}}}, {"name": "model_272/tf.math.add_759/Add/y", "op": "Const", "attr": {"value": {"tensor": {"dtype": "DT_FLOAT", "tensorShape": {"dim": [{"size": "12"}]}}}, "dtype": {"type": "DT_FLOAT"}}}, {"name": "model_272/tf.nn.convolution_538/convolution/filter", "op": "Const", "attr": {"dtype": {"type": "DT_FLOAT"}, "value": {"tensor": {"dtype": "DT_FLOAT", "tensorShape": {"dim": [{"size": "3"}, {"size": "3"}, {"size": "12"}, {"size": "12"}]}}}}}, {"name": "model_272/tf.math.add_762/Add/y", "op": "Const", "attr": {"value": {"tensor": {"dtype": "DT_FLOAT", "tensorShape": {"dim": [{"size": "12"}]}}}, "dtype": {"type": "DT_FLOAT"}}}, {"name": "model_272/tf.nn.convolution_539/convolution/filter", "op": "Const", "attr": {"dtype": {"type": "DT_FLOAT"}, "value": {"tensor": {"dtype": "DT_FLOAT", "tensorShape": {"dim": [{"size": "3"}, {"size": "3"}, {"size": "12"}, {"size": "12"}]}}}}}, {"name": "model_272/tf.math.add_763/Add/y", "op": "Const", "attr": {"value": {"tensor": {"dtype": "DT_FLOAT", "tensorShape": {"dim": [{"size": "12"}]}}}, "dtype": {"type": "DT_FLOAT"}}}, {"name": "model_272/tf.image.resize_4/resize/size", "op": "Const", "attr": {"dtype": {"type": "DT_INT32"}, "value": {"tensor": {"dtype": "DT_INT32", "tensorShape": {"dim": [{"size": "2"}]}}}}}, {"name": "model_272/tf.concat_95/concat/axis", "op": "Const", "attr": {"dtype": {"type": "DT_INT32"}, "value": {"tensor": {"dtype": "DT_INT32", "tensorShape": {}}}}}, {"name": "model_272/tf.nn.convolution_526/convolution/filter", "op": "Const", "attr": {"value": {"tensor": {"dtype": "DT_FLOAT", "tensorShape": {"dim": [{"size": "1"}, {"size": "1"}, {"size": "32"}, {"size": "48"}]}}}, "dtype": {"type": "DT_FLOAT"}}}, {"name": "model_272/tf.math.add_745/Add/y", "op": "Const", "attr": {"value": {"tensor": {"dtype": "DT_FLOAT", "tensorShape": {"dim": [{"size": "48"}]}}}, "dtype": {"type": "DT_FLOAT"}}}, {"name": "model_272/tf.strided_slice_49/ones_like/tensor", "op": "Const", "attr": {"dtype": {"type": "DT_INT64"}, "value": {"tensor": {"dtype": "DT_INT64", "tensorShape": {"dim": [{"size": "4"}]}}}}}, {"name": "model_272/tf.strided_slice_49/StridedSlice/end", "op": "Const", "attr": {"dtype": {"type": "DT_INT64"}, "value": {"tensor": {"dtype": "DT_INT64", "tensorShape": {"dim": [{"size": "4"}]}}}}}, {"name": "model_272/tf.strided_slice_49/ones_like", "op": "Const", "attr": {"value": {"tensor": {"dtype": "DT_INT64", "tensorShape": {"dim": [{"size": "4"}]}}}, "dtype": {"type": "DT_INT64"}}}, {"name": "model_272/tf.nn.convolution_531/convolution/filter", "op": "Const", "attr": {"value": {"tensor": {"dtype": "DT_FLOAT", "tensorShape": {"dim": [{"size": "1"}, {"size": "1"}, {"size": "24"}, {"size": "12"}]}}}, "dtype": {"type": "DT_FLOAT"}}}, {"name": "model_272/tf.math.add_751/Add/y", "op": "Const", "attr": {"value": {"tensor": {"dtype": "DT_FLOAT", "tensorShape": {"dim": [{"size": "12"}]}}}, "dtype": {"type": "DT_FLOAT"}}}, {"name": "model_272/tf.concat_99/concat/axis", "op": "Const", "attr": {"dtype": {"type": "DT_INT32"}, "value": {"tensor": {"dtype": "DT_INT32", "tensorShape": {}}}}}, {"name": "model_272/tf.nn.convolution_540/convolution/filter", "op": "Const", "attr": {"value": {"tensor": {"dtype": "DT_FLOAT", "tensorShape": {"dim": [{"size": "1"}, {"size": "1"}, {"size": "24"}, {"size": "24"}]}}}, "dtype": {"type": "DT_FLOAT"}}}, {"name": "model_272/tf.math.add_766/Add/y", "op": "Const", "attr": {"dtype": {"type": "DT_FLOAT"}, "value": {"tensor": {"dtype": "DT_FLOAT", "tensorShape": {"dim": [{"size": "24"}]}}}}}, {"name": "model_272/tf.nn.convolution_541/convolution/filter", "op": "Const", "attr": {"dtype": {"type": "DT_FLOAT"}, "value": {"tensor": {"dtype": "DT_FLOAT", "tensorShape": {"dim": [{"size": "3"}, {"size": "3"}, {"size": "24"}, {"size": "24"}]}}}}}, {"name": "model_272/tf.math.add_767/Add/y", "op": "Const", "attr": {"value": {"tensor": {"dtype": "DT_FLOAT", "tensorShape": {"dim": [{"size": "24"}]}}}, "dtype": {"type": "DT_FLOAT"}}}, {"name": "model_272/tf.nn.convolution_543/convolution/filter", "op": "Const", "attr": {"value": {"tensor": {"dtype": "DT_FLOAT", "tensorShape": {"dim": [{"size": "1"}, {"size": "1"}, {"size": "24"}, {"size": "12"}]}}}, "dtype": {"type": "DT_FLOAT"}}}, {"name": "model_272/tf.math.add_769/Add/y", "op": "Const", "attr": {"value": {"tensor": {"dtype": "DT_FLOAT", "tensorShape": {"dim": [{"size": "12"}]}}}, "dtype": {"type": "DT_FLOAT"}}}, {"name": "model_272/tf.concat_100/concat/axis", "op": "Const", "attr": {"value": {"tensor": {"dtype": "DT_INT32", "tensorShape": {}}}, "dtype": {"type": "DT_INT32"}}}, {"name": "model_272/tf.nn.convolution_550/convolution/filter", "op": "Const", "attr": {"value": {"tensor": {"dtype": "DT_FLOAT", "tensorShape": {"dim": [{"size": "1"}, {"size": "1"}, {"size": "24"}, {"size": "24"}]}}}, "dtype": {"type": "DT_FLOAT"}}}, {"name": "model_272/tf.math.add_782/Add/y", "op": "Const", "attr": {"dtype": {"type": "DT_FLOAT"}, "value": {"tensor": {"dtype": "DT_FLOAT", "tensorShape": {"dim": [{"size": "24"}]}}}}}, {"name": "model_272/tf.nn.convolution_551/convolution/filter", "op": "Const", "attr": {"dtype": {"type": "DT_FLOAT"}, "value": {"tensor": {"dtype": "DT_FLOAT", "tensorShape": {"dim": [{"size": "3"}, {"size": "3"}, {"size": "24"}, {"size": "24"}]}}}}}, {"name": "model_272/tf.math.add_783/Add/y", "op": "Const", "attr": {"value": {"tensor": {"dtype": "DT_FLOAT", "tensorShape": {"dim": [{"size": "24"}]}}}, "dtype": {"type": "DT_FLOAT"}}}, {"name": "model_272/tf.concat_101/concat/axis", "op": "Const", "attr": {"value": {"tensor": {"dtype": "DT_INT32", "tensorShape": {}}}, "dtype": {"type": "DT_INT32"}}}, {"name": "model_272/tf.nn.convolution_552/convolution/filter", "op": "Const", "attr": {"dtype": {"type": "DT_FLOAT"}, "value": {"tensor": {"dtype": "DT_FLOAT", "tensorShape": {"dim": [{"size": "1"}, {"size": "1"}, {"size": "96"}, {"size": "16"}]}}}}}, {"name": "model_272/tf.math.add_784/Add/y", "op": "Const", "attr": {"dtype": {"type": "DT_FLOAT"}, "value": {"tensor": {"dtype": "DT_FLOAT", "tensorShape": {"dim": [{"size": "16"}]}}}}}, {"name": "model_272/tf.compat.v1.nn.depthwise_conv2d_14/depthwise/filter_in", "op": "Const", "attr": {"dtype": {"type": "DT_FLOAT"}, "value": {"tensor": {"dtype": "DT_FLOAT", "tensorShape": {"dim": [{"size": "3"}, {"size": "3"}, {"size": "16"}, {"size": "1"}]}}}}}, {"name": "model_272/tf.math.add_786/Add/y", "op": "Const", "attr": {"value": {"tensor": {"dtype": "DT_FLOAT", "tensorShape": {"dim": [{"size": "16"}]}}}, "dtype": {"type": "DT_FLOAT"}}}, {"name": "model_272/tf.nn.convolution_556/convolution/filter", "op": "Const", "attr": {"value": {"tensor": {"dtype": "DT_FLOAT", "tensorShape": {"dim": [{"size": "1"}, {"size": "1"}, {"size": "16"}, {"size": "8"}]}}}, "dtype": {"type": "DT_FLOAT"}}}, {"name": "model_272/tf.math.add_789/Add/y", "op": "Const", "attr": {"dtype": {"type": "DT_FLOAT"}, "value": {"tensor": {"dtype": "DT_FLOAT", "tensorShape": {"dim": [{"size": "8"}]}}}}}, {"name": "model_272/tf.compat.v1.nn.depthwise_conv2d_15/depthwise/filter_in", "op": "Const", "attr": {"value": {"tensor": {"dtype": "DT_FLOAT", "tensorShape": {"dim": [{"size": "3"}, {"size": "3"}, {"size": "8"}, {"size": "1"}]}}}, "dtype": {"type": "DT_FLOAT"}}}, {"name": "model_272/tf.math.add_791/Add/y", "op": "Const", "attr": {"dtype": {"type": "DT_FLOAT"}, "value": {"tensor": {"dtype": "DT_FLOAT", "tensorShape": {"dim": [{"size": "8"}]}}}}}, {"name": "model_272/tf.nn.convolution_560/convolution/filter", "op": "Const", "attr": {"dtype": {"type": "DT_FLOAT"}, "value": {"tensor": {"dtype": "DT_FLOAT", "tensorShape": {"dim": [{"size": "1"}, {"size": "1"}, {"size": "8"}, {"size": "8"}]}}}}}, {"name": "model_272/tf.math.add_794/Add/y", "op": "Const", "attr": {"dtype": {"type": "DT_FLOAT"}, "value": {"tensor": {"dtype": "DT_FLOAT", "tensorShape": {"dim": [{"size": "8"}]}}}}}, {"name": "model_272/tf.nn.convolution_564/convolution/filter", "op": "Const", "attr": {"value": {"tensor": {"dtype": "DT_FLOAT", "tensorShape": {"dim": [{"size": "1"}, {"size": "1"}, {"size": "8"}, {"size": "2"}]}}}, "dtype": {"type": "DT_FLOAT"}}}, {"name": "model_272/tf.math.add_798/Add/y", "op": "Const", "attr": {"dtype": {"type": "DT_FLOAT"}, "value": {"tensor": {"dtype": "DT_FLOAT", "tensorShape": {"dim": [{"size": "2"}]}}}}}, {"name": "model_272/tf.concat_105/concat/axis", "op": "Const", "attr": {"value": {"tensor": {"dtype": "DT_INT32", "tensorShape": {}}}, "dtype": {"type": "DT_INT32"}}}, {"name": "model_272/tf.compat.v1.transpose_253/transpose/perm", "op": "Const", "attr": {"value": {"tensor": {"dtype": "DT_INT32", "tensorShape": {"dim": [{"size": "4"}]}}}, "dtype": {"type": "DT_INT32"}}}, {"name": "model_272/tf.reshape_35/Reshape/shape", "op": "Const", "attr": {"dtype": {"type": "DT_INT32"}, "value": {"tensor": {"dtype": "DT_INT32", "tensorShape": {"dim": [{"size": "3"}]}}}}}, {"name": "model_272/tf.nn.convolution_525/convolution/filter", "op": "Const", "attr": {"value": {"tensor": {"dtype": "DT_FLOAT", "tensorShape": {"dim": [{"size": "3"}, {"size": "3"}, {"size": "16"}, {"size": "64"}]}}}, "dtype": {"type": "DT_FLOAT"}}}, {"name": "model_272/tf.math.add_743/Add/y", "op": "Const", "attr": {"dtype": {"type": "DT_FLOAT"}, "value": {"tensor": {"dtype": "DT_FLOAT", "tensorShape": {"dim": [{"size": "64"}]}}}}}, {"name": "model_272/tf.nn.convolution_527/convolution/filter", "op": "Const", "attr": {"value": {"tensor": {"dtype": "DT_FLOAT", "tensorShape": {"dim": [{"size": "3"}, {"size": "3"}, {"size": "64"}, {"size": "64"}]}}}, "dtype": {"type": "DT_FLOAT"}}}, {"name": "model_272/tf.math.add_746/Add/y", "op": "Const", "attr": {"dtype": {"type": "DT_FLOAT"}, "value": {"tensor": {"dtype": "DT_FLOAT", "tensorShape": {"dim": [{"size": "64"}]}}}}}, {"name": "model_272/tf.nn.convolution_529/convolution/filter", "op": "Const", "attr": {"dtype": {"type": "DT_FLOAT"}, "value": {"tensor": {"dtype": "DT_FLOAT", "tensorShape": {"dim": [{"size": "1"}, {"size": "1"}, {"size": "64"}, {"size": "64"}]}}}}}, {"name": "model_272/tf.math.add_748/Add/y", "op": "Const", "attr": {"dtype": {"type": "DT_FLOAT"}, "value": {"tensor": {"dtype": "DT_FLOAT", "tensorShape": {"dim": [{"size": "64"}]}}}}}, {"name": "model_272/tf.strided_slice_46/ones_like/tensor", "op": "Const", "attr": {"value": {"tensor": {"dtype": "DT_INT64", "tensorShape": {"dim": [{"size": "4"}]}}}, "dtype": {"type": "DT_INT64"}}}, {"name": "model_272/tf.strided_slice_46/StridedSlice/end", "op": "Const", "attr": {"dtype": {"type": "DT_INT64"}, "value": {"tensor": {"dtype": "DT_INT64", "tensorShape": {"dim": [{"size": "4"}]}}}}}, {"name": "model_272/tf.strided_slice_46/ones_like", "op": "Const", "attr": {"value": {"tensor": {"dtype": "DT_INT64", "tensorShape": {"dim": [{"size": "4"}]}}}, "dtype": {"type": "DT_INT64"}}}, {"name": "model_272/tf.nn.convolution_512/convolution/filter", "op": "Const", "attr": {"dtype": {"type": "DT_FLOAT"}, "value": {"tensor": {"dtype": "DT_FLOAT", "tensorShape": {"dim": [{"size": "1"}, {"size": "1"}, {"size": "32"}, {"size": "16"}]}}}}}, {"name": "model_272/tf.math.add_724/Add/y", "op": "Const", "attr": {"dtype": {"type": "DT_FLOAT"}, "value": {"tensor": {"dtype": "DT_FLOAT", "tensorShape": {"dim": [{"size": "16"}]}}}}}, {"name": "model_272/tf.nn.convolution_514/convolution/filter", "op": "Const", "attr": {"value": {"tensor": {"dtype": "DT_FLOAT", "tensorShape": {"dim": [{"size": "3"}, {"size": "3"}, {"size": "16"}, {"size": "16"}]}}}, "dtype": {"type": "DT_FLOAT"}}}, {"name": "model_272/tf.math.add_726/Add/y", "op": "Const", "attr": {"dtype": {"type": "DT_FLOAT"}, "value": {"tensor": {"dtype": "DT_FLOAT", "tensorShape": {"dim": [{"size": "16"}]}}}}}, {"name": "model_272/tf.nn.convolution_515/convolution/filter", "op": "Const", "attr": {"dtype": {"type": "DT_FLOAT"}, "value": {"tensor": {"dtype": "DT_FLOAT", "tensorShape": {"dim": [{"size": "3"}, {"size": "3"}, {"size": "16"}, {"size": "16"}]}}}}}, {"name": "model_272/tf.math.add_727/Add/y", "op": "Const", "attr": {"value": {"tensor": {"dtype": "DT_FLOAT", "tensorShape": {"dim": [{"size": "16"}]}}}, "dtype": {"type": "DT_FLOAT"}}}, {"name": "model_272/tf.nn.convolution_516/convolution/filter", "op": "Const", "attr": {"value": {"tensor": {"dtype": "DT_FLOAT", "tensorShape": {"dim": [{"size": "3"}, {"size": "3"}, {"size": "16"}, {"size": "16"}]}}}, "dtype": {"type": "DT_FLOAT"}}}, {"name": "model_272/tf.math.add_730/Add/y", "op": "Const", "attr": {"value": {"tensor": {"dtype": "DT_FLOAT", "tensorShape": {"dim": [{"size": "16"}]}}}, "dtype": {"type": "DT_FLOAT"}}}, {"name": "model_272/tf.nn.convolution_517/convolution/filter", "op": "Const", "attr": {"dtype": {"type": "DT_FLOAT"}, "value": {"tensor": {"dtype": "DT_FLOAT", "tensorShape": {"dim": [{"size": "3"}, {"size": "3"}, {"size": "16"}, {"size": "16"}]}}}}}, {"name": "model_272/tf.math.add_731/Add/y", "op": "Const", "attr": {"value": {"tensor": {"dtype": "DT_FLOAT", "tensorShape": {"dim": [{"size": "16"}]}}}, "dtype": {"type": "DT_FLOAT"}}}, {"name": "model_272/tf.nn.convolution_518/convolution/filter", "op": "Const", "attr": {"value": {"tensor": {"dtype": "DT_FLOAT", "tensorShape": {"dim": [{"size": "3"}, {"size": "3"}, {"size": "16"}, {"size": "16"}]}}}, "dtype": {"type": "DT_FLOAT"}}}, {"name": "model_272/tf.math.add_734/Add/y", "op": "Const", "attr": {"dtype": {"type": "DT_FLOAT"}, "value": {"tensor": {"dtype": "DT_FLOAT", "tensorShape": {"dim": [{"size": "16"}]}}}}}, {"name": "model_272/tf.nn.convolution_519/convolution/filter", "op": "Const", "attr": {"value": {"tensor": {"dtype": "DT_FLOAT", "tensorShape": {"dim": [{"size": "3"}, {"size": "3"}, {"size": "16"}, {"size": "16"}]}}}, "dtype": {"type": "DT_FLOAT"}}}, {"name": "model_272/tf.math.add_735/Add/y", "op": "Const", "attr": {"dtype": {"type": "DT_FLOAT"}, "value": {"tensor": {"dtype": "DT_FLOAT", "tensorShape": {"dim": [{"size": "16"}]}}}}}, {"name": "model_272/tf.nn.convolution_502/convolution/filter", "op": "Const", "attr": {"dtype": {"type": "DT_FLOAT"}, "value": {"tensor": {"dtype": "DT_FLOAT", "tensorShape": {"dim": [{"size": "1"}, {"size": "1"}, {"size": "32"}, {"size": "16"}]}}}}}, {"name": "model_272/tf.math.add_708/Add/y", "op": "Const", "attr": {"dtype": {"type": "DT_FLOAT"}, "value": {"tensor": {"dtype": "DT_FLOAT", "tensorShape": {"dim": [{"size": "16"}]}}}}}, {"name": "model_272/tf.nn.convolution_504/convolution/filter", "op": "Const", "attr": {"dtype": {"type": "DT_FLOAT"}, "value": {"tensor": {"dtype": "DT_FLOAT", "tensorShape": {"dim": [{"size": "3"}, {"size": "3"}, {"size": "16"}, {"size": "16"}]}}}}}, {"name": "model_272/tf.math.add_710/Add/y", "op": "Const", "attr": {"value": {"tensor": {"dtype": "DT_FLOAT", "tensorShape": {"dim": [{"size": "16"}]}}}, "dtype": {"type": "DT_FLOAT"}}}, {"name": "model_272/tf.nn.convolution_505/convolution/filter", "op": "Const", "attr": {"dtype": {"type": "DT_FLOAT"}, "value": {"tensor": {"dtype": "DT_FLOAT", "tensorShape": {"dim": [{"size": "3"}, {"size": "3"}, {"size": "16"}, {"size": "16"}]}}}}}, {"name": "model_272/tf.math.add_711/Add/y", "op": "Const", "attr": {"dtype": {"type": "DT_FLOAT"}, "value": {"tensor": {"dtype": "DT_FLOAT", "tensorShape": {"dim": [{"size": "16"}]}}}}}, {"name": "model_272/tf.nn.convolution_506/convolution/filter", "op": "Const", "attr": {"value": {"tensor": {"dtype": "DT_FLOAT", "tensorShape": {"dim": [{"size": "3"}, {"size": "3"}, {"size": "16"}, {"size": "16"}]}}}, "dtype": {"type": "DT_FLOAT"}}}, {"name": "model_272/tf.math.add_714/Add/y", "op": "Const", "attr": {"dtype": {"type": "DT_FLOAT"}, "value": {"tensor": {"dtype": "DT_FLOAT", "tensorShape": {"dim": [{"size": "16"}]}}}}}, {"name": "model_272/tf.nn.convolution_507/convolution/filter", "op": "Const", "attr": {"value": {"tensor": {"dtype": "DT_FLOAT", "tensorShape": {"dim": [{"size": "3"}, {"size": "3"}, {"size": "16"}, {"size": "16"}]}}}, "dtype": {"type": "DT_FLOAT"}}}, {"name": "model_272/tf.math.add_715/Add/y", "op": "Const", "attr": {"value": {"tensor": {"dtype": "DT_FLOAT", "tensorShape": {"dim": [{"size": "16"}]}}}, "dtype": {"type": "DT_FLOAT"}}}, {"name": "model_272/tf.nn.convolution_508/convolution/filter", "op": "Const", "attr": {"dtype": {"type": "DT_FLOAT"}, "value": {"tensor": {"dtype": "DT_FLOAT", "tensorShape": {"dim": [{"size": "3"}, {"size": "3"}, {"size": "16"}, {"size": "16"}]}}}}}, {"name": "model_272/tf.math.add_718/Add/y", "op": "Const", "attr": {"dtype": {"type": "DT_FLOAT"}, "value": {"tensor": {"dtype": "DT_FLOAT", "tensorShape": {"dim": [{"size": "16"}]}}}}}, {"name": "model_272/tf.nn.convolution_509/convolution/filter", "op": "Const", "attr": {"value": {"tensor": {"dtype": "DT_FLOAT", "tensorShape": {"dim": [{"size": "3"}, {"size": "3"}, {"size": "16"}, {"size": "16"}]}}}, "dtype": {"type": "DT_FLOAT"}}}, {"name": "model_272/tf.math.add_719/Add/y", "op": "Const", "attr": {"value": {"tensor": {"dtype": "DT_FLOAT", "tensorShape": {"dim": [{"size": "16"}]}}}, "dtype": {"type": "DT_FLOAT"}}}, {"name": "model_272/tf.strided_slice_44/ones_like/tensor", "op": "Const", "attr": {"value": {"tensor": {"dtype": "DT_INT64", "tensorShape": {"dim": [{"size": "4"}]}}}, "dtype": {"type": "DT_INT64"}}}, {"name": "model_272/tf.strided_slice_44/StridedSlice/end", "op": "Const", "attr": {"dtype": {"type": "DT_INT64"}, "value": {"tensor": {"dtype": "DT_INT64", "tensorShape": {"dim": [{"size": "4"}]}}}}}, {"name": "model_272/tf.strided_slice_44/ones_like", "op": "Const", "attr": {"dtype": {"type": "DT_INT64"}, "value": {"tensor": {"dtype": "DT_INT64", "tensorShape": {"dim": [{"size": "4"}]}}}}}, {"name": "model_272/tf.nn.convolution_489/convolution/filter", "op": "Const", "attr": {"value": {"tensor": {"dtype": "DT_FLOAT", "tensorShape": {"dim": [{"size": "1"}, {"size": "1"}, {"size": "24"}, {"size": "12"}]}}}, "dtype": {"type": "DT_FLOAT"}}}, {"name": "model_272/tf.math.add_689/Add/y", "op": "Const", "attr": {"dtype": {"type": "DT_FLOAT"}, "value": {"tensor": {"dtype": "DT_FLOAT", "tensorShape": {"dim": [{"size": "12"}]}}}}}, {"name": "model_272/tf.nn.convolution_491/convolution/filter", "op": "Const", "attr": {"value": {"tensor": {"dtype": "DT_FLOAT", "tensorShape": {"dim": [{"size": "3"}, {"size": "3"}, {"size": "12"}, {"size": "12"}]}}}, "dtype": {"type": "DT_FLOAT"}}}, {"name": "model_272/tf.math.add_691/Add/y", "op": "Const", "attr": {"dtype": {"type": "DT_FLOAT"}, "value": {"tensor": {"dtype": "DT_FLOAT", "tensorShape": {"dim": [{"size": "12"}]}}}}}, {"name": "model_272/tf.nn.convolution_492/convolution/filter", "op": "Const", "attr": {"dtype": {"type": "DT_FLOAT"}, "value": {"tensor": {"dtype": "DT_FLOAT", "tensorShape": {"dim": [{"size": "3"}, {"size": "3"}, {"size": "12"}, {"size": "12"}]}}}}}, {"name": "model_272/tf.math.add_692/Add/y", "op": "Const", "attr": {"dtype": {"type": "DT_FLOAT"}, "value": {"tensor": {"dtype": "DT_FLOAT", "tensorShape": {"dim": [{"size": "12"}]}}}}}, {"name": "model_272/tf.nn.convolution_493/convolution/filter", "op": "Const", "attr": {"dtype": {"type": "DT_FLOAT"}, "value": {"tensor": {"dtype": "DT_FLOAT", "tensorShape": {"dim": [{"size": "3"}, {"size": "3"}, {"size": "12"}, {"size": "12"}]}}}}}, {"name": "model_272/tf.math.add_695/Add/y", "op": "Const", "attr": {"dtype": {"type": "DT_FLOAT"}, "value": {"tensor": {"dtype": "DT_FLOAT", "tensorShape": {"dim": [{"size": "12"}]}}}}}, {"name": "model_272/tf.nn.convolution_494/convolution/filter", "op": "Const", "attr": {"dtype": {"type": "DT_FLOAT"}, "value": {"tensor": {"dtype": "DT_FLOAT", "tensorShape": {"dim": [{"size": "3"}, {"size": "3"}, {"size": "12"}, {"size": "12"}]}}}}}, {"name": "model_272/tf.math.add_696/Add/y", "op": "Const", "attr": {"dtype": {"type": "DT_FLOAT"}, "value": {"tensor": {"dtype": "DT_FLOAT", "tensorShape": {"dim": [{"size": "12"}]}}}}}, {"name": "model_272/tf.nn.convolution_495/convolution/filter", "op": "Const", "attr": {"dtype": {"type": "DT_FLOAT"}, "value": {"tensor": {"dtype": "DT_FLOAT", "tensorShape": {"dim": [{"size": "3"}, {"size": "3"}, {"size": "12"}, {"size": "12"}]}}}}}, {"name": "model_272/tf.math.add_699/Add/y", "op": "Const", "attr": {"dtype": {"type": "DT_FLOAT"}, "value": {"tensor": {"dtype": "DT_FLOAT", "tensorShape": {"dim": [{"size": "12"}]}}}}}, {"name": "model_272/tf.nn.convolution_496/convolution/filter", "op": "Const", "attr": {"dtype": {"type": "DT_FLOAT"}, "value": {"tensor": {"dtype": "DT_FLOAT", "tensorShape": {"dim": [{"size": "3"}, {"size": "3"}, {"size": "12"}, {"size": "12"}]}}}}}, {"name": "model_272/tf.math.add_700/Add/y", "op": "Const", "attr": {"dtype": {"type": "DT_FLOAT"}, "value": {"tensor": {"dtype": "DT_FLOAT", "tensorShape": {"dim": [{"size": "12"}]}}}}}, {"name": "model_272/tf.nn.convolution_479/convolution/filter", "op": "Const", "attr": {"dtype": {"type": "DT_FLOAT"}, "value": {"tensor": {"dtype": "DT_FLOAT", "tensorShape": {"dim": [{"size": "1"}, {"size": "1"}, {"size": "24"}, {"size": "12"}]}}}}}, {"name": "model_272/tf.math.add_673/Add/y", "op": "Const", "attr": {"dtype": {"type": "DT_FLOAT"}, "value": {"tensor": {"dtype": "DT_FLOAT", "tensorShape": {"dim": [{"size": "12"}]}}}}}, {"name": "model_272/tf.nn.convolution_481/convolution/filter", "op": "Const", "attr": {"value": {"tensor": {"dtype": "DT_FLOAT", "tensorShape": {"dim": [{"size": "3"}, {"size": "3"}, {"size": "12"}, {"size": "12"}]}}}, "dtype": {"type": "DT_FLOAT"}}}, {"name": "model_272/tf.math.add_675/Add/y", "op": "Const", "attr": {"dtype": {"type": "DT_FLOAT"}, "value": {"tensor": {"dtype": "DT_FLOAT", "tensorShape": {"dim": [{"size": "12"}]}}}}}, {"name": "model_272/tf.nn.convolution_482/convolution/filter", "op": "Const", "attr": {"dtype": {"type": "DT_FLOAT"}, "value": {"tensor": {"dtype": "DT_FLOAT", "tensorShape": {"dim": [{"size": "3"}, {"size": "3"}, {"size": "12"}, {"size": "12"}]}}}}}, {"name": "model_272/tf.math.add_676/Add/y", "op": "Const", "attr": {"value": {"tensor": {"dtype": "DT_FLOAT", "tensorShape": {"dim": [{"size": "12"}]}}}, "dtype": {"type": "DT_FLOAT"}}}, {"name": "model_272/tf.nn.convolution_483/convolution/filter", "op": "Const", "attr": {"dtype": {"type": "DT_FLOAT"}, "value": {"tensor": {"dtype": "DT_FLOAT", "tensorShape": {"dim": [{"size": "3"}, {"size": "3"}, {"size": "12"}, {"size": "12"}]}}}}}, {"name": "model_272/tf.math.add_679/Add/y", "op": "Const", "attr": {"value": {"tensor": {"dtype": "DT_FLOAT", "tensorShape": {"dim": [{"size": "12"}]}}}, "dtype": {"type": "DT_FLOAT"}}}, {"name": "model_272/tf.nn.convolution_484/convolution/filter", "op": "Const", "attr": {"dtype": {"type": "DT_FLOAT"}, "value": {"tensor": {"dtype": "DT_FLOAT", "tensorShape": {"dim": [{"size": "3"}, {"size": "3"}, {"size": "12"}, {"size": "12"}]}}}}}, {"name": "model_272/tf.math.add_680/Add/y", "op": "Const", "attr": {"value": {"tensor": {"dtype": "DT_FLOAT", "tensorShape": {"dim": [{"size": "12"}]}}}, "dtype": {"type": "DT_FLOAT"}}}, {"name": "model_272/tf.nn.convolution_485/convolution/filter", "op": "Const", "attr": {"value": {"tensor": {"dtype": "DT_FLOAT", "tensorShape": {"dim": [{"size": "3"}, {"size": "3"}, {"size": "12"}, {"size": "12"}]}}}, "dtype": {"type": "DT_FLOAT"}}}, {"name": "model_272/tf.math.add_683/Add/y", "op": "Const", "attr": {"dtype": {"type": "DT_FLOAT"}, "value": {"tensor": {"dtype": "DT_FLOAT", "tensorShape": {"dim": [{"size": "12"}]}}}}}, {"name": "model_272/tf.nn.convolution_486/convolution/filter", "op": "Const", "attr": {"dtype": {"type": "DT_FLOAT"}, "value": {"tensor": {"dtype": "DT_FLOAT", "tensorShape": {"dim": [{"size": "3"}, {"size": "3"}, {"size": "12"}, {"size": "12"}]}}}}}, {"name": "model_272/tf.math.add_684/Add/y", "op": "Const", "attr": {"value": {"tensor": {"dtype": "DT_FLOAT", "tensorShape": {"dim": [{"size": "12"}]}}}, "dtype": {"type": "DT_FLOAT"}}}, {"name": "model_272/tf.strided_slice_42/ones_like/tensor", "op": "Const", "attr": {"dtype": {"type": "DT_INT64"}, "value": {"tensor": {"dtype": "DT_INT64", "tensorShape": {"dim": [{"size": "4"}]}}}}}, {"name": "model_272/tf.strided_slice_42/StridedSlice/end", "op": "Const", "attr": {"value": {"tensor": {"dtype": "DT_INT64", "tensorShape": {"dim": [{"size": "4"}]}}}, "dtype": {"type": "DT_INT64"}}}, {"name": "model_272/tf.strided_slice_42/ones_like", "op": "Const", "attr": {"value": {"tensor": {"dtype": "DT_INT64", "tensorShape": {"dim": [{"size": "4"}]}}}, "dtype": {"type": "DT_INT64"}}}, {"name": "model_272/tf.nn.convolution_454/convolution/filter", "op": "Const", "attr": {"dtype": {"type": "DT_FLOAT"}, "value": {"tensor": {"dtype": "DT_FLOAT", "tensorShape": {"dim": [{"size": "1"}, {"size": "1"}, {"size": "16"}, {"size": "8"}]}}}}}, {"name": "model_272/tf.math.add_642/Add/y", "op": "Const", "attr": {"value": {"tensor": {"dtype": "DT_FLOAT", "tensorShape": {"dim": [{"size": "8"}]}}}, "dtype": {"type": "DT_FLOAT"}}}, {"name": "model_272/tf.nn.convolution_458/convolution/filter", "op": "Const", "attr": {"value": {"tensor": {"dtype": "DT_FLOAT", "tensorShape": {"dim": [{"size": "3"}, {"size": "3"}, {"size": "8"}, {"size": "8"}]}}}, "dtype": {"type": "DT_FLOAT"}}}, {"name": "model_272/tf.math.add_646/Add/y", "op": "Const", "attr": {"dtype": {"type": "DT_FLOAT"}, "value": {"tensor": {"dtype": "DT_FLOAT", "tensorShape": {"dim": [{"size": "8"}]}}}}}, {"name": "model_272/tf.nn.convolution_461/convolution/filter", "op": "Const", "attr": {"value": {"tensor": {"dtype": "DT_FLOAT", "tensorShape": {"dim": [{"size": "3"}, {"size": "3"}, {"size": "8"}, {"size": "8"}]}}}, "dtype": {"type": "DT_FLOAT"}}}, {"name": "model_272/tf.math.add_649/Add/y", "op": "Const", "attr": {"dtype": {"type": "DT_FLOAT"}, "value": {"tensor": {"dtype": "DT_FLOAT", "tensorShape": {"dim": [{"size": "8"}]}}}}}, {"name": "model_272/tf.nn.convolution_464/convolution/filter", "op": "Const", "attr": {"value": {"tensor": {"dtype": "DT_FLOAT", "tensorShape": {"dim": [{"size": "3"}, {"size": "3"}, {"size": "8"}, {"size": "8"}]}}}, "dtype": {"type": "DT_FLOAT"}}}, {"name": "model_272/tf.math.add_654/Add/y", "op": "Const", "attr": {"value": {"tensor": {"dtype": "DT_FLOAT", "tensorShape": {"dim": [{"size": "8"}]}}}, "dtype": {"type": "DT_FLOAT"}}}, {"name": "model_272/tf.nn.convolution_467/convolution/filter", "op": "Const", "attr": {"dtype": {"type": "DT_FLOAT"}, "value": {"tensor": {"dtype": "DT_FLOAT", "tensorShape": {"dim": [{"size": "3"}, {"size": "3"}, {"size": "8"}, {"size": "8"}]}}}}}, {"name": "model_272/tf.math.add_657/Add/y", "op": "Const", "attr": {"value": {"tensor": {"dtype": "DT_FLOAT", "tensorShape": {"dim": [{"size": "8"}]}}}, "dtype": {"type": "DT_FLOAT"}}}, {"name": "model_272/tf.nn.convolution_470/convolution/filter", "op": "Const", "attr": {"dtype": {"type": "DT_FLOAT"}, "value": {"tensor": {"dtype": "DT_FLOAT", "tensorShape": {"dim": [{"size": "3"}, {"size": "3"}, {"size": "8"}, {"size": "8"}]}}}}}, {"name": "model_272/tf.math.add_662/Add/y", "op": "Const", "attr": {"dtype": {"type": "DT_FLOAT"}, "value": {"tensor": {"dtype": "DT_FLOAT", "tensorShape": {"dim": [{"size": "8"}]}}}}}, {"name": "model_272/tf.nn.convolution_473/convolution/filter", "op": "Const", "attr": {"dtype": {"type": "DT_FLOAT"}, "value": {"tensor": {"dtype": "DT_FLOAT", "tensorShape": {"dim": [{"size": "3"}, {"size": "3"}, {"size": "8"}, {"size": "8"}]}}}}}, {"name": "model_272/tf.math.add_665/Add/y", "op": "Const", "attr": {"dtype": {"type": "DT_FLOAT"}, "value": {"tensor": {"dtype": "DT_FLOAT", "tensorShape": {"dim": [{"size": "8"}]}}}}}, {"name": "model_272/tf.nn.convolution_432/convolution/filter", "op": "Const", "attr": {"value": {"tensor": {"dtype": "DT_FLOAT", "tensorShape": {"dim": [{"size": "1"}, {"size": "1"}, {"size": "16"}, {"size": "8"}]}}}, "dtype": {"type": "DT_FLOAT"}}}, {"name": "model_272/tf.math.add_614/Add/y", "op": "Const", "attr": {"value": {"tensor": {"dtype": "DT_FLOAT", "tensorShape": {"dim": [{"size": "8"}]}}}, "dtype": {"type": "DT_FLOAT"}}}, {"name": "model_272/tf.nn.convolution_436/convolution/filter", "op": "Const", "attr": {"value": {"tensor": {"dtype": "DT_FLOAT", "tensorShape": {"dim": [{"size": "3"}, {"size": "3"}, {"size": "8"}, {"size": "8"}]}}}, "dtype": {"type": "DT_FLOAT"}}}, {"name": "model_272/tf.math.add_618/Add/y", "op": "Const", "attr": {"value": {"tensor": {"dtype": "DT_FLOAT", "tensorShape": {"dim": [{"size": "8"}]}}}, "dtype": {"type": "DT_FLOAT"}}}, {"name": "model_272/tf.nn.convolution_439/convolution/filter", "op": "Const", "attr": {"dtype": {"type": "DT_FLOAT"}, "value": {"tensor": {"dtype": "DT_FLOAT", "tensorShape": {"dim": [{"size": "3"}, {"size": "3"}, {"size": "8"}, {"size": "8"}]}}}}}, {"name": "model_272/tf.math.add_621/Add/y", "op": "Const", "attr": {"dtype": {"type": "DT_FLOAT"}, "value": {"tensor": {"dtype": "DT_FLOAT", "tensorShape": {"dim": [{"size": "8"}]}}}}}, {"name": "model_272/tf.nn.convolution_442/convolution/filter", "op": "Const", "attr": {"value": {"tensor": {"dtype": "DT_FLOAT", "tensorShape": {"dim": [{"size": "3"}, {"size": "3"}, {"size": "8"}, {"size": "8"}]}}}, "dtype": {"type": "DT_FLOAT"}}}, {"name": "model_272/tf.math.add_626/Add/y", "op": "Const", "attr": {"value": {"tensor": {"dtype": "DT_FLOAT", "tensorShape": {"dim": [{"size": "8"}]}}}, "dtype": {"type": "DT_FLOAT"}}}, {"name": "model_272/tf.nn.convolution_445/convolution/filter", "op": "Const", "attr": {"dtype": {"type": "DT_FLOAT"}, "value": {"tensor": {"dtype": "DT_FLOAT", "tensorShape": {"dim": [{"size": "3"}, {"size": "3"}, {"size": "8"}, {"size": "8"}]}}}}}, {"name": "model_272/tf.math.add_629/Add/y", "op": "Const", "attr": {"value": {"tensor": {"dtype": "DT_FLOAT", "tensorShape": {"dim": [{"size": "8"}]}}}, "dtype": {"type": "DT_FLOAT"}}}, {"name": "model_272/tf.nn.convolution_448/convolution/filter", "op": "Const", "attr": {"dtype": {"type": "DT_FLOAT"}, "value": {"tensor": {"dtype": "DT_FLOAT", "tensorShape": {"dim": [{"size": "3"}, {"size": "3"}, {"size": "8"}, {"size": "8"}]}}}}}, {"name": "model_272/tf.math.add_634/Add/y", "op": "Const", "attr": {"dtype": {"type": "DT_FLOAT"}, "value": {"tensor": {"dtype": "DT_FLOAT", "tensorShape": {"dim": [{"size": "8"}]}}}}}, {"name": "model_272/tf.nn.convolution_451/convolution/filter", "op": "Const", "attr": {"dtype": {"type": "DT_FLOAT"}, "value": {"tensor": {"dtype": "DT_FLOAT", "tensorShape": {"dim": [{"size": "3"}, {"size": "3"}, {"size": "8"}, {"size": "8"}]}}}}}, {"name": "model_272/tf.math.add_637/Add/y", "op": "Const", "attr": {"value": {"tensor": {"dtype": "DT_FLOAT", "tensorShape": {"dim": [{"size": "8"}]}}}, "dtype": {"type": "DT_FLOAT"}}}, {"name": "model_272/tf.strided_slice_40/ones_like/tensor", "op": "Const", "attr": {"value": {"tensor": {"dtype": "DT_INT64", "tensorShape": {"dim": [{"size": "4"}]}}}, "dtype": {"type": "DT_INT64"}}}, {"name": "model_272/tf.strided_slice_40/StridedSlice/end", "op": "Const", "attr": {"value": {"tensor": {"dtype": "DT_INT64", "tensorShape": {"dim": [{"size": "4"}]}}}, "dtype": {"type": "DT_INT64"}}}, {"name": "model_272/tf.strided_slice_40/ones_like", "op": "Const", "attr": {"dtype": {"type": "DT_INT64"}, "value": {"tensor": {"dtype": "DT_INT64", "tensorShape": {"dim": [{"size": "4"}]}}}}}, {"name": "model_272/tf.compat.v1.pad_14/Pad/paddings", "op": "Const", "attr": {"value": {"tensor": {"dtype": "DT_INT32", "tensorShape": {"dim": [{"size": "4"}, {"size": "2"}]}}}, "dtype": {"type": "DT_INT32"}}}, {"name": "model_272/tf.nn.convolution_422/convolution/filter", "op": "Const", "attr": {"value": {"tensor": {"dtype": "DT_FLOAT", "tensorShape": {"dim": [{"size": "3"}, {"size": "3"}, {"size": "3"}, {"size": "8"}]}}}, "dtype": {"type": "DT_FLOAT"}}}, {"name": "model_272/tf.math.add_604/Add/y", "op": "Const", "attr": {"value": {"tensor": {"dtype": "DT_FLOAT", "tensorShape": {"dim": [{"size": "8"}]}}}, "dtype": {"type": "DT_FLOAT"}}}, {"name": "model_272/tf.compat.v1.pad_15/Pad/paddings", "op": "Const", "attr": {"dtype": {"type": "DT_INT32"}, "value": {"tensor": {"dtype": "DT_INT32", "tensorShape": {"dim": [{"size": "4"}, {"size": "2"}]}}}}}, {"name": "model_272/tf.nn.convolution_423/convolution/filter", "op": "Const", "attr": {"dtype": {"type": "DT_FLOAT"}, "value": {"tensor": {"dtype": "DT_FLOAT", "tensorShape": {"dim": [{"size": "3"}, {"size": "3"}, {"size": "8"}, {"size": "8"}]}}}}}, {"name": "model_272/tf.math.add_605/Add/y", "op": "Const", "attr": {"dtype": {"type": "DT_FLOAT"}, "value": {"tensor": {"dtype": "DT_FLOAT", "tensorShape": {"dim": [{"size": "8"}]}}}}}, {"name": "model_272/tf.nn.convolution_424/convolution/filter", "op": "Const", "attr": {"value": {"tensor": {"dtype": "DT_FLOAT", "tensorShape": {"dim": [{"size": "1"}, {"size": "1"}, {"size": "8"}, {"size": "16"}]}}}, "dtype": {"type": "DT_FLOAT"}}}, {"name": "model_272/tf.math.add_606/Add/y", "op": "Const", "attr": {"dtype": {"type": "DT_FLOAT"}, "value": {"tensor": {"dtype": "DT_FLOAT", "tensorShape": {"dim": [{"size": "16"}]}}}}}, {"name": "model_272/tf.strided_slice_41/ones_like/tensor", "op": "Const", "attr": {"dtype": {"type": "DT_INT64"}, "value": {"tensor": {"dtype": "DT_INT64", "tensorShape": {"dim": [{"size": "4"}]}}}}}, {"name": "model_272/tf.strided_slice_41/StridedSlice/end", "op": "Const", "attr": {"value": {"tensor": {"dtype": "DT_INT64", "tensorShape": {"dim": [{"size": "4"}]}}}, "dtype": {"type": "DT_INT64"}}}, {"name": "model_272/tf.strided_slice_41/ones_like", "op": "Const", "attr": {"dtype": {"type": "DT_INT64"}, "value": {"tensor": {"dtype": "DT_INT64", "tensorShape": {"dim": [{"size": "4"}]}}}}}, {"name": "model_272/tf.nn.convolution_425/convolution/filter", "op": "Const", "attr": {"dtype": {"type": "DT_FLOAT"}, "value": {"tensor": {"dtype": "DT_FLOAT", "tensorShape": {"dim": [{"size": "3"}, {"size": "3"}, {"size": "8"}, {"size": "8"}]}}}}}, {"name": "model_272/tf.math.add_607/Add/y", "op": "Const", "attr": {"value": {"tensor": {"dtype": "DT_FLOAT", "tensorShape": {"dim": [{"size": "8"}]}}}, "dtype": {"type": "DT_FLOAT"}}}, {"name": "model_272/tf.nn.convolution_426/convolution/filter", "op": "Const", "attr": {"value": {"tensor": {"dtype": "DT_FLOAT", "tensorShape": {"dim": [{"size": "3"}, {"size": "3"}, {"size": "8"}, {"size": "8"}]}}}, "dtype": {"type": "DT_FLOAT"}}}, {"name": "model_272/tf.math.add_608/Add/y", "op": "Const", "attr": {"dtype": {"type": "DT_FLOAT"}, "value": {"tensor": {"dtype": "DT_FLOAT", "tensorShape": {"dim": [{"size": "8"}]}}}}}, {"name": "model_272/tf.concat_80/concat/axis", "op": "Const", "attr": {"dtype": {"type": "DT_INT32"}, "value": {"tensor": {"dtype": "DT_INT32", "tensorShape": {}}}}}, {"name": "model_272/tf.nn.convolution_427/convolution/filter", "op": "Const", "attr": {"value": {"tensor": {"dtype": "DT_FLOAT", "tensorShape": {"dim": [{"size": "1"}, {"size": "1"}, {"size": "32"}, {"size": "8"}]}}}, "dtype": {"type": "DT_FLOAT"}}}, {"name": "model_272/tf.math.add_609/Add/y", "op": "Const", "attr": {"dtype": {"type": "DT_FLOAT"}, "value": {"tensor": {"dtype": "DT_FLOAT", "tensorShape": {"dim": [{"size": "8"}]}}}}}, {"name": "model_272/tf.compat.v1.pad_16/Pad/paddings", "op": "Const", "attr": {"dtype": {"type": "DT_INT32"}, "value": {"tensor": {"dtype": "DT_INT32", "tensorShape": {"dim": [{"size": "4"}, {"size": "2"}]}}}}}, {"name": "model_272/tf.nn.convolution_428/convolution/filter", "op": "Const", "attr": {"dtype": {"type": "DT_FLOAT"}, "value": {"tensor": {"dtype": "DT_FLOAT", "tensorShape": {"dim": [{"size": "3"}, {"size": "3"}, {"size": "8"}, {"size": "8"}]}}}}}, {"name": "model_272/tf.math.add_610/Add/y", "op": "Const", "attr": {"dtype": {"type": "DT_FLOAT"}, "value": {"tensor": {"dtype": "DT_FLOAT", "tensorShape": {"dim": [{"size": "8"}]}}}}}, {"name": "model_272/tf.nn.convolution_431/convolution/filter", "op": "Const", "attr": {"value": {"tensor": {"dtype": "DT_FLOAT", "tensorShape": {"dim": [{"size": "1"}, {"size": "1"}, {"size": "8"}, {"size": "32"}]}}}, "dtype": {"type": "DT_FLOAT"}}}, {"name": "model_272/tf.math.add_613/Add/y", "op": "Const", "attr": {"dtype": {"type": "DT_FLOAT"}, "value": {"tensor": {"dtype": "DT_FLOAT", "tensorShape": {"dim": [{"size": "32"}]}}}}}, {"name": "model_272/tf.strided_slice_43/ones_like/tensor", "op": "Const", "attr": {"value": {"tensor": {"dtype": "DT_INT64", "tensorShape": {"dim": [{"size": "4"}]}}}, "dtype": {"type": "DT_INT64"}}}, {"name": "model_272/tf.strided_slice_43/StridedSlice/end", "op": "Const", "attr": {"value": {"tensor": {"dtype": "DT_INT64", "tensorShape": {"dim": [{"size": "4"}]}}}, "dtype": {"type": "DT_INT64"}}}, {"name": "model_272/tf.strided_slice_43/ones_like", "op": "Const", "attr": {"value": {"tensor": {"dtype": "DT_INT64", "tensorShape": {"dim": [{"size": "4"}]}}}, "dtype": {"type": "DT_INT64"}}}, {"name": "model_272/tf.nn.convolution_433/convolution/filter", "op": "Const", "attr": {"value": {"tensor": {"dtype": "DT_FLOAT", "tensorShape": {"dim": [{"size": "1"}, {"size": "1"}, {"size": "16"}, {"size": "8"}]}}}, "dtype": {"type": "DT_FLOAT"}}}, {"name": "model_272/tf.math.add_615/Add/y", "op": "Const", "attr": {"dtype": {"type": "DT_FLOAT"}, "value": {"tensor": {"dtype": "DT_FLOAT", "tensorShape": {"dim": [{"size": "8"}]}}}}}, {"name": "model_272/tf.concat_83/concat/axis", "op": "Const", "attr": {"value": {"tensor": {"dtype": "DT_INT32", "tensorShape": {}}}, "dtype": {"type": "DT_INT32"}}}, {"name": "model_272/tf.nn.convolution_452/convolution/filter", "op": "Const", "attr": {"value": {"tensor": {"dtype": "DT_FLOAT", "tensorShape": {"dim": [{"size": "1"}, {"size": "1"}, {"size": "16"}, {"size": "16"}]}}}, "dtype": {"type": "DT_FLOAT"}}}, {"name": "model_272/tf.math.add_640/Add/y", "op": "Const", "attr": {"dtype": {"type": "DT_FLOAT"}, "value": {"tensor": {"dtype": "DT_FLOAT", "tensorShape": {"dim": [{"size": "16"}]}}}}}, {"name": "model_272/tf.nn.convolution_453/convolution/filter", "op": "Const", "attr": {"value": {"tensor": {"dtype": "DT_FLOAT", "tensorShape": {"dim": [{"size": "3"}, {"size": "3"}, {"size": "16"}, {"size": "16"}]}}}, "dtype": {"type": "DT_FLOAT"}}}, {"name": "model_272/tf.math.add_641/Add/y", "op": "Const", "attr": {"dtype": {"type": "DT_FLOAT"}, "value": {"tensor": {"dtype": "DT_FLOAT", "tensorShape": {"dim": [{"size": "16"}]}}}}}, {"name": "model_272/tf.nn.convolution_455/convolution/filter", "op": "Const", "attr": {"dtype": {"type": "DT_FLOAT"}, "value": {"tensor": {"dtype": "DT_FLOAT", "tensorShape": {"dim": [{"size": "1"}, {"size": "1"}, {"size": "16"}, {"size": "8"}]}}}}}, {"name": "model_272/tf.math.add_643/Add/y", "op": "Const", "attr": {"value": {"tensor": {"dtype": "DT_FLOAT", "tensorShape": {"dim": [{"size": "8"}]}}}, "dtype": {"type": "DT_FLOAT"}}}, {"name": "model_272/tf.concat_86/concat/axis", "op": "Const", "attr": {"dtype": {"type": "DT_INT32"}, "value": {"tensor": {"dtype": "DT_INT32", "tensorShape": {}}}}}, {"name": "model_272/tf.nn.convolution_474/convolution/filter", "op": "Const", "attr": {"value": {"tensor": {"dtype": "DT_FLOAT", "tensorShape": {"dim": [{"size": "1"}, {"size": "1"}, {"size": "16"}, {"size": "16"}]}}}, "dtype": {"type": "DT_FLOAT"}}}, {"name": "model_272/tf.math.add_668/Add/y", "op": "Const", "attr": {"value": {"tensor": {"dtype": "DT_FLOAT", "tensorShape": {"dim": [{"size": "16"}]}}}, "dtype": {"type": "DT_FLOAT"}}}, {"name": "model_272/tf.nn.convolution_475/convolution/filter", "op": "Const", "attr": {"value": {"tensor": {"dtype": "DT_FLOAT", "tensorShape": {"dim": [{"size": "3"}, {"size": "3"}, {"size": "16"}, {"size": "16"}]}}}, "dtype": {"type": "DT_FLOAT"}}}, {"name": "model_272/tf.math.add_669/Add/y", "op": "Const", "attr": {"dtype": {"type": "DT_FLOAT"}, "value": {"tensor": {"dtype": "DT_FLOAT", "tensorShape": {"dim": [{"size": "16"}]}}}}}, {"name": "model_272/tf.concat_87/concat/axis", "op": "Const", "attr": {"dtype": {"type": "DT_INT32"}, "value": {"tensor": {"dtype": "DT_INT32", "tensorShape": {}}}}}, {"name": "model_272/tf.nn.convolution_476/convolution/filter", "op": "Const", "attr": {"value": {"tensor": {"dtype": "DT_FLOAT", "tensorShape": {"dim": [{"size": "1"}, {"size": "1"}, {"size": "64"}, {"size": "8"}]}}}, "dtype": {"type": "DT_FLOAT"}}}, {"name": "model_272/tf.math.add_670/Add/y", "op": "Const", "attr": {"value": {"tensor": {"dtype": "DT_FLOAT", "tensorShape": {"dim": [{"size": "8"}]}}}, "dtype": {"type": "DT_FLOAT"}}}, {"name": "model_272/tf.compat.v1.pad_17/Pad/paddings", "op": "Const", "attr": {"dtype": {"type": "DT_INT32"}, "value": {"tensor": {"dtype": "DT_INT32", "tensorShape": {"dim": [{"size": "4"}, {"size": "2"}]}}}}}, {"name": "model_272/tf.nn.convolution_477/convolution/filter", "op": "Const", "attr": {"value": {"tensor": {"dtype": "DT_FLOAT", "tensorShape": {"dim": [{"size": "3"}, {"size": "3"}, {"size": "8"}, {"size": "16"}]}}}, "dtype": {"type": "DT_FLOAT"}}}, {"name": "model_272/tf.math.add_671/Add/y", "op": "Const", "attr": {"value": {"tensor": {"dtype": "DT_FLOAT", "tensorShape": {"dim": [{"size": "16"}]}}}, "dtype": {"type": "DT_FLOAT"}}}, {"name": "model_272/tf.nn.convolution_478/convolution/filter", "op": "Const", "attr": {"value": {"tensor": {"dtype": "DT_FLOAT", "tensorShape": {"dim": [{"size": "1"}, {"size": "1"}, {"size": "16"}, {"size": "48"}]}}}, "dtype": {"type": "DT_FLOAT"}}}, {"name": "model_272/tf.math.add_672/Add/y", "op": "Const", "attr": {"value": {"tensor": {"dtype": "DT_FLOAT", "tensorShape": {"dim": [{"size": "48"}]}}}, "dtype": {"type": "DT_FLOAT"}}}, {"name": "model_272/tf.strided_slice_45/ones_like/tensor", "op": "Const", "attr": {"dtype": {"type": "DT_INT64"}, "value": {"tensor": {"dtype": "DT_INT64", "tensorShape": {"dim": [{"size": "4"}]}}}}}, {"name": "model_272/tf.strided_slice_45/StridedSlice/end", "op": "Const", "attr": {"value": {"tensor": {"dtype": "DT_INT64", "tensorShape": {"dim": [{"size": "4"}]}}}, "dtype": {"type": "DT_INT64"}}}, {"name": "model_272/tf.strided_slice_45/ones_like", "op": "Const", "attr": {"dtype": {"type": "DT_INT64"}, "value": {"tensor": {"dtype": "DT_INT64", "tensorShape": {"dim": [{"size": "4"}]}}}}}, {"name": "model_272/tf.nn.convolution_480/convolution/filter", "op": "Const", "attr": {"value": {"tensor": {"dtype": "DT_FLOAT", "tensorShape": {"dim": [{"size": "1"}, {"size": "1"}, {"size": "24"}, {"size": "12"}]}}}, "dtype": {"type": "DT_FLOAT"}}}, {"name": "model_272/tf.math.add_674/Add/y", "op": "Const", "attr": {"value": {"tensor": {"dtype": "DT_FLOAT", "tensorShape": {"dim": [{"size": "12"}]}}}, "dtype": {"type": "DT_FLOAT"}}}, {"name": "model_272/tf.concat_88/concat/axis", "op": "Const", "attr": {"value": {"tensor": {"dtype": "DT_INT32", "tensorShape": {}}}, "dtype": {"type": "DT_INT32"}}}, {"name": "model_272/tf.nn.convolution_487/convolution/filter", "op": "Const", "attr": {"value": {"tensor": {"dtype": "DT_FLOAT", "tensorShape": {"dim": [{"size": "1"}, {"size": "1"}, {"size": "24"}, {"size": "24"}]}}}, "dtype": {"type": "DT_FLOAT"}}}, {"name": "model_272/tf.math.add_687/Add/y", "op": "Const", "attr": {"dtype": {"type": "DT_FLOAT"}, "value": {"tensor": {"dtype": "DT_FLOAT", "tensorShape": {"dim": [{"size": "24"}]}}}}}, {"name": "model_272/tf.nn.convolution_488/convolution/filter", "op": "Const", "attr": {"value": {"tensor": {"dtype": "DT_FLOAT", "tensorShape": {"dim": [{"size": "3"}, {"size": "3"}, {"size": "24"}, {"size": "24"}]}}}, "dtype": {"type": "DT_FLOAT"}}}, {"name": "model_272/tf.math.add_688/Add/y", "op": "Const", "attr": {"dtype": {"type": "DT_FLOAT"}, "value": {"tensor": {"dtype": "DT_FLOAT", "tensorShape": {"dim": [{"size": "24"}]}}}}}, {"name": "model_272/tf.nn.convolution_490/convolution/filter", "op": "Const", "attr": {"dtype": {"type": "DT_FLOAT"}, "value": {"tensor": {"dtype": "DT_FLOAT", "tensorShape": {"dim": [{"size": "1"}, {"size": "1"}, {"size": "24"}, {"size": "12"}]}}}}}, {"name": "model_272/tf.math.add_690/Add/y", "op": "Const", "attr": {"dtype": {"type": "DT_FLOAT"}, "value": {"tensor": {"dtype": "DT_FLOAT", "tensorShape": {"dim": [{"size": "12"}]}}}}}, {"name": "model_272/tf.concat_89/concat/axis", "op": "Const", "attr": {"value": {"tensor": {"dtype": "DT_INT32", "tensorShape": {}}}, "dtype": {"type": "DT_INT32"}}}, {"name": "model_272/tf.nn.convolution_497/convolution/filter", "op": "Const", "attr": {"dtype": {"type": "DT_FLOAT"}, "value": {"tensor": {"dtype": "DT_FLOAT", "tensorShape": {"dim": [{"size": "1"}, {"size": "1"}, {"size": "24"}, {"size": "24"}]}}}}}, {"name": "model_272/tf.math.add_703/Add/y", "op": "Const", "attr": {"value": {"tensor": {"dtype": "DT_FLOAT", "tensorShape": {"dim": [{"size": "24"}]}}}, "dtype": {"type": "DT_FLOAT"}}}, {"name": "model_272/tf.nn.convolution_498/convolution/filter", "op": "Const", "attr": {"dtype": {"type": "DT_FLOAT"}, "value": {"tensor": {"dtype": "DT_FLOAT", "tensorShape": {"dim": [{"size": "3"}, {"size": "3"}, {"size": "24"}, {"size": "24"}]}}}}}, {"name": "model_272/tf.math.add_704/Add/y", "op": "Const", "attr": {"dtype": {"type": "DT_FLOAT"}, "value": {"tensor": {"dtype": "DT_FLOAT", "tensorShape": {"dim": [{"size": "24"}]}}}}}, {"name": "model_272/tf.concat_90/concat/axis", "op": "Const", "attr": {"dtype": {"type": "DT_INT32"}, "value": {"tensor": {"dtype": "DT_INT32", "tensorShape": {}}}}}, {"name": "model_272/tf.nn.convolution_499/convolution/filter", "op": "Const", "attr": {"dtype": {"type": "DT_FLOAT"}, "value": {"tensor": {"dtype": "DT_FLOAT", "tensorShape": {"dim": [{"size": "1"}, {"size": "1"}, {"size": "96"}, {"size": "16"}]}}}}}, {"name": "model_272/tf.math.add_705/Add/y", "op": "Const", "attr": {"dtype": {"type": "DT_FLOAT"}, "value": {"tensor": {"dtype": "DT_FLOAT", "tensorShape": {"dim": [{"size": "16"}]}}}}}, {"name": "model_272/tf.compat.v1.pad_18/Pad/paddings", "op": "Const", "attr": {"dtype": {"type": "DT_INT32"}, "value": {"tensor": {"dtype": "DT_INT32", "tensorShape": {"dim": [{"size": "4"}, {"size": "2"}]}}}}}, {"name": "model_272/tf.nn.convolution_500/convolution/filter", "op": "Const", "attr": {"dtype": {"type": "DT_FLOAT"}, "value": {"tensor": {"dtype": "DT_FLOAT", "tensorShape": {"dim": [{"size": "3"}, {"size": "3"}, {"size": "16"}, {"size": "16"}]}}}}}, {"name": "model_272/tf.math.add_706/Add/y", "op": "Const", "attr": {"value": {"tensor": {"dtype": "DT_FLOAT", "tensorShape": {"dim": [{"size": "16"}]}}}, "dtype": {"type": "DT_FLOAT"}}}, {"name": "model_272/tf.nn.convolution_501/convolution/filter", "op": "Const", "attr": {"value": {"tensor": {"dtype": "DT_FLOAT", "tensorShape": {"dim": [{"size": "1"}, {"size": "1"}, {"size": "16"}, {"size": "64"}]}}}, "dtype": {"type": "DT_FLOAT"}}}, {"name": "model_272/tf.math.add_707/Add/y", "op": "Const", "attr": {"value": {"tensor": {"dtype": "DT_FLOAT", "tensorShape": {"dim": [{"size": "64"}]}}}, "dtype": {"type": "DT_FLOAT"}}}, {"name": "model_272/tf.strided_slice_47/ones_like/tensor", "op": "Const", "attr": {"dtype": {"type": "DT_INT64"}, "value": {"tensor": {"dtype": "DT_INT64", "tensorShape": {"dim": [{"size": "4"}]}}}}}, {"name": "model_272/tf.strided_slice_47/StridedSlice/end", "op": "Const", "attr": {"dtype": {"type": "DT_INT64"}, "value": {"tensor": {"dtype": "DT_INT64", "tensorShape": {"dim": [{"size": "4"}]}}}}}, {"name": "model_272/tf.strided_slice_47/ones_like", "op": "Const", "attr": {"dtype": {"type": "DT_INT64"}, "value": {"tensor": {"dtype": "DT_INT64", "tensorShape": {"dim": [{"size": "4"}]}}}}}, {"name": "model_272/tf.nn.convolution_503/convolution/filter", "op": "Const", "attr": {"value": {"tensor": {"dtype": "DT_FLOAT", "tensorShape": {"dim": [{"size": "1"}, {"size": "1"}, {"size": "32"}, {"size": "16"}]}}}, "dtype": {"type": "DT_FLOAT"}}}, {"name": "model_272/tf.math.add_709/Add/y", "op": "Const", "attr": {"value": {"tensor": {"dtype": "DT_FLOAT", "tensorShape": {"dim": [{"size": "16"}]}}}, "dtype": {"type": "DT_FLOAT"}}}, {"name": "model_272/tf.concat_91/concat/axis", "op": "Const", "attr": {"dtype": {"type": "DT_INT32"}, "value": {"tensor": {"dtype": "DT_INT32", "tensorShape": {}}}}}, {"name": "model_272/tf.nn.convolution_510/convolution/filter", "op": "Const", "attr": {"dtype": {"type": "DT_FLOAT"}, "value": {"tensor": {"dtype": "DT_FLOAT", "tensorShape": {"dim": [{"size": "1"}, {"size": "1"}, {"size": "32"}, {"size": "32"}]}}}}}, {"name": "model_272/tf.math.add_722/Add/y", "op": "Const", "attr": {"dtype": {"type": "DT_FLOAT"}, "value": {"tensor": {"dtype": "DT_FLOAT", "tensorShape": {"dim": [{"size": "32"}]}}}}}, {"name": "model_272/tf.nn.convolution_511/convolution/filter", "op": "Const", "attr": {"dtype": {"type": "DT_FLOAT"}, "value": {"tensor": {"dtype": "DT_FLOAT", "tensorShape": {"dim": [{"size": "3"}, {"size": "3"}, {"size": "32"}, {"size": "32"}]}}}}}, {"name": "model_272/tf.math.add_723/Add/y", "op": "Const", "attr": {"dtype": {"type": "DT_FLOAT"}, "value": {"tensor": {"dtype": "DT_FLOAT", "tensorShape": {"dim": [{"size": "32"}]}}}}}, {"name": "model_272/tf.nn.convolution_513/convolution/filter", "op": "Const", "attr": {"dtype": {"type": "DT_FLOAT"}, "value": {"tensor": {"dtype": "DT_FLOAT", "tensorShape": {"dim": [{"size": "1"}, {"size": "1"}, {"size": "32"}, {"size": "16"}]}}}}}, {"name": "model_272/tf.math.add_725/Add/y", "op": "Const", "attr": {"value": {"tensor": {"dtype": "DT_FLOAT", "tensorShape": {"dim": [{"size": "16"}]}}}, "dtype": {"type": "DT_FLOAT"}}}, {"name": "model_272/tf.concat_92/concat/axis", "op": "Const", "attr": {"value": {"tensor": {"dtype": "DT_INT32", "tensorShape": {}}}, "dtype": {"type": "DT_INT32"}}}, {"name": "model_272/tf.nn.convolution_520/convolution/filter", "op": "Const", "attr": {"value": {"tensor": {"dtype": "DT_FLOAT", "tensorShape": {"dim": [{"size": "1"}, {"size": "1"}, {"size": "32"}, {"size": "32"}]}}}, "dtype": {"type": "DT_FLOAT"}}}, {"name": "model_272/tf.math.add_738/Add/y", "op": "Const", "attr": {"value": {"tensor": {"dtype": "DT_FLOAT", "tensorShape": {"dim": [{"size": "32"}]}}}, "dtype": {"type": "DT_FLOAT"}}}, {"name": "model_272/tf.nn.convolution_521/convolution/filter", "op": "Const", "attr": {"dtype": {"type": "DT_FLOAT"}, "value": {"tensor": {"dtype": "DT_FLOAT", "tensorShape": {"dim": [{"size": "3"}, {"size": "3"}, {"size": "32"}, {"size": "32"}]}}}}}, {"name": "model_272/tf.math.add_739/Add/y", "op": "Const", "attr": {"dtype": {"type": "DT_FLOAT"}, "value": {"tensor": {"dtype": "DT_FLOAT", "tensorShape": {"dim": [{"size": "32"}]}}}}}, {"name": "model_272/tf.concat_93/concat/axis", "op": "Const", "attr": {"value": {"tensor": {"dtype": "DT_INT32", "tensorShape": {}}}, "dtype": {"type": "DT_INT32"}}}, {"name": "model_272/tf.nn.convolution_522/convolution/filter", "op": "Const", "attr": {"value": {"tensor": {"dtype": "DT_FLOAT", "tensorShape": {"dim": [{"size": "1"}, {"size": "1"}, {"size": "128"}, {"size": "16"}]}}}, "dtype": {"type": "DT_FLOAT"}}}, {"name": "model_272/tf.math.add_740/Add/y", "op": "Const", "attr": {"dtype": {"type": "DT_FLOAT"}, "value": {"tensor": {"dtype": "DT_FLOAT", "tensorShape": {"dim": [{"size": "16"}]}}}}}, {"name": "model_272/tf.nn.convolution_523/convolution/filter", "op": "Const", "attr": {"value": {"tensor": {"dtype": "DT_FLOAT", "tensorShape": {"dim": [{"size": "1"}, {"size": "1"}, {"size": "16"}, {"size": "32"}]}}}, "dtype": {"type": "DT_FLOAT"}}}, {"name": "model_272/tf.math.add_741/Add/y", "op": "Const", "attr": {"value": {"tensor": {"dtype": "DT_FLOAT", "tensorShape": {"dim": [{"size": "32"}]}}}, "dtype": {"type": "DT_FLOAT"}}}, {"name": "model_272/tf.concat_94/concat/axis", "op": "Const", "attr": {"value": {"tensor": {"dtype": "DT_INT32", "tensorShape": {}}}, "dtype": {"type": "DT_INT32"}}}, {"name": "model_272/tf.nn.convolution_524/convolution/filter", "op": "Const", "attr": {"dtype": {"type": "DT_FLOAT"}, "value": {"tensor": {"dtype": "DT_FLOAT", "tensorShape": {"dim": [{"size": "1"}, {"size": "1"}, {"size": "128"}, {"size": "16"}]}}}}}, {"name": "model_272/tf.math.add_742/Add/y", "op": "Const", "attr": {"dtype": {"type": "DT_FLOAT"}, "value": {"tensor": {"dtype": "DT_FLOAT", "tensorShape": {"dim": [{"size": "16"}]}}}}}, {"name": "model_272/tf.compat.v1.nn.depthwise_conv2d_12/depthwise/filter_in", "op": "Const", "attr": {"value": {"tensor": {"dtype": "DT_FLOAT", "tensorShape": {"dim": [{"size": "3"}, {"size": "3"}, {"size": "16"}, {"size": "1"}]}}}, "dtype": {"type": "DT_FLOAT"}}}, {"name": "model_272/tf.math.add_744/Add/y", "op": "Const", "attr": {"dtype": {"type": "DT_FLOAT"}, "value": {"tensor": {"dtype": "DT_FLOAT", "tensorShape": {"dim": [{"size": "16"}]}}}}}, {"name": "model_272/tf.nn.convolution_528/convolution/filter", "op": "Const", "attr": {"value": {"tensor": {"dtype": "DT_FLOAT", "tensorShape": {"dim": [{"size": "1"}, {"size": "1"}, {"size": "16"}, {"size": "8"}]}}}, "dtype": {"type": "DT_FLOAT"}}}, {"name": "model_272/tf.math.add_747/Add/y", "op": "Const", "attr": {"value": {"tensor": {"dtype": "DT_FLOAT", "tensorShape": {"dim": [{"size": "8"}]}}}, "dtype": {"type": "DT_FLOAT"}}}, {"name": "model_272/tf.compat.v1.nn.depthwise_conv2d_13/depthwise/filter_in", "op": "Const", "attr": {"value": {"tensor": {"dtype": "DT_FLOAT", "tensorShape": {"dim": [{"size": "3"}, {"size": "3"}, {"size": "8"}, {"size": "1"}]}}}, "dtype": {"type": "DT_FLOAT"}}}, {"name": "model_272/tf.math.add_749/Add/y", "op": "Const", "attr": {"dtype": {"type": "DT_FLOAT"}, "value": {"tensor": {"dtype": "DT_FLOAT", "tensorShape": {"dim": [{"size": "8"}]}}}}}, {"name": "model_272/tf.nn.convolution_532/convolution/filter", "op": "Const", "attr": {"value": {"tensor": {"dtype": "DT_FLOAT", "tensorShape": {"dim": [{"size": "1"}, {"size": "1"}, {"size": "8"}, {"size": "8"}]}}}, "dtype": {"type": "DT_FLOAT"}}}, {"name": "model_272/tf.math.add_752/Add/y", "op": "Const", "attr": {"dtype": {"type": "DT_FLOAT"}, "value": {"tensor": {"dtype": "DT_FLOAT", "tensorShape": {"dim": [{"size": "8"}]}}}}}, {"name": "model_272/tf.nn.convolution_534/convolution/filter", "op": "Const", "attr": {"value": {"tensor": {"dtype": "DT_FLOAT", "tensorShape": {"dim": [{"size": "1"}, {"size": "1"}, {"size": "8"}, {"size": "2"}]}}}, "dtype": {"type": "DT_FLOAT"}}}, {"name": "model_272/tf.math.add_754/Add/y", "op": "Const", "attr": {"dtype": {"type": "DT_FLOAT"}, "value": {"tensor": {"dtype": "DT_FLOAT", "tensorShape": {"dim": [{"size": "2"}]}}}}}, {"name": "model_272/tf.concat_98/concat/axis", "op": "Const", "attr": {"value": {"tensor": {"dtype": "DT_INT32", "tensorShape": {}}}, "dtype": {"type": "DT_INT32"}}}, {"name": "model_272/tf.compat.v1.transpose_240/transpose/perm", "op": "Const", "attr": {"value": {"tensor": {"dtype": "DT_INT32", "tensorShape": {"dim": [{"size": "4"}]}}}, "dtype": {"type": "DT_INT32"}}}, {"name": "model_272/tf.reshape_32/Reshape/shape", "op": "Const", "attr": {"value": {"tensor": {"dtype": "DT_INT32", "tensorShape": {"dim": [{"size": "3"}]}}}, "dtype": {"type": "DT_INT32"}}}, {"name": "model_272/tf.concat_114/concat/axis", "op": "Const", "attr": {"dtype": {"type": "DT_INT32"}, "value": {"tensor": {"dtype": "DT_INT32", "tensorShape": {}}}}}, {"name": "model_272/tf.strided_slice_53/StridedSlice/begin", "op": "Const", "attr": {"value": {"tensor": {"dtype": "DT_INT64", "tensorShape": {"dim": [{"size": "3"}]}}}, "dtype": {"type": "DT_INT64"}}}, {"name": "model_272/tf.strided_slice_53/StridedSlice/end", "op": "Const", "attr": {"dtype": {"type": "DT_INT64"}, "value": {"tensor": {"dtype": "DT_INT64", "tensorShape": {"dim": [{"size": "3"}]}}}}}, {"name": "model_272/tf.strided_slice_53/StridedSlice/strides", "op": "Const", "attr": {"dtype": {"type": "DT_INT64"}, "value": {"tensor": {"dtype": "DT_INT64", "tensorShape": {"dim": [{"size": "3"}]}}}}}, {"name": "model_272/output0/concat/axis", "op": "Const", "attr": {"dtype": {"type": "DT_INT32"}, "value": {"tensor": {"dtype": "DT_INT32", "tensorShape": {}}}}}, {"name": "x", "op": "Placeholder", "attr": {"shape": {"shape": {"dim": [{"size": "1"}, {"size": "128"}, {"size": "128"}, {"size": "3"}]}}, "dtype": {"type": "DT_FLOAT"}}}, {"name": "model_272/tf.compat.v1.pad_14/Pad", "op": "Pad", "input": ["x", "model_272/tf.compat.v1.pad_14/Pad/paddings"], "attr": {"Tpaddings": {"type": "DT_INT32"}, "T": {"type": "DT_FLOAT"}}}, {"name": "model_272/tf.math.add_604/Add", "op": "_FusedConv2D", "input": ["model_272/tf.compat.v1.pad_14/Pad", "model_272/tf.nn.convolution_422/convolution/filter", "model_272/tf.math.add_604/Add/y"], "device": "/device:CPU:0", "attr": {"dilations": {"list": {"i": ["1", "1", "1", "1"]}}, "use_cudnn_on_gpu": {"b": true}, "padding": {"s": "VkFMSUQ="}, "filter_format": {"s": "SFdJTw=="}, "fused_ops": {"list": {"s": ["Qmlhc0FkZA=="]}}, "epsilon": {"f": 0.0}, "data_format": {"s": "TkhXQw=="}, "TArgs": {"list": {"type": ["DT_FLOAT"]}}, "strides": {"list": {"i": ["1", "2", "2", "1"]}}, "leakyrelu_alpha": {"f": 0.2}, "T": {"type": "DT_FLOAT"}, "num_args": {"i": "1"}, "explicit_paddings": {"list": {}}, "num_host_args": {"i": "0"}}}, {"name": "model_272/tf.math.sigmoid_372/Sigmoid", "op": "Sigmoid", "input": ["model_272/tf.math.add_604/Add"], "attr": {"T": {"type": "DT_FLOAT"}}}, {"name": "model_272/tf.math.multiply_1677/Mul", "op": "Mul", "input": ["model_272/tf.math.add_604/Add", "model_272/tf.math.sigmoid_372/Sigmoid"], "attr": {"T": {"type": "DT_FLOAT"}}}, {"name": "model_272/tf.compat.v1.pad_15/Pad", "op": "Pad", "input": ["model_272/tf.math.multiply_1677/Mul", "model_272/tf.compat.v1.pad_15/Pad/paddings"], "attr": {"Tpaddings": {"type": "DT_INT32"}, "T": {"type": "DT_FLOAT"}}}, {"name": "model_272/tf.math.add_605/Add", "op": "_FusedConv2D", "input": ["model_272/tf.compat.v1.pad_15/Pad", "model_272/tf.nn.convolution_423/convolution/filter", "model_272/tf.math.add_605/Add/y"], "device": "/device:CPU:0", "attr": {"padding": {"s": "VkFMSUQ="}, "num_host_args": {"i": "0"}, "fused_ops": {"list": {"s": ["Qmlhc0FkZA=="]}}, "epsilon": {"f": 0.0}, "data_format": {"s": "TkhXQw=="}, "TArgs": {"list": {"type": ["DT_FLOAT"]}}, "dilations": {"list": {"i": ["1", "1", "1", "1"]}}, "leakyrelu_alpha": {"f": 0.2}, "explicit_paddings": {"list": {}}, "num_args": {"i": "1"}, "T": {"type": "DT_FLOAT"}, "strides": {"list": {"i": ["1", "2", "2", "1"]}}, "filter_format": {"s": "SFdJTw=="}, "use_cudnn_on_gpu": {"b": true}}}, {"name": "model_272/tf.math.sigmoid_373/Sigmoid", "op": "Sigmoid", "input": ["model_272/tf.math.add_605/Add"], "attr": {"T": {"type": "DT_FLOAT"}}}, {"name": "model_272/tf.math.multiply_1681/Mul", "op": "Mul", "input": ["model_272/tf.math.add_605/Add", "model_272/tf.math.sigmoid_373/Sigmoid"], "attr": {"T": {"type": "DT_FLOAT"}}}, {"name": "model_272/tf.nn.max_pool2d/MaxPool2d", "op": "MaxPool", "input": ["model_272/tf.math.multiply_1681/Mul"], "attr": {"padding": {"s": "VkFMSUQ="}, "explicit_paddings": {"list": {}}, "T": {"type": "DT_FLOAT"}, "data_format": {"s": "TkhXQw=="}, "ksize": {"list": {"i": ["1", "2", "2", "1"]}}, "strides": {"list": {"i": ["1", "2", "2", "1"]}}}}, {"name": "model_272/tf.math.add_606/Add", "op": "_FusedConv2D", "input": ["model_272/tf.nn.max_pool2d/MaxPool2d", "model_272/tf.nn.convolution_424/convolution/filter", "model_272/tf.math.add_606/Add/y"], "device": "/device:CPU:0", "attr": {"strides": {"list": {"i": ["1", "1", "1", "1"]}}, "T": {"type": "DT_FLOAT"}, "filter_format": {"s": "SFdJTw=="}, "epsilon": {"f": 0.0}, "leakyrelu_alpha": {"f": 0.2}, "explicit_paddings": {"list": {}}, "num_args": {"i": "1"}, "data_format": {"s": "TkhXQw=="}, "use_cudnn_on_gpu": {"b": true}, "padding": {"s": "U0FNRQ=="}, "num_host_args": {"i": "0"}, "fused_ops": {"list": {"s": ["Qmlhc0FkZA=="]}}, "TArgs": {"list": {"type": ["DT_FLOAT"]}}, "dilations": {"list": {"i": ["1", "1", "1", "1"]}}}}, {"name": "model_272/tf.math.sigmoid_374/Sigmoid", "op": "Sigmoid", "input": ["model_272/tf.math.add_606/Add"], "attr": {"T": {"type": "DT_FLOAT"}}}, {"name": "model_272/tf.math.multiply_1685/Mul", "op": "Mul", "input": ["model_272/tf.math.add_606/Add", "model_272/tf.math.sigmoid_374/Sigmoid"], "attr": {"T": {"type": "DT_FLOAT"}}}, {"name": "model_272/tf.strided_slice_40/StridedSlice", "op": "StridedSlice", "input": ["model_272/tf.math.multiply_1685/Mul", "model_272/tf.strided_slice_40/ones_like/tensor", "model_272/tf.strided_slice_40/StridedSlice/end", "model_272/tf.strided_slice_40/ones_like"], "attr": {"Index": {"type": "DT_INT64"}, "begin_mask": {"i": "15"}, "T": {"type": "DT_FLOAT"}, "ellipsis_mask": {"i": "0"}, "end_mask": {"i": "7"}, "shrink_axis_mask": {"i": "0"}, "new_axis_mask": {"i": "0"}}}, {"name": "model_272/tf.strided_slice_41/StridedSlice", "op": "StridedSlice", "input": ["model_272/tf.math.multiply_1685/Mul", "model_272/tf.strided_slice_41/ones_like/tensor", "model_272/tf.strided_slice_41/StridedSlice/end", "model_272/tf.strided_slice_41/ones_like"], "attr": {"T": {"type": "DT_FLOAT"}, "Index": {"type": "DT_INT64"}, "ellipsis_mask": {"i": "0"}, "shrink_axis_mask": {"i": "0"}, "end_mask": {"i": "7"}, "new_axis_mask": {"i": "0"}, "begin_mask": {"i": "7"}}}, {"name": "model_272/tf.math.add_607/Add", "op": "_FusedConv2D", "input": ["model_272/tf.strided_slice_41/StridedSlice", "model_272/tf.nn.convolution_425/convolution/filter", "model_272/tf.math.add_607/Add/y"], "device": "/device:CPU:0", "attr": {"strides": {"list": {"i": ["1", "1", "1", "1"]}}, "filter_format": {"s": "SFdJTw=="}, "explicit_paddings": {"list": {}}, "padding": {"s": "U0FNRQ=="}, "num_host_args": {"i": "0"}, "TArgs": {"list": {"type": ["DT_FLOAT"]}}, "leakyrelu_alpha": {"f": 0.2}, "T": {"type": "DT_FLOAT"}, "data_format": {"s": "TkhXQw=="}, "use_cudnn_on_gpu": {"b": true}, "dilations": {"list": {"i": ["1", "1", "1", "1"]}}, "fused_ops": {"list": {"s": ["Qmlhc0FkZA=="]}}, "epsilon": {"f": 0.0}, "num_args": {"i": "1"}}}, {"name": "model_272/tf.math.sigmoid_375/Sigmoid", "op": "Sigmoid", "input": ["model_272/tf.math.add_607/Add"], "attr": {"T": {"type": "DT_FLOAT"}}}, {"name": "model_272/tf.math.multiply_1689/Mul", "op": "Mul", "input": ["model_272/tf.math.add_607/Add", "model_272/tf.math.sigmoid_375/Sigmoid"], "attr": {"T": {"type": "DT_FLOAT"}}}, {"name": "model_272/tf.math.add_608/Add", "op": "_FusedConv2D", "input": ["model_272/tf.math.multiply_1689/Mul", "model_272/tf.nn.convolution_426/convolution/filter", "model_272/tf.math.add_608/Add/y"], "device": "/device:CPU:0", "attr": {"explicit_paddings": {"list": {}}, "num_host_args": {"i": "0"}, "T": {"type": "DT_FLOAT"}, "dilations": {"list": {"i": ["1", "1", "1", "1"]}}, "strides": {"list": {"i": ["1", "1", "1", "1"]}}, "epsilon": {"f": 0.0}, "data_format": {"s": "TkhXQw=="}, "leakyrelu_alpha": {"f": 0.2}, "num_args": {"i": "1"}, "TArgs": {"list": {"type": ["DT_FLOAT"]}}, "use_cudnn_on_gpu": {"b": true}, "fused_ops": {"list": {"s": ["Qmlhc0FkZA=="]}}, "filter_format": {"s": "SFdJTw=="}, "padding": {"s": "U0FNRQ=="}}}, {"name": "model_272/tf.math.sigmoid_376/Sigmoid", "op": "Sigmoid", "input": ["model_272/tf.math.add_608/Add"], "attr": {"T": {"type": "DT_FLOAT"}}}, {"name": "model_272/tf.math.multiply_1693/Mul", "op": "Mul", "input": ["model_272/tf.math.add_608/Add", "model_272/tf.math.sigmoid_376/Sigmoid"], "attr": {"T": {"type": "DT_FLOAT"}}}, {"name": "model_272/tf.concat_80/concat", "op": "ConcatV2", "input": ["model_272/tf.strided_slice_40/StridedSlice", "model_272/tf.strided_slice_41/StridedSlice", "model_272/tf.math.multiply_1689/Mul", "model_272/tf.math.multiply_1693/Mul", "model_272/tf.concat_80/concat/axis"], "attr": {"N": {"i": "4"}, "Tidx": {"type": "DT_INT32"}, "T": {"type": "DT_FLOAT"}}}, {"name": "model_272/tf.math.add_609/Add", "op": "_FusedConv2D", "input": ["model_272/tf.concat_80/concat", "model_272/tf.nn.convolution_427/convolution/filter", "model_272/tf.math.add_609/Add/y"], "device": "/device:CPU:0", "attr": {"data_format": {"s": "TkhXQw=="}, "padding": {"s": "U0FNRQ=="}, "num_host_args": {"i": "0"}, "epsilon": {"f": 0.0}, "explicit_paddings": {"list": {}}, "dilations": {"list": {"i": ["1", "1", "1", "1"]}}, "fused_ops": {"list": {"s": ["Qmlhc0FkZA=="]}}, "use_cudnn_on_gpu": {"b": true}, "T": {"type": "DT_FLOAT"}, "filter_format": {"s": "SFdJTw=="}, "strides": {"list": {"i": ["1", "1", "1", "1"]}}, "TArgs": {"list": {"type": ["DT_FLOAT"]}}, "num_args": {"i": "1"}, "leakyrelu_alpha": {"f": 0.2}}}, {"name": "model_272/tf.math.sigmoid_377/Sigmoid", "op": "Sigmoid", "input": ["model_272/tf.math.add_609/Add"], "attr": {"T": {"type": "DT_FLOAT"}}}, {"name": "model_272/tf.math.multiply_1697/Mul", "op": "Mul", "input": ["model_272/tf.math.add_609/Add", "model_272/tf.math.sigmoid_377/Sigmoid"], "attr": {"T": {"type": "DT_FLOAT"}}}, {"name": "model_272/tf.compat.v1.nn.avg_pool_10/AvgPool", "op": "AvgPool", "input": ["model_272/tf.math.multiply_1697/Mul"], "attr": {"strides": {"list": {"i": ["1", "1", "1", "1"]}}, "padding": {"s": "VkFMSUQ="}, "data_format": {"s": "TkhXQw=="}, "ksize": {"list": {"i": ["1", "2", "2", "1"]}}, "T": {"type": "DT_FLOAT"}}}, {"name": "model_272/tf.compat.v1.pad_16/Pad", "op": "Pad", "input": ["model_272/tf.compat.v1.nn.avg_pool_10/AvgPool", "model_272/tf.compat.v1.pad_16/Pad/paddings"], "attr": {"Tpaddings": {"type": "DT_INT32"}, "T": {"type": "DT_FLOAT"}}}, {"name": "model_272/tf.math.add_610/Add", "op": "_FusedConv2D", "input": ["model_272/tf.compat.v1.pad_16/Pad", "model_272/tf.nn.convolution_428/convolution/filter", "model_272/tf.math.add_610/Add/y"], "device": "/device:CPU:0", "attr": {"explicit_paddings": {"list": {}}, "num_host_args": {"i": "0"}, "padding": {"s": "VkFMSUQ="}, "T": {"type": "DT_FLOAT"}, "num_args": {"i": "1"}, "data_format": {"s": "TkhXQw=="}, "use_cudnn_on_gpu": {"b": true}, "strides": {"list": {"i": ["1", "2", "2", "1"]}}, "fused_ops": {"list": {"s": ["Qmlhc0FkZA=="]}}, "filter_format": {"s": "SFdJTw=="}, "dilations": {"list": {"i": ["1", "1", "1", "1"]}}, "TArgs": {"list": {"type": ["DT_FLOAT"]}}, "epsilon": {"f": 0.0}, "leakyrelu_alpha": {"f": 0.2}}}, {"name": "model_272/tf.math.sigmoid_378/Sigmoid", "op": "Sigmoid", "input": ["model_272/tf.math.add_610/Add"], "attr": {"T": {"type": "DT_FLOAT"}}}, {"name": "model_272/tf.math.multiply_1701/Mul", "op": "Mul", "input": ["model_272/tf.math.add_610/Add", "model_272/tf.math.sigmoid_378/Sigmoid"], "attr": {"T": {"type": "DT_FLOAT"}}}, {"name": "model_272/tf.math.add_613/Add", "op": "_FusedConv2D", "input": ["model_272/tf.math.multiply_1701/Mul", "model_272/tf.nn.convolution_431/convolution/filter", "model_272/tf.math.add_613/Add/y"], "device": "/device:CPU:0", "attr": {"data_format": {"s": "TkhXQw=="}, "fused_ops": {"list": {"s": ["Qmlhc0FkZA=="]}}, "num_args": {"i": "1"}, "padding": {"s": "U0FNRQ=="}, "strides": {"list": {"i": ["1", "1", "1", "1"]}}, "filter_format": {"s": "SFdJTw=="}, "dilations": {"list": {"i": ["1", "1", "1", "1"]}}, "num_host_args": {"i": "0"}, "use_cudnn_on_gpu": {"b": true}, "leakyrelu_alpha": {"f": 0.2}, "explicit_paddings": {"list": {}}, "epsilon": {"f": 0.0}, "T": {"type": "DT_FLOAT"}, "TArgs": {"list": {"type": ["DT_FLOAT"]}}}}, {"name": "model_272/tf.math.sigmoid_379/Sigmoid", "op": "Sigmoid", "input": ["model_272/tf.math.add_613/Add"], "attr": {"T": {"type": "DT_FLOAT"}}}, {"name": "model_272/tf.math.multiply_1705/Mul", "op": "Mul", "input": ["model_272/tf.math.add_613/Add", "model_272/tf.math.sigmoid_379/Sigmoid"], "attr": {"T": {"type": "DT_FLOAT"}}}, {"name": "model_272/tf.strided_slice_42/StridedSlice", "op": "StridedSlice", "input": ["model_272/tf.math.multiply_1705/Mul", "model_272/tf.strided_slice_42/ones_like/tensor", "model_272/tf.strided_slice_42/StridedSlice/end", "model_272/tf.strided_slice_42/ones_like"], "attr": {"ellipsis_mask": {"i": "0"}, "T": {"type": "DT_FLOAT"}, "end_mask": {"i": "7"}, "new_axis_mask": {"i": "0"}, "begin_mask": {"i": "15"}, "Index": {"type": "DT_INT64"}, "shrink_axis_mask": {"i": "0"}}}, {"name": "model_272/tf.strided_slice_43/StridedSlice", "op": "StridedSlice", "input": ["model_272/tf.math.multiply_1705/Mul", "model_272/tf.strided_slice_43/ones_like/tensor", "model_272/tf.strided_slice_43/StridedSlice/end", "model_272/tf.strided_slice_43/ones_like"], "attr": {"Index": {"type": "DT_INT64"}, "shrink_axis_mask": {"i": "0"}, "end_mask": {"i": "7"}, "new_axis_mask": {"i": "0"}, "begin_mask": {"i": "7"}, "ellipsis_mask": {"i": "0"}, "T": {"type": "DT_FLOAT"}}}, {"name": "model_272/tf.math.add_614/Add", "op": "_FusedConv2D", "input": ["model_272/tf.strided_slice_43/StridedSlice", "model_272/tf.nn.convolution_432/convolution/filter", "model_272/tf.math.add_614/Add/y"], "device": "/device:CPU:0", "attr": {"filter_format": {"s": "SFdJTw=="}, "dilations": {"list": {"i": ["1", "1", "1", "1"]}}, "strides": {"list": {"i": ["1", "1", "1", "1"]}}, "num_args": {"i": "1"}, "leakyrelu_alpha": {"f": 0.2}, "data_format": {"s": "TkhXQw=="}, "explicit_paddings": {"list": {}}, "T": {"type": "DT_FLOAT"}, "use_cudnn_on_gpu": {"b": true}, "TArgs": {"list": {"type": ["DT_FLOAT"]}}, "fused_ops": {"list": {"s": ["Qmlhc0FkZA=="]}}, "padding": {"s": "U0FNRQ=="}, "epsilon": {"f": 0.0}, "num_host_args": {"i": "0"}}}, {"name": "model_272/tf.math.add_615/Add", "op": "_FusedConv2D", "input": ["model_272/tf.strided_slice_43/StridedSlice", "model_272/tf.nn.convolution_433/convolution/filter", "model_272/tf.math.add_615/Add/y"], "device": "/device:CPU:0", "attr": {"num_host_args": {"i": "0"}, "TArgs": {"list": {"type": ["DT_FLOAT"]}}, "data_format": {"s": "TkhXQw=="}, "T": {"type": "DT_FLOAT"}, "use_cudnn_on_gpu": {"b": true}, "strides": {"list": {"i": ["1", "1", "1", "1"]}}, "filter_format": {"s": "SFdJTw=="}, "leakyrelu_alpha": {"f": 0.2}, "fused_ops": {"list": {"s": ["Qmlhc0FkZA=="]}}, "padding": {"s": "U0FNRQ=="}, "dilations": {"list": {"i": ["1", "1", "1", "1"]}}, "num_args": {"i": "1"}, "epsilon": {"f": 0.0}, "explicit_paddings": {"list": {}}}}, {"name": "model_272/tf.math.sigmoid_380/Sigmoid", "op": "Sigmoid", "input": ["model_272/tf.math.add_614/Add"], "attr": {"T": {"type": "DT_FLOAT"}}}, {"name": "model_272/tf.math.sigmoid_381/Sigmoid", "op": "Sigmoid", "input": ["model_272/tf.math.add_615/Add"], "attr": {"T": {"type": "DT_FLOAT"}}}, {"name": "model_272/tf.math.multiply_1709/Mul", "op": "Mul", "input": ["model_272/tf.math.add_614/Add", "model_272/tf.math.sigmoid_380/Sigmoid"], "attr": {"T": {"type": "DT_FLOAT"}}}, {"name": "model_272/tf.math.multiply_1713/Mul", "op": "Mul", "input": ["model_272/tf.math.add_615/Add", "model_272/tf.math.sigmoid_381/Sigmoid"], "attr": {"T": {"type": "DT_FLOAT"}}}, {"name": "model_272/tf.math.add_618/Add", "op": "_FusedConv2D", "input": ["model_272/tf.math.multiply_1709/Mul", "model_272/tf.nn.convolution_436/convolution/filter", "model_272/tf.math.add_618/Add/y"], "device": "/device:CPU:0", "attr": {"dilations": {"list": {"i": ["1", "1", "1", "1"]}}, "strides": {"list": {"i": ["1", "1", "1", "1"]}}, "filter_format": {"s": "SFdJTw=="}, "use_cudnn_on_gpu": {"b": true}, "padding": {"s": "U0FNRQ=="}, "num_args": {"i": "1"}, "leakyrelu_alpha": {"f": 0.2}, "num_host_args": {"i": "0"}, "T": {"type": "DT_FLOAT"}, "data_format": {"s": "TkhXQw=="}, "explicit_paddings": {"list": {}}, "fused_ops": {"list": {"s": ["Qmlhc0FkZA=="]}}, "epsilon": {"f": 0.0}, "TArgs": {"list": {"type": ["DT_FLOAT"]}}}}, {"name": "model_272/tf.math.sigmoid_382/Sigmoid", "op": "Sigmoid", "input": ["model_272/tf.math.add_618/Add"], "attr": {"T": {"type": "DT_FLOAT"}}}, {"name": "model_272/tf.math.multiply_1717/Mul", "op": "Mul", "input": ["model_272/tf.math.add_618/Add", "model_272/tf.math.sigmoid_382/Sigmoid"], "attr": {"T": {"type": "DT_FLOAT"}}}, {"name": "model_272/tf.math.add_621/Add", "op": "_FusedConv2D", "input": ["model_272/tf.math.multiply_1717/Mul", "model_272/tf.nn.convolution_439/convolution/filter", "model_272/tf.math.add_621/Add/y"], "device": "/device:CPU:0", "attr": {"strides": {"list": {"i": ["1", "1", "1", "1"]}}, "num_host_args": {"i": "0"}, "epsilon": {"f": 0.0}, "dilations": {"list": {"i": ["1", "1", "1", "1"]}}, "TArgs": {"list": {"type": ["DT_FLOAT"]}}, "padding": {"s": "U0FNRQ=="}, "T": {"type": "DT_FLOAT"}, "use_cudnn_on_gpu": {"b": true}, "data_format": {"s": "TkhXQw=="}, "fused_ops": {"list": {"s": ["Qmlhc0FkZA=="]}}, "leakyrelu_alpha": {"f": 0.2}, "filter_format": {"s": "SFdJTw=="}, "explicit_paddings": {"list": {}}, "num_args": {"i": "1"}}}, {"name": "model_272/tf.math.sigmoid_383/Sigmoid", "op": "Sigmoid", "input": ["model_272/tf.math.add_621/Add"], "attr": {"T": {"type": "DT_FLOAT"}}}, {"name": "model_272/tf.math.multiply_1721/Mul", "op": "Mul", "input": ["model_272/tf.math.add_621/Add", "model_272/tf.math.sigmoid_383/Sigmoid"], "attr": {"T": {"type": "DT_FLOAT"}}}, {"name": "model_272/tf.math.add_623/Add", "op": "AddV2", "input": ["model_272/tf.math.multiply_1709/Mul", "model_272/tf.math.multiply_1721/Mul"], "attr": {"T": {"type": "DT_FLOAT"}}}, {"name": "model_272/tf.math.add_626/Add", "op": "_FusedConv2D", "input": ["model_272/tf.math.add_623/Add", "model_272/tf.nn.convolution_442/convolution/filter", "model_272/tf.math.add_626/Add/y"], "device": "/device:CPU:0", "attr": {"explicit_paddings": {"list": {}}, "fused_ops": {"list": {"s": ["Qmlhc0FkZA=="]}}, "use_cudnn_on_gpu": {"b": true}, "padding": {"s": "U0FNRQ=="}, "leakyrelu_alpha": {"f": 0.2}, "T": {"type": "DT_FLOAT"}, "num_args": {"i": "1"}, "dilations": {"list": {"i": ["1", "1", "1", "1"]}}, "filter_format": {"s": "SFdJTw=="}, "epsilon": {"f": 0.0}, "strides": {"list": {"i": ["1", "1", "1", "1"]}}, "data_format": {"s": "TkhXQw=="}, "num_host_args": {"i": "0"}, "TArgs": {"list": {"type": ["DT_FLOAT"]}}}}, {"name": "model_272/tf.math.sigmoid_384/Sigmoid", "op": "Sigmoid", "input": ["model_272/tf.math.add_626/Add"], "attr": {"T": {"type": "DT_FLOAT"}}}, {"name": "model_272/tf.math.multiply_1727/Mul", "op": "Mul", "input": ["model_272/tf.math.add_626/Add", "model_272/tf.math.sigmoid_384/Sigmoid"], "attr": {"T": {"type": "DT_FLOAT"}}}, {"name": "model_272/tf.math.add_629/Add", "op": "_FusedConv2D", "input": ["model_272/tf.math.multiply_1727/Mul", "model_272/tf.nn.convolution_445/convolution/filter", "model_272/tf.math.add_629/Add/y"], "device": "/device:CPU:0", "attr": {"TArgs": {"list": {"type": ["DT_FLOAT"]}}, "filter_format": {"s": "SFdJTw=="}, "num_args": {"i": "1"}, "padding": {"s": "U0FNRQ=="}, "num_host_args": {"i": "0"}, "fused_ops": {"list": {"s": ["Qmlhc0FkZA=="]}}, "strides": {"list": {"i": ["1", "1", "1", "1"]}}, "dilations": {"list": {"i": ["1", "1", "1", "1"]}}, "epsilon": {"f": 0.0}, "use_cudnn_on_gpu": {"b": true}, "leakyrelu_alpha": {"f": 0.2}, "data_format": {"s": "TkhXQw=="}, "T": {"type": "DT_FLOAT"}, "explicit_paddings": {"list": {}}}}, {"name": "model_272/tf.math.sigmoid_385/Sigmoid", "op": "Sigmoid", "input": ["model_272/tf.math.add_629/Add"], "attr": {"T": {"type": "DT_FLOAT"}}}, {"name": "model_272/tf.math.multiply_1731/Mul", "op": "Mul", "input": ["model_272/tf.math.add_629/Add", "model_272/tf.math.sigmoid_385/Sigmoid"], "attr": {"T": {"type": "DT_FLOAT"}}}, {"name": "model_272/tf.math.add_631/Add", "op": "AddV2", "input": ["model_272/tf.math.add_623/Add", "model_272/tf.math.multiply_1731/Mul"], "attr": {"T": {"type": "DT_FLOAT"}}}, {"name": "model_272/tf.math.add_634/Add", "op": "_FusedConv2D", "input": ["model_272/tf.math.add_631/Add", "model_272/tf.nn.convolution_448/convolution/filter", "model_272/tf.math.add_634/Add/y"], "device": "/device:CPU:0", "attr": {"num_args": {"i": "1"}, "num_host_args": {"i": "0"}, "explicit_paddings": {"list": {}}, "strides": {"list": {"i": ["1", "1", "1", "1"]}}, "T": {"type": "DT_FLOAT"}, "data_format": {"s": "TkhXQw=="}, "fused_ops": {"list": {"s": ["Qmlhc0FkZA=="]}}, "leakyrelu_alpha": {"f": 0.2}, "epsilon": {"f": 0.0}, "use_cudnn_on_gpu": {"b": true}, "filter_format": {"s": "SFdJTw=="}, "padding": {"s": "U0FNRQ=="}, "TArgs": {"list": {"type": ["DT_FLOAT"]}}, "dilations": {"list": {"i": ["1", "1", "1", "1"]}}}}, {"name": "model_272/tf.math.sigmoid_386/Sigmoid", "op": "Sigmoid", "input": ["model_272/tf.math.add_634/Add"], "attr": {"T": {"type": "DT_FLOAT"}}}, {"name": "model_272/tf.math.multiply_1737/Mul", "op": "Mul", "input": ["model_272/tf.math.add_634/Add", "model_272/tf.math.sigmoid_386/Sigmoid"], "attr": {"T": {"type": "DT_FLOAT"}}}, {"name": "model_272/tf.math.add_637/Add", "op": "_FusedConv2D", "input": ["model_272/tf.math.multiply_1737/Mul", "model_272/tf.nn.convolution_451/convolution/filter", "model_272/tf.math.add_637/Add/y"], "device": "/device:CPU:0", "attr": {"epsilon": {"f": 0.0}, "fused_ops": {"list": {"s": ["Qmlhc0FkZA=="]}}, "data_format": {"s": "TkhXQw=="}, "padding": {"s": "U0FNRQ=="}, "explicit_paddings": {"list": {}}, "TArgs": {"list": {"type": ["DT_FLOAT"]}}, "num_args": {"i": "1"}, "use_cudnn_on_gpu": {"b": true}, "T": {"type": "DT_FLOAT"}, "strides": {"list": {"i": ["1", "1", "1", "1"]}}, "leakyrelu_alpha": {"f": 0.2}, "num_host_args": {"i": "0"}, "filter_format": {"s": "SFdJTw=="}, "dilations": {"list": {"i": ["1", "1", "1", "1"]}}}}, {"name": "model_272/tf.math.sigmoid_387/Sigmoid", "op": "Sigmoid", "input": ["model_272/tf.math.add_637/Add"], "attr": {"T": {"type": "DT_FLOAT"}}}, {"name": "model_272/tf.math.multiply_1741/Mul", "op": "Mul", "input": ["model_272/tf.math.add_637/Add", "model_272/tf.math.sigmoid_387/Sigmoid"], "attr": {"T": {"type": "DT_FLOAT"}}}, {"name": "model_272/tf.math.add_639/Add", "op": "AddV2", "input": ["model_272/tf.math.add_631/Add", "model_272/tf.math.multiply_1741/Mul"], "attr": {"T": {"type": "DT_FLOAT"}}}, {"name": "model_272/tf.concat_83/concat", "op": "ConcatV2", "input": ["model_272/tf.math.add_639/Add", "model_272/tf.math.multiply_1713/Mul", "model_272/tf.concat_83/concat/axis"], "attr": {"Tidx": {"type": "DT_INT32"}, "N": {"i": "2"}, "T": {"type": "DT_FLOAT"}}}, {"name": "model_272/tf.math.add_640/Add", "op": "_FusedConv2D", "input": ["model_272/tf.concat_83/concat", "model_272/tf.nn.convolution_452/convolution/filter", "model_272/tf.math.add_640/Add/y"], "device": "/device:CPU:0", "attr": {"fused_ops": {"list": {"s": ["Qmlhc0FkZA=="]}}, "num_host_args": {"i": "0"}, "padding": {"s": "U0FNRQ=="}, "data_format": {"s": "TkhXQw=="}, "explicit_paddings": {"list": {}}, "epsilon": {"f": 0.0}, "leakyrelu_alpha": {"f": 0.2}, "dilations": {"list": {"i": ["1", "1", "1", "1"]}}, "filter_format": {"s": "SFdJTw=="}, "T": {"type": "DT_FLOAT"}, "use_cudnn_on_gpu": {"b": true}, "num_args": {"i": "1"}, "strides": {"list": {"i": ["1", "1", "1", "1"]}}, "TArgs": {"list": {"type": ["DT_FLOAT"]}}}}, {"name": "model_272/tf.math.sigmoid_388/Sigmoid", "op": "Sigmoid", "input": ["model_272/tf.math.add_640/Add"], "attr": {"T": {"type": "DT_FLOAT"}}}, {"name": "model_272/tf.math.multiply_1747/Mul", "op": "Mul", "input": ["model_272/tf.math.add_640/Add", "model_272/tf.math.sigmoid_388/Sigmoid"], "attr": {"T": {"type": "DT_FLOAT"}}}, {"name": "model_272/tf.math.add_641/Add", "op": "_FusedConv2D", "input": ["model_272/tf.math.multiply_1747/Mul", "model_272/tf.nn.convolution_453/convolution/filter", "model_272/tf.math.add_641/Add/y"], "device": "/device:CPU:0", "attr": {"dilations": {"list": {"i": ["1", "1", "1", "1"]}}, "padding": {"s": "U0FNRQ=="}, "TArgs": {"list": {"type": ["DT_FLOAT"]}}, "data_format": {"s": "TkhXQw=="}, "T": {"type": "DT_FLOAT"}, "leakyrelu_alpha": {"f": 0.2}, "filter_format": {"s": "SFdJTw=="}, "num_args": {"i": "1"}, "use_cudnn_on_gpu": {"b": true}, "fused_ops": {"list": {"s": ["Qmlhc0FkZA=="]}}, "num_host_args": {"i": "0"}, "explicit_paddings": {"list": {}}, "epsilon": {"f": 0.0}, "strides": {"list": {"i": ["1", "1", "1", "1"]}}}}, {"name": "model_272/tf.math.sigmoid_389/Sigmoid", "op": "Sigmoid", "input": ["model_272/tf.math.add_641/Add"], "attr": {"T": {"type": "DT_FLOAT"}}}, {"name": "model_272/tf.math.multiply_1751/Mul", "op": "Mul", "input": ["model_272/tf.math.add_641/Add", "model_272/tf.math.sigmoid_389/Sigmoid"], "attr": {"T": {"type": "DT_FLOAT"}}}, {"name": "model_272/tf.math.add_642/Add", "op": "_FusedConv2D", "input": ["model_272/tf.math.multiply_1751/Mul", "model_272/tf.nn.convolution_454/convolution/filter", "model_272/tf.math.add_642/Add/y"], "device": "/device:CPU:0", "attr": {"padding": {"s": "U0FNRQ=="}, "fused_ops": {"list": {"s": ["Qmlhc0FkZA=="]}}, "strides": {"list": {"i": ["1", "1", "1", "1"]}}, "data_format": {"s": "TkhXQw=="}, "explicit_paddings": {"list": {}}, "dilations": {"list": {"i": ["1", "1", "1", "1"]}}, "T": {"type": "DT_FLOAT"}, "num_args": {"i": "1"}, "use_cudnn_on_gpu": {"b": true}, "TArgs": {"list": {"type": ["DT_FLOAT"]}}, "filter_format": {"s": "SFdJTw=="}, "epsilon": {"f": 0.0}, "num_host_args": {"i": "0"}, "leakyrelu_alpha": {"f": 0.2}}}, {"name": "model_272/tf.math.add_643/Add", "op": "_FusedConv2D", "input": ["model_272/tf.math.multiply_1751/Mul", "model_272/tf.nn.convolution_455/convolution/filter", "model_272/tf.math.add_643/Add/y"], "device": "/device:CPU:0", "attr": {"explicit_paddings": {"list": {}}, "filter_format": {"s": "SFdJTw=="}, "num_host_args": {"i": "0"}, "num_args": {"i": "1"}, "leakyrelu_alpha": {"f": 0.2}, "epsilon": {"f": 0.0}, "fused_ops": {"list": {"s": ["Qmlhc0FkZA=="]}}, "TArgs": {"list": {"type": ["DT_FLOAT"]}}, "padding": {"s": "U0FNRQ=="}, "dilations": {"list": {"i": ["1", "1", "1", "1"]}}, "use_cudnn_on_gpu": {"b": true}, "data_format": {"s": "TkhXQw=="}, "strides": {"list": {"i": ["1", "1", "1", "1"]}}, "T": {"type": "DT_FLOAT"}}}, {"name": "model_272/tf.math.sigmoid_390/Sigmoid", "op": "Sigmoid", "input": ["model_272/tf.math.add_642/Add"], "attr": {"T": {"type": "DT_FLOAT"}}}, {"name": "model_272/tf.math.sigmoid_391/Sigmoid", "op": "Sigmoid", "input": ["model_272/tf.math.add_643/Add"], "attr": {"T": {"type": "DT_FLOAT"}}}, {"name": "model_272/tf.math.multiply_1755/Mul", "op": "Mul", "input": ["model_272/tf.math.add_642/Add", "model_272/tf.math.sigmoid_390/Sigmoid"], "attr": {"T": {"type": "DT_FLOAT"}}}, {"name": "model_272/tf.math.multiply_1759/Mul", "op": "Mul", "input": ["model_272/tf.math.add_643/Add", "model_272/tf.math.sigmoid_391/Sigmoid"], "attr": {"T": {"type": "DT_FLOAT"}}}, {"name": "model_272/tf.math.add_646/Add", "op": "_FusedConv2D", "input": ["model_272/tf.math.multiply_1755/Mul", "model_272/tf.nn.convolution_458/convolution/filter", "model_272/tf.math.add_646/Add/y"], "device": "/device:CPU:0", "attr": {"T": {"type": "DT_FLOAT"}, "data_format": {"s": "TkhXQw=="}, "strides": {"list": {"i": ["1", "1", "1", "1"]}}, "leakyrelu_alpha": {"f": 0.2}, "TArgs": {"list": {"type": ["DT_FLOAT"]}}, "use_cudnn_on_gpu": {"b": true}, "epsilon": {"f": 0.0}, "num_host_args": {"i": "0"}, "filter_format": {"s": "SFdJTw=="}, "padding": {"s": "U0FNRQ=="}, "dilations": {"list": {"i": ["1", "1", "1", "1"]}}, "explicit_paddings": {"list": {}}, "fused_ops": {"list": {"s": ["Qmlhc0FkZA=="]}}, "num_args": {"i": "1"}}}, {"name": "model_272/tf.math.sigmoid_392/Sigmoid", "op": "Sigmoid", "input": ["model_272/tf.math.add_646/Add"], "attr": {"T": {"type": "DT_FLOAT"}}}, {"name": "model_272/tf.math.multiply_1763/Mul", "op": "Mul", "input": ["model_272/tf.math.add_646/Add", "model_272/tf.math.sigmoid_392/Sigmoid"], "attr": {"T": {"type": "DT_FLOAT"}}}, {"name": "model_272/tf.math.add_649/Add", "op": "_FusedConv2D", "input": ["model_272/tf.math.multiply_1763/Mul", "model_272/tf.nn.convolution_461/convolution/filter", "model_272/tf.math.add_649/Add/y"], "device": "/device:CPU:0", "attr": {"dilations": {"list": {"i": ["1", "1", "1", "1"]}}, "filter_format": {"s": "SFdJTw=="}, "strides": {"list": {"i": ["1", "1", "1", "1"]}}, "num_host_args": {"i": "0"}, "data_format": {"s": "TkhXQw=="}, "epsilon": {"f": 0.0}, "num_args": {"i": "1"}, "use_cudnn_on_gpu": {"b": true}, "fused_ops": {"list": {"s": ["Qmlhc0FkZA=="]}}, "T": {"type": "DT_FLOAT"}, "explicit_paddings": {"list": {}}, "leakyrelu_alpha": {"f": 0.2}, "TArgs": {"list": {"type": ["DT_FLOAT"]}}, "padding": {"s": "U0FNRQ=="}}}, {"name": "model_272/tf.math.sigmoid_393/Sigmoid", "op": "Sigmoid", "input": ["model_272/tf.math.add_649/Add"], "attr": {"T": {"type": "DT_FLOAT"}}}, {"name": "model_272/tf.math.multiply_1767/Mul", "op": "Mul", "input": ["model_272/tf.math.add_649/Add", "model_272/tf.math.sigmoid_393/Sigmoid"], "attr": {"T": {"type": "DT_FLOAT"}}}, {"name": "model_272/tf.math.add_651/Add", "op": "AddV2", "input": ["model_272/tf.math.multiply_1755/Mul", "model_272/tf.math.multiply_1767/Mul"], "attr": {"T": {"type": "DT_FLOAT"}}}, {"name": "model_272/tf.math.add_654/Add", "op": "_FusedConv2D", "input": ["model_272/tf.math.add_651/Add", "model_272/tf.nn.convolution_464/convolution/filter", "model_272/tf.math.add_654/Add/y"], "device": "/device:CPU:0", "attr": {"use_cudnn_on_gpu": {"b": true}, "strides": {"list": {"i": ["1", "1", "1", "1"]}}, "filter_format": {"s": "SFdJTw=="}, "dilations": {"list": {"i": ["1", "1", "1", "1"]}}, "epsilon": {"f": 0.0}, "TArgs": {"list": {"type": ["DT_FLOAT"]}}, "fused_ops": {"list": {"s": ["Qmlhc0FkZA=="]}}, "padding": {"s": "U0FNRQ=="}, "data_format": {"s": "TkhXQw=="}, "explicit_paddings": {"list": {}}, "leakyrelu_alpha": {"f": 0.2}, "T": {"type": "DT_FLOAT"}, "num_host_args": {"i": "0"}, "num_args": {"i": "1"}}}, {"name": "model_272/tf.math.sigmoid_394/Sigmoid", "op": "Sigmoid", "input": ["model_272/tf.math.add_654/Add"], "attr": {"T": {"type": "DT_FLOAT"}}}, {"name": "model_272/tf.math.multiply_1773/Mul", "op": "Mul", "input": ["model_272/tf.math.add_654/Add", "model_272/tf.math.sigmoid_394/Sigmoid"], "attr": {"T": {"type": "DT_FLOAT"}}}, {"name": "model_272/tf.math.add_657/Add", "op": "_FusedConv2D", "input": ["model_272/tf.math.multiply_1773/Mul", "model_272/tf.nn.convolution_467/convolution/filter", "model_272/tf.math.add_657/Add/y"], "device": "/device:CPU:0", "attr": {"explicit_paddings": {"list": {}}, "data_format": {"s": "TkhXQw=="}, "fused_ops": {"list": {"s": ["Qmlhc0FkZA=="]}}, "dilations": {"list": {"i": ["1", "1", "1", "1"]}}, "padding": {"s": "U0FNRQ=="}, "epsilon": {"f": 0.0}, "use_cudnn_on_gpu": {"b": true}, "num_args": {"i": "1"}, "num_host_args": {"i": "0"}, "leakyrelu_alpha": {"f": 0.2}, "strides": {"list": {"i": ["1", "1", "1", "1"]}}, "T": {"type": "DT_FLOAT"}, "filter_format": {"s": "SFdJTw=="}, "TArgs": {"list": {"type": ["DT_FLOAT"]}}}}, {"name": "model_272/tf.math.sigmoid_395/Sigmoid", "op": "Sigmoid", "input": ["model_272/tf.math.add_657/Add"], "attr": {"T": {"type": "DT_FLOAT"}}}, {"name": "model_272/tf.math.multiply_1777/Mul", "op": "Mul", "input": ["model_272/tf.math.add_657/Add", "model_272/tf.math.sigmoid_395/Sigmoid"], "attr": {"T": {"type": "DT_FLOAT"}}}, {"name": "model_272/tf.math.add_659/Add", "op": "AddV2", "input": ["model_272/tf.math.add_651/Add", "model_272/tf.math.multiply_1777/Mul"], "attr": {"T": {"type": "DT_FLOAT"}}}, {"name": "model_272/tf.math.add_662/Add", "op": "_FusedConv2D", "input": ["model_272/tf.math.add_659/Add", "model_272/tf.nn.convolution_470/convolution/filter", "model_272/tf.math.add_662/Add/y"], "device": "/device:CPU:0", "attr": {"filter_format": {"s": "SFdJTw=="}, "use_cudnn_on_gpu": {"b": true}, "num_host_args": {"i": "0"}, "TArgs": {"list": {"type": ["DT_FLOAT"]}}, "padding": {"s": "U0FNRQ=="}, "epsilon": {"f": 0.0}, "num_args": {"i": "1"}, "T": {"type": "DT_FLOAT"}, "leakyrelu_alpha": {"f": 0.2}, "explicit_paddings": {"list": {}}, "dilations": {"list": {"i": ["1", "1", "1", "1"]}}, "strides": {"list": {"i": ["1", "1", "1", "1"]}}, "data_format": {"s": "TkhXQw=="}, "fused_ops": {"list": {"s": ["Qmlhc0FkZA=="]}}}}, {"name": "model_272/tf.math.sigmoid_396/Sigmoid", "op": "Sigmoid", "input": ["model_272/tf.math.add_662/Add"], "attr": {"T": {"type": "DT_FLOAT"}}}, {"name": "model_272/tf.math.multiply_1783/Mul", "op": "Mul", "input": ["model_272/tf.math.add_662/Add", "model_272/tf.math.sigmoid_396/Sigmoid"], "attr": {"T": {"type": "DT_FLOAT"}}}, {"name": "model_272/tf.math.add_665/Add", "op": "_FusedConv2D", "input": ["model_272/tf.math.multiply_1783/Mul", "model_272/tf.nn.convolution_473/convolution/filter", "model_272/tf.math.add_665/Add/y"], "device": "/device:CPU:0", "attr": {"use_cudnn_on_gpu": {"b": true}, "leakyrelu_alpha": {"f": 0.2}, "num_host_args": {"i": "0"}, "num_args": {"i": "1"}, "filter_format": {"s": "SFdJTw=="}, "data_format": {"s": "TkhXQw=="}, "padding": {"s": "U0FNRQ=="}, "explicit_paddings": {"list": {}}, "epsilon": {"f": 0.0}, "dilations": {"list": {"i": ["1", "1", "1", "1"]}}, "strides": {"list": {"i": ["1", "1", "1", "1"]}}, "TArgs": {"list": {"type": ["DT_FLOAT"]}}, "fused_ops": {"list": {"s": ["Qmlhc0FkZA=="]}}, "T": {"type": "DT_FLOAT"}}}, {"name": "model_272/tf.math.sigmoid_397/Sigmoid", "op": "Sigmoid", "input": ["model_272/tf.math.add_665/Add"], "attr": {"T": {"type": "DT_FLOAT"}}}, {"name": "model_272/tf.math.multiply_1787/Mul", "op": "Mul", "input": ["model_272/tf.math.add_665/Add", "model_272/tf.math.sigmoid_397/Sigmoid"], "attr": {"T": {"type": "DT_FLOAT"}}}, {"name": "model_272/tf.math.add_667/Add", "op": "AddV2", "input": ["model_272/tf.math.add_659/Add", "model_272/tf.math.multiply_1787/Mul"], "attr": {"T": {"type": "DT_FLOAT"}}}, {"name": "model_272/tf.concat_86/concat", "op": "ConcatV2", "input": ["model_272/tf.math.add_667/Add", "model_272/tf.math.multiply_1759/Mul", "model_272/tf.concat_86/concat/axis"], "attr": {"T": {"type": "DT_FLOAT"}, "Tidx": {"type": "DT_INT32"}, "N": {"i": "2"}}}, {"name": "model_272/tf.math.add_668/Add", "op": "_FusedConv2D", "input": ["model_272/tf.concat_86/concat", "model_272/tf.nn.convolution_474/convolution/filter", "model_272/tf.math.add_668/Add/y"], "device": "/device:CPU:0", "attr": {"leakyrelu_alpha": {"f": 0.2}, "num_args": {"i": "1"}, "strides": {"list": {"i": ["1", "1", "1", "1"]}}, "TArgs": {"list": {"type": ["DT_FLOAT"]}}, "dilations": {"list": {"i": ["1", "1", "1", "1"]}}, "fused_ops": {"list": {"s": ["Qmlhc0FkZA=="]}}, "T": {"type": "DT_FLOAT"}, "padding": {"s": "U0FNRQ=="}, "explicit_paddings": {"list": {}}, "epsilon": {"f": 0.0}, "filter_format": {"s": "SFdJTw=="}, "data_format": {"s": "TkhXQw=="}, "num_host_args": {"i": "0"}, "use_cudnn_on_gpu": {"b": true}}}, {"name": "model_272/tf.math.sigmoid_398/Sigmoid", "op": "Sigmoid", "input": ["model_272/tf.math.add_668/Add"], "attr": {"T": {"type": "DT_FLOAT"}}}, {"name": "model_272/tf.math.multiply_1793/Mul", "op": "Mul", "input": ["model_272/tf.math.add_668/Add", "model_272/tf.math.sigmoid_398/Sigmoid"], "attr": {"T": {"type": "DT_FLOAT"}}}, {"name": "model_272/tf.math.add_669/Add", "op": "_FusedConv2D", "input": ["model_272/tf.math.multiply_1793/Mul", "model_272/tf.nn.convolution_475/convolution/filter", "model_272/tf.math.add_669/Add/y"], "device": "/device:CPU:0", "attr": {"fused_ops": {"list": {"s": ["Qmlhc0FkZA=="]}}, "filter_format": {"s": "SFdJTw=="}, "strides": {"list": {"i": ["1", "1", "1", "1"]}}, "padding": {"s": "U0FNRQ=="}, "T": {"type": "DT_FLOAT"}, "leakyrelu_alpha": {"f": 0.2}, "data_format": {"s": "TkhXQw=="}, "explicit_paddings": {"list": {}}, "epsilon": {"f": 0.0}, "TArgs": {"list": {"type": ["DT_FLOAT"]}}, "use_cudnn_on_gpu": {"b": true}, "num_args": {"i": "1"}, "dilations": {"list": {"i": ["1", "1", "1", "1"]}}, "num_host_args": {"i": "0"}}}, {"name": "model_272/tf.math.sigmoid_399/Sigmoid", "op": "Sigmoid", "input": ["model_272/tf.math.add_669/Add"], "attr": {"T": {"type": "DT_FLOAT"}}}, {"name": "model_272/tf.math.multiply_1797/Mul", "op": "Mul", "input": ["model_272/tf.math.add_669/Add", "model_272/tf.math.sigmoid_399/Sigmoid"], "attr": {"T": {"type": "DT_FLOAT"}}}, {"name": "model_272/tf.concat_87/concat", "op": "ConcatV2", "input": ["model_272/tf.strided_slice_42/StridedSlice", "model_272/tf.strided_slice_43/StridedSlice", "model_272/tf.math.multiply_1751/Mul", "model_272/tf.math.multiply_1797/Mul", "model_272/tf.concat_87/concat/axis"], "attr": {"T": {"type": "DT_FLOAT"}, "N": {"i": "4"}, "Tidx": {"type": "DT_INT32"}}}, {"name": "model_272/tf.math.add_670/Add", "op": "_FusedConv2D", "input": ["model_272/tf.concat_87/concat", "model_272/tf.nn.convolution_476/convolution/filter", "model_272/tf.math.add_670/Add/y"], "device": "/device:CPU:0", "attr": {"fused_ops": {"list": {"s": ["Qmlhc0FkZA=="]}}, "dilations": {"list": {"i": ["1", "1", "1", "1"]}}, "num_args": {"i": "1"}, "data_format": {"s": "TkhXQw=="}, "use_cudnn_on_gpu": {"b": true}, "filter_format": {"s": "SFdJTw=="}, "strides": {"list": {"i": ["1", "1", "1", "1"]}}, "leakyrelu_alpha": {"f": 0.2}, "padding": {"s": "U0FNRQ=="}, "TArgs": {"list": {"type": ["DT_FLOAT"]}}, "epsilon": {"f": 0.0}, "explicit_paddings": {"list": {}}, "T": {"type": "DT_FLOAT"}, "num_host_args": {"i": "0"}}}, {"name": "model_272/tf.math.sigmoid_400/Sigmoid", "op": "Sigmoid", "input": ["model_272/tf.math.add_670/Add"], "attr": {"T": {"type": "DT_FLOAT"}}}, {"name": "model_272/tf.math.multiply_1801/Mul", "op": "Mul", "input": ["model_272/tf.math.add_670/Add", "model_272/tf.math.sigmoid_400/Sigmoid"], "attr": {"T": {"type": "DT_FLOAT"}}}, {"name": "model_272/tf.compat.v1.nn.avg_pool_11/AvgPool", "op": "AvgPool", "input": ["model_272/tf.math.multiply_1801/Mul"], "attr": {"ksize": {"list": {"i": ["1", "2", "2", "1"]}}, "data_format": {"s": "TkhXQw=="}, "T": {"type": "DT_FLOAT"}, "strides": {"list": {"i": ["1", "1", "1", "1"]}}, "padding": {"s": "VkFMSUQ="}}}, {"name": "model_272/tf.compat.v1.pad_17/Pad", "op": "Pad", "input": ["model_272/tf.compat.v1.nn.avg_pool_11/AvgPool", "model_272/tf.compat.v1.pad_17/Pad/paddings"], "attr": {"T": {"type": "DT_FLOAT"}, "Tpaddings": {"type": "DT_INT32"}}}, {"name": "model_272/tf.math.add_671/Add", "op": "_FusedConv2D", "input": ["model_272/tf.compat.v1.pad_17/Pad", "model_272/tf.nn.convolution_477/convolution/filter", "model_272/tf.math.add_671/Add/y"], "device": "/device:CPU:0", "attr": {"leakyrelu_alpha": {"f": 0.2}, "num_host_args": {"i": "0"}, "TArgs": {"list": {"type": ["DT_FLOAT"]}}, "strides": {"list": {"i": ["1", "2", "2", "1"]}}, "T": {"type": "DT_FLOAT"}, "padding": {"s": "VkFMSUQ="}, "filter_format": {"s": "SFdJTw=="}, "dilations": {"list": {"i": ["1", "1", "1", "1"]}}, "data_format": {"s": "TkhXQw=="}, "explicit_paddings": {"list": {}}, "fused_ops": {"list": {"s": ["Qmlhc0FkZA=="]}}, "num_args": {"i": "1"}, "use_cudnn_on_gpu": {"b": true}, "epsilon": {"f": 0.0}}}, {"name": "model_272/tf.math.sigmoid_401/Sigmoid", "op": "Sigmoid", "input": ["model_272/tf.math.add_671/Add"], "attr": {"T": {"type": "DT_FLOAT"}}}, {"name": "model_272/tf.math.multiply_1805/Mul", "op": "Mul", "input": ["model_272/tf.math.add_671/Add", "model_272/tf.math.sigmoid_401/Sigmoid"], "attr": {"T": {"type": "DT_FLOAT"}}}, {"name": "model_272/tf.math.add_672/Add", "op": "_FusedConv2D", "input": ["model_272/tf.math.multiply_1805/Mul", "model_272/tf.nn.convolution_478/convolution/filter", "model_272/tf.math.add_672/Add/y"], "device": "/device:CPU:0", "attr": {"leakyrelu_alpha": {"f": 0.2}, "num_args": {"i": "1"}, "TArgs": {"list": {"type": ["DT_FLOAT"]}}, "epsilon": {"f": 0.0}, "filter_format": {"s": "SFdJTw=="}, "padding": {"s": "U0FNRQ=="}, "explicit_paddings": {"list": {}}, "fused_ops": {"list": {"s": ["Qmlhc0FkZA=="]}}, "strides": {"list": {"i": ["1", "1", "1", "1"]}}, "num_host_args": {"i": "0"}, "data_format": {"s": "TkhXQw=="}, "dilations": {"list": {"i": ["1", "1", "1", "1"]}}, "use_cudnn_on_gpu": {"b": true}, "T": {"type": "DT_FLOAT"}}}, {"name": "model_272/tf.math.sigmoid_402/Sigmoid", "op": "Sigmoid", "input": ["model_272/tf.math.add_672/Add"], "attr": {"T": {"type": "DT_FLOAT"}}}, {"name": "model_272/tf.math.multiply_1809/Mul", "op": "Mul", "input": ["model_272/tf.math.add_672/Add", "model_272/tf.math.sigmoid_402/Sigmoid"], "attr": {"T": {"type": "DT_FLOAT"}}}, {"name": "model_272/tf.strided_slice_44/StridedSlice", "op": "StridedSlice", "input": ["model_272/tf.math.multiply_1809/Mul", "model_272/tf.strided_slice_44/ones_like/tensor", "model_272/tf.strided_slice_44/StridedSlice/end", "model_272/tf.strided_slice_44/ones_like"], "attr": {"ellipsis_mask": {"i": "0"}, "end_mask": {"i": "7"}, "shrink_axis_mask": {"i": "0"}, "begin_mask": {"i": "15"}, "new_axis_mask": {"i": "0"}, "Index": {"type": "DT_INT64"}, "T": {"type": "DT_FLOAT"}}}, {"name": "model_272/tf.strided_slice_45/StridedSlice", "op": "StridedSlice", "input": ["model_272/tf.math.multiply_1809/Mul", "model_272/tf.strided_slice_45/ones_like/tensor", "model_272/tf.strided_slice_45/StridedSlice/end", "model_272/tf.strided_slice_45/ones_like"], "attr": {"begin_mask": {"i": "7"}, "ellipsis_mask": {"i": "0"}, "end_mask": {"i": "7"}, "new_axis_mask": {"i": "0"}, "T": {"type": "DT_FLOAT"}, "shrink_axis_mask": {"i": "0"}, "Index": {"type": "DT_INT64"}}}, {"name": "model_272/tf.math.add_673/Add", "op": "_FusedConv2D", "input": ["model_272/tf.strided_slice_45/StridedSlice", "model_272/tf.nn.convolution_479/convolution/filter", "model_272/tf.math.add_673/Add/y"], "device": "/device:CPU:0", "attr": {"use_cudnn_on_gpu": {"b": true}, "padding": {"s": "U0FNRQ=="}, "filter_format": {"s": "SFdJTw=="}, "dilations": {"list": {"i": ["1", "1", "1", "1"]}}, "explicit_paddings": {"list": {}}, "T": {"type": "DT_FLOAT"}, "leakyrelu_alpha": {"f": 0.2}, "strides": {"list": {"i": ["1", "1", "1", "1"]}}, "data_format": {"s": "TkhXQw=="}, "num_args": {"i": "1"}, "fused_ops": {"list": {"s": ["Qmlhc0FkZA=="]}}, "TArgs": {"list": {"type": ["DT_FLOAT"]}}, "epsilon": {"f": 0.0}, "num_host_args": {"i": "0"}}}, {"name": "model_272/tf.math.add_674/Add", "op": "_FusedConv2D", "input": ["model_272/tf.strided_slice_45/StridedSlice", "model_272/tf.nn.convolution_480/convolution/filter", "model_272/tf.math.add_674/Add/y"], "device": "/device:CPU:0", "attr": {"T": {"type": "DT_FLOAT"}, "fused_ops": {"list": {"s": ["Qmlhc0FkZA=="]}}, "dilations": {"list": {"i": ["1", "1", "1", "1"]}}, "num_args": {"i": "1"}, "explicit_paddings": {"list": {}}, "TArgs": {"list": {"type": ["DT_FLOAT"]}}, "data_format": {"s": "TkhXQw=="}, "num_host_args": {"i": "0"}, "leakyrelu_alpha": {"f": 0.2}, "filter_format": {"s": "SFdJTw=="}, "epsilon": {"f": 0.0}, "use_cudnn_on_gpu": {"b": true}, "padding": {"s": "U0FNRQ=="}, "strides": {"list": {"i": ["1", "1", "1", "1"]}}}}, {"name": "model_272/tf.math.sigmoid_403/Sigmoid", "op": "Sigmoid", "input": ["model_272/tf.math.add_673/Add"], "attr": {"T": {"type": "DT_FLOAT"}}}, {"name": "model_272/tf.math.sigmoid_404/Sigmoid", "op": "Sigmoid", "input": ["model_272/tf.math.add_674/Add"], "attr": {"T": {"type": "DT_FLOAT"}}}, {"name": "model_272/tf.math.multiply_1813/Mul", "op": "Mul", "input": ["model_272/tf.math.add_673/Add", "model_272/tf.math.sigmoid_403/Sigmoid"], "attr": {"T": {"type": "DT_FLOAT"}}}, {"name": "model_272/tf.math.multiply_1817/Mul", "op": "Mul", "input": ["model_272/tf.math.add_674/Add", "model_272/tf.math.sigmoid_404/Sigmoid"], "attr": {"T": {"type": "DT_FLOAT"}}}, {"name": "model_272/tf.math.add_675/Add", "op": "_FusedConv2D", "input": ["model_272/tf.math.multiply_1813/Mul", "model_272/tf.nn.convolution_481/convolution/filter", "model_272/tf.math.add_675/Add/y"], "device": "/device:CPU:0", "attr": {"num_args": {"i": "1"}, "num_host_args": {"i": "0"}, "strides": {"list": {"i": ["1", "1", "1", "1"]}}, "filter_format": {"s": "SFdJTw=="}, "leakyrelu_alpha": {"f": 0.2}, "TArgs": {"list": {"type": ["DT_FLOAT"]}}, "data_format": {"s": "TkhXQw=="}, "explicit_paddings": {"list": {}}, "T": {"type": "DT_FLOAT"}, "fused_ops": {"list": {"s": ["Qmlhc0FkZA=="]}}, "epsilon": {"f": 0.0}, "padding": {"s": "U0FNRQ=="}, "dilations": {"list": {"i": ["1", "1", "1", "1"]}}, "use_cudnn_on_gpu": {"b": true}}}, {"name": "model_272/tf.math.sigmoid_405/Sigmoid", "op": "Sigmoid", "input": ["model_272/tf.math.add_675/Add"], "attr": {"T": {"type": "DT_FLOAT"}}}, {"name": "model_272/tf.math.multiply_1821/Mul", "op": "Mul", "input": ["model_272/tf.math.add_675/Add", "model_272/tf.math.sigmoid_405/Sigmoid"], "attr": {"T": {"type": "DT_FLOAT"}}}, {"name": "model_272/tf.math.add_676/Add", "op": "_FusedConv2D", "input": ["model_272/tf.math.multiply_1821/Mul", "model_272/tf.nn.convolution_482/convolution/filter", "model_272/tf.math.add_676/Add/y"], "device": "/device:CPU:0", "attr": {"data_format": {"s": "TkhXQw=="}, "leakyrelu_alpha": {"f": 0.2}, "use_cudnn_on_gpu": {"b": true}, "explicit_paddings": {"list": {}}, "num_args": {"i": "1"}, "dilations": {"list": {"i": ["1", "1", "1", "1"]}}, "epsilon": {"f": 0.0}, "num_host_args": {"i": "0"}, "T": {"type": "DT_FLOAT"}, "filter_format": {"s": "SFdJTw=="}, "TArgs": {"list": {"type": ["DT_FLOAT"]}}, "padding": {"s": "U0FNRQ=="}, "fused_ops": {"list": {"s": ["Qmlhc0FkZA=="]}}, "strides": {"list": {"i": ["1", "1", "1", "1"]}}}}, {"name": "model_272/tf.math.sigmoid_406/Sigmoid", "op": "Sigmoid", "input": ["model_272/tf.math.add_676/Add"], "attr": {"T": {"type": "DT_FLOAT"}}}, {"name": "model_272/tf.math.multiply_1825/Mul", "op": "Mul", "input": ["model_272/tf.math.add_676/Add", "model_272/tf.math.sigmoid_406/Sigmoid"], "attr": {"T": {"type": "DT_FLOAT"}}}, {"name": "model_272/tf.math.add_678/Add", "op": "AddV2", "input": ["model_272/tf.math.multiply_1813/Mul", "model_272/tf.math.multiply_1825/Mul"], "attr": {"T": {"type": "DT_FLOAT"}}}, {"name": "model_272/tf.math.add_679/Add", "op": "_FusedConv2D", "input": ["model_272/tf.math.add_678/Add", "model_272/tf.nn.convolution_483/convolution/filter", "model_272/tf.math.add_679/Add/y"], "device": "/device:CPU:0", "attr": {"use_cudnn_on_gpu": {"b": true}, "epsilon": {"f": 0.0}, "padding": {"s": "U0FNRQ=="}, "fused_ops": {"list": {"s": ["Qmlhc0FkZA=="]}}, "strides": {"list": {"i": ["1", "1", "1", "1"]}}, "data_format": {"s": "TkhXQw=="}, "num_host_args": {"i": "0"}, "TArgs": {"list": {"type": ["DT_FLOAT"]}}, "explicit_paddings": {"list": {}}, "filter_format": {"s": "SFdJTw=="}, "leakyrelu_alpha": {"f": 0.2}, "num_args": {"i": "1"}, "T": {"type": "DT_FLOAT"}, "dilations": {"list": {"i": ["1", "1", "1", "1"]}}}}, {"name": "model_272/tf.math.sigmoid_407/Sigmoid", "op": "Sigmoid", "input": ["model_272/tf.math.add_679/Add"], "attr": {"T": {"type": "DT_FLOAT"}}}, {"name": "model_272/tf.math.multiply_1831/Mul", "op": "Mul", "input": ["model_272/tf.math.add_679/Add", "model_272/tf.math.sigmoid_407/Sigmoid"], "attr": {"T": {"type": "DT_FLOAT"}}}, {"name": "model_272/tf.math.add_680/Add", "op": "_FusedConv2D", "input": ["model_272/tf.math.multiply_1831/Mul", "model_272/tf.nn.convolution_484/convolution/filter", "model_272/tf.math.add_680/Add/y"], "device": "/device:CPU:0", "attr": {"TArgs": {"list": {"type": ["DT_FLOAT"]}}, "padding": {"s": "U0FNRQ=="}, "filter_format": {"s": "SFdJTw=="}, "use_cudnn_on_gpu": {"b": true}, "T": {"type": "DT_FLOAT"}, "num_host_args": {"i": "0"}, "dilations": {"list": {"i": ["1", "1", "1", "1"]}}, "explicit_paddings": {"list": {}}, "epsilon": {"f": 0.0}, "leakyrelu_alpha": {"f": 0.2}, "num_args": {"i": "1"}, "data_format": {"s": "TkhXQw=="}, "fused_ops": {"list": {"s": ["Qmlhc0FkZA=="]}}, "strides": {"list": {"i": ["1", "1", "1", "1"]}}}}, {"name": "model_272/tf.math.sigmoid_408/Sigmoid", "op": "Sigmoid", "input": ["model_272/tf.math.add_680/Add"], "attr": {"T": {"type": "DT_FLOAT"}}}, {"name": "model_272/tf.math.multiply_1835/Mul", "op": "Mul", "input": ["model_272/tf.math.add_680/Add", "model_272/tf.math.sigmoid_408/Sigmoid"], "attr": {"T": {"type": "DT_FLOAT"}}}, {"name": "model_272/tf.math.add_682/Add", "op": "AddV2", "input": ["model_272/tf.math.add_678/Add", "model_272/tf.math.multiply_1835/Mul"], "attr": {"T": {"type": "DT_FLOAT"}}}, {"name": "model_272/tf.math.add_683/Add", "op": "_FusedConv2D", "input": ["model_272/tf.math.add_682/Add", "model_272/tf.nn.convolution_485/convolution/filter", "model_272/tf.math.add_683/Add/y"], "device": "/device:CPU:0", "attr": {"T": {"type": "DT_FLOAT"}, "num_args": {"i": "1"}, "fused_ops": {"list": {"s": ["Qmlhc0FkZA=="]}}, "leakyrelu_alpha": {"f": 0.2}, "filter_format": {"s": "SFdJTw=="}, "TArgs": {"list": {"type": ["DT_FLOAT"]}}, "use_cudnn_on_gpu": {"b": true}, "padding": {"s": "U0FNRQ=="}, "num_host_args": {"i": "0"}, "explicit_paddings": {"list": {}}, "dilations": {"list": {"i": ["1", "1", "1", "1"]}}, "data_format": {"s": "TkhXQw=="}, "epsilon": {"f": 0.0}, "strides": {"list": {"i": ["1", "1", "1", "1"]}}}}, {"name": "model_272/tf.math.sigmoid_409/Sigmoid", "op": "Sigmoid", "input": ["model_272/tf.math.add_683/Add"], "attr": {"T": {"type": "DT_FLOAT"}}}, {"name": "model_272/tf.math.multiply_1841/Mul", "op": "Mul", "input": ["model_272/tf.math.add_683/Add", "model_272/tf.math.sigmoid_409/Sigmoid"], "attr": {"T": {"type": "DT_FLOAT"}}}, {"name": "model_272/tf.math.add_684/Add", "op": "_FusedConv2D", "input": ["model_272/tf.math.multiply_1841/Mul", "model_272/tf.nn.convolution_486/convolution/filter", "model_272/tf.math.add_684/Add/y"], "device": "/device:CPU:0", "attr": {"epsilon": {"f": 0.0}, "T": {"type": "DT_FLOAT"}, "fused_ops": {"list": {"s": ["Qmlhc0FkZA=="]}}, "TArgs": {"list": {"type": ["DT_FLOAT"]}}, "strides": {"list": {"i": ["1", "1", "1", "1"]}}, "num_host_args": {"i": "0"}, "filter_format": {"s": "SFdJTw=="}, "data_format": {"s": "TkhXQw=="}, "dilations": {"list": {"i": ["1", "1", "1", "1"]}}, "padding": {"s": "U0FNRQ=="}, "explicit_paddings": {"list": {}}, "use_cudnn_on_gpu": {"b": true}, "leakyrelu_alpha": {"f": 0.2}, "num_args": {"i": "1"}}}, {"name": "model_272/tf.math.sigmoid_410/Sigmoid", "op": "Sigmoid", "input": ["model_272/tf.math.add_684/Add"], "attr": {"T": {"type": "DT_FLOAT"}}}, {"name": "model_272/tf.math.multiply_1845/Mul", "op": "Mul", "input": ["model_272/tf.math.add_684/Add", "model_272/tf.math.sigmoid_410/Sigmoid"], "attr": {"T": {"type": "DT_FLOAT"}}}, {"name": "model_272/tf.math.add_686/Add", "op": "AddV2", "input": ["model_272/tf.math.add_682/Add", "model_272/tf.math.multiply_1845/Mul"], "attr": {"T": {"type": "DT_FLOAT"}}}, {"name": "model_272/tf.concat_88/concat", "op": "ConcatV2", "input": ["model_272/tf.math.add_686/Add", "model_272/tf.math.multiply_1817/Mul", "model_272/tf.concat_88/concat/axis"], "attr": {"Tidx": {"type": "DT_INT32"}, "N": {"i": "2"}, "T": {"type": "DT_FLOAT"}}}, {"name": "model_272/tf.math.add_687/Add", "op": "_FusedConv2D", "input": ["model_272/tf.concat_88/concat", "model_272/tf.nn.convolution_487/convolution/filter", "model_272/tf.math.add_687/Add/y"], "device": "/device:CPU:0", "attr": {"num_args": {"i": "1"}, "dilations": {"list": {"i": ["1", "1", "1", "1"]}}, "padding": {"s": "U0FNRQ=="}, "data_format": {"s": "TkhXQw=="}, "strides": {"list": {"i": ["1", "1", "1", "1"]}}, "filter_format": {"s": "SFdJTw=="}, "explicit_paddings": {"list": {}}, "T": {"type": "DT_FLOAT"}, "TArgs": {"list": {"type": ["DT_FLOAT"]}}, "epsilon": {"f": 0.0}, "leakyrelu_alpha": {"f": 0.2}, "use_cudnn_on_gpu": {"b": true}, "fused_ops": {"list": {"s": ["Qmlhc0FkZA=="]}}, "num_host_args": {"i": "0"}}}, {"name": "model_272/tf.math.sigmoid_411/Sigmoid", "op": "Sigmoid", "input": ["model_272/tf.math.add_687/Add"], "attr": {"T": {"type": "DT_FLOAT"}}}, {"name": "model_272/tf.math.multiply_1851/Mul", "op": "Mul", "input": ["model_272/tf.math.add_687/Add", "model_272/tf.math.sigmoid_411/Sigmoid"], "attr": {"T": {"type": "DT_FLOAT"}}}, {"name": "model_272/tf.math.add_688/Add", "op": "_FusedConv2D", "input": ["model_272/tf.math.multiply_1851/Mul", "model_272/tf.nn.convolution_488/convolution/filter", "model_272/tf.math.add_688/Add/y"], "device": "/device:CPU:0", "attr": {"padding": {"s": "U0FNRQ=="}, "use_cudnn_on_gpu": {"b": true}, "TArgs": {"list": {"type": ["DT_FLOAT"]}}, "strides": {"list": {"i": ["1", "1", "1", "1"]}}, "fused_ops": {"list": {"s": ["Qmlhc0FkZA=="]}}, "explicit_paddings": {"list": {}}, "num_host_args": {"i": "0"}, "filter_format": {"s": "SFdJTw=="}, "num_args": {"i": "1"}, "epsilon": {"f": 0.0}, "dilations": {"list": {"i": ["1", "1", "1", "1"]}}, "leakyrelu_alpha": {"f": 0.2}, "T": {"type": "DT_FLOAT"}, "data_format": {"s": "TkhXQw=="}}}, {"name": "model_272/tf.math.sigmoid_412/Sigmoid", "op": "Sigmoid", "input": ["model_272/tf.math.add_688/Add"], "attr": {"T": {"type": "DT_FLOAT"}}}, {"name": "model_272/tf.math.multiply_1855/Mul", "op": "Mul", "input": ["model_272/tf.math.add_688/Add", "model_272/tf.math.sigmoid_412/Sigmoid"], "attr": {"T": {"type": "DT_FLOAT"}}}, {"name": "model_272/tf.math.add_689/Add", "op": "_FusedConv2D", "input": ["model_272/tf.math.multiply_1855/Mul", "model_272/tf.nn.convolution_489/convolution/filter", "model_272/tf.math.add_689/Add/y"], "device": "/device:CPU:0", "attr": {"padding": {"s": "U0FNRQ=="}, "explicit_paddings": {"list": {}}, "fused_ops": {"list": {"s": ["Qmlhc0FkZA=="]}}, "T": {"type": "DT_FLOAT"}, "filter_format": {"s": "SFdJTw=="}, "strides": {"list": {"i": ["1", "1", "1", "1"]}}, "TArgs": {"list": {"type": ["DT_FLOAT"]}}, "num_args": {"i": "1"}, "use_cudnn_on_gpu": {"b": true}, "leakyrelu_alpha": {"f": 0.2}, "data_format": {"s": "TkhXQw=="}, "num_host_args": {"i": "0"}, "dilations": {"list": {"i": ["1", "1", "1", "1"]}}, "epsilon": {"f": 0.0}}}, {"name": "model_272/tf.math.add_690/Add", "op": "_FusedConv2D", "input": ["model_272/tf.math.multiply_1855/Mul", "model_272/tf.nn.convolution_490/convolution/filter", "model_272/tf.math.add_690/Add/y"], "device": "/device:CPU:0", "attr": {"num_host_args": {"i": "0"}, "use_cudnn_on_gpu": {"b": true}, "dilations": {"list": {"i": ["1", "1", "1", "1"]}}, "TArgs": {"list": {"type": ["DT_FLOAT"]}}, "data_format": {"s": "TkhXQw=="}, "leakyrelu_alpha": {"f": 0.2}, "filter_format": {"s": "SFdJTw=="}, "fused_ops": {"list": {"s": ["Qmlhc0FkZA=="]}}, "epsilon": {"f": 0.0}, "padding": {"s": "U0FNRQ=="}, "explicit_paddings": {"list": {}}, "num_args": {"i": "1"}, "strides": {"list": {"i": ["1", "1", "1", "1"]}}, "T": {"type": "DT_FLOAT"}}}, {"name": "model_272/tf.math.sigmoid_413/Sigmoid", "op": "Sigmoid", "input": ["model_272/tf.math.add_689/Add"], "attr": {"T": {"type": "DT_FLOAT"}}}, {"name": "model_272/tf.math.sigmoid_414/Sigmoid", "op": "Sigmoid", "input": ["model_272/tf.math.add_690/Add"], "attr": {"T": {"type": "DT_FLOAT"}}}, {"name": "model_272/tf.math.multiply_1859/Mul", "op": "Mul", "input": ["model_272/tf.math.add_689/Add", "model_272/tf.math.sigmoid_413/Sigmoid"], "attr": {"T": {"type": "DT_FLOAT"}}}, {"name": "model_272/tf.math.multiply_1863/Mul", "op": "Mul", "input": ["model_272/tf.math.add_690/Add", "model_272/tf.math.sigmoid_414/Sigmoid"], "attr": {"T": {"type": "DT_FLOAT"}}}, {"name": "model_272/tf.math.add_691/Add", "op": "_FusedConv2D", "input": ["model_272/tf.math.multiply_1859/Mul", "model_272/tf.nn.convolution_491/convolution/filter", "model_272/tf.math.add_691/Add/y"], "device": "/device:CPU:0", "attr": {"epsilon": {"f": 0.0}, "num_host_args": {"i": "0"}, "num_args": {"i": "1"}, "TArgs": {"list": {"type": ["DT_FLOAT"]}}, "strides": {"list": {"i": ["1", "1", "1", "1"]}}, "padding": {"s": "U0FNRQ=="}, "fused_ops": {"list": {"s": ["Qmlhc0FkZA=="]}}, "dilations": {"list": {"i": ["1", "1", "1", "1"]}}, "leakyrelu_alpha": {"f": 0.2}, "explicit_paddings": {"list": {}}, "use_cudnn_on_gpu": {"b": true}, "filter_format": {"s": "SFdJTw=="}, "T": {"type": "DT_FLOAT"}, "data_format": {"s": "TkhXQw=="}}}, {"name": "model_272/tf.math.sigmoid_415/Sigmoid", "op": "Sigmoid", "input": ["model_272/tf.math.add_691/Add"], "attr": {"T": {"type": "DT_FLOAT"}}}, {"name": "model_272/tf.math.multiply_1867/Mul", "op": "Mul", "input": ["model_272/tf.math.add_691/Add", "model_272/tf.math.sigmoid_415/Sigmoid"], "attr": {"T": {"type": "DT_FLOAT"}}}, {"name": "model_272/tf.math.add_692/Add", "op": "_FusedConv2D", "input": ["model_272/tf.math.multiply_1867/Mul", "model_272/tf.nn.convolution_492/convolution/filter", "model_272/tf.math.add_692/Add/y"], "device": "/device:CPU:0", "attr": {"fused_ops": {"list": {"s": ["Qmlhc0FkZA=="]}}, "TArgs": {"list": {"type": ["DT_FLOAT"]}}, "padding": {"s": "U0FNRQ=="}, "data_format": {"s": "TkhXQw=="}, "epsilon": {"f": 0.0}, "num_host_args": {"i": "0"}, "use_cudnn_on_gpu": {"b": true}, "strides": {"list": {"i": ["1", "1", "1", "1"]}}, "dilations": {"list": {"i": ["1", "1", "1", "1"]}}, "explicit_paddings": {"list": {}}, "T": {"type": "DT_FLOAT"}, "num_args": {"i": "1"}, "leakyrelu_alpha": {"f": 0.2}, "filter_format": {"s": "SFdJTw=="}}}, {"name": "model_272/tf.math.sigmoid_416/Sigmoid", "op": "Sigmoid", "input": ["model_272/tf.math.add_692/Add"], "attr": {"T": {"type": "DT_FLOAT"}}}, {"name": "model_272/tf.math.multiply_1871/Mul", "op": "Mul", "input": ["model_272/tf.math.add_692/Add", "model_272/tf.math.sigmoid_416/Sigmoid"], "attr": {"T": {"type": "DT_FLOAT"}}}, {"name": "model_272/tf.math.add_694/Add", "op": "AddV2", "input": ["model_272/tf.math.multiply_1859/Mul", "model_272/tf.math.multiply_1871/Mul"], "attr": {"T": {"type": "DT_FLOAT"}}}, {"name": "model_272/tf.math.add_695/Add", "op": "_FusedConv2D", "input": ["model_272/tf.math.add_694/Add", "model_272/tf.nn.convolution_493/convolution/filter", "model_272/tf.math.add_695/Add/y"], "device": "/device:CPU:0", "attr": {"dilations": {"list": {"i": ["1", "1", "1", "1"]}}, "fused_ops": {"list": {"s": ["Qmlhc0FkZA=="]}}, "num_args": {"i": "1"}, "filter_format": {"s": "SFdJTw=="}, "num_host_args": {"i": "0"}, "data_format": {"s": "TkhXQw=="}, "TArgs": {"list": {"type": ["DT_FLOAT"]}}, "epsilon": {"f": 0.0}, "explicit_paddings": {"list": {}}, "T": {"type": "DT_FLOAT"}, "strides": {"list": {"i": ["1", "1", "1", "1"]}}, "padding": {"s": "U0FNRQ=="}, "leakyrelu_alpha": {"f": 0.2}, "use_cudnn_on_gpu": {"b": true}}}, {"name": "model_272/tf.math.sigmoid_417/Sigmoid", "op": "Sigmoid", "input": ["model_272/tf.math.add_695/Add"], "attr": {"T": {"type": "DT_FLOAT"}}}, {"name": "model_272/tf.math.multiply_1877/Mul", "op": "Mul", "input": ["model_272/tf.math.add_695/Add", "model_272/tf.math.sigmoid_417/Sigmoid"], "attr": {"T": {"type": "DT_FLOAT"}}}, {"name": "model_272/tf.math.add_696/Add", "op": "_FusedConv2D", "input": ["model_272/tf.math.multiply_1877/Mul", "model_272/tf.nn.convolution_494/convolution/filter", "model_272/tf.math.add_696/Add/y"], "device": "/device:CPU:0", "attr": {"dilations": {"list": {"i": ["1", "1", "1", "1"]}}, "num_host_args": {"i": "0"}, "TArgs": {"list": {"type": ["DT_FLOAT"]}}, "explicit_paddings": {"list": {}}, "filter_format": {"s": "SFdJTw=="}, "padding": {"s": "U0FNRQ=="}, "use_cudnn_on_gpu": {"b": true}, "data_format": {"s": "TkhXQw=="}, "fused_ops": {"list": {"s": ["Qmlhc0FkZA=="]}}, "T": {"type": "DT_FLOAT"}, "num_args": {"i": "1"}, "strides": {"list": {"i": ["1", "1", "1", "1"]}}, "leakyrelu_alpha": {"f": 0.2}, "epsilon": {"f": 0.0}}}, {"name": "model_272/tf.math.sigmoid_418/Sigmoid", "op": "Sigmoid", "input": ["model_272/tf.math.add_696/Add"], "attr": {"T": {"type": "DT_FLOAT"}}}, {"name": "model_272/tf.math.multiply_1881/Mul", "op": "Mul", "input": ["model_272/tf.math.add_696/Add", "model_272/tf.math.sigmoid_418/Sigmoid"], "attr": {"T": {"type": "DT_FLOAT"}}}, {"name": "model_272/tf.math.add_698/Add", "op": "AddV2", "input": ["model_272/tf.math.add_694/Add", "model_272/tf.math.multiply_1881/Mul"], "attr": {"T": {"type": "DT_FLOAT"}}}, {"name": "model_272/tf.math.add_699/Add", "op": "_FusedConv2D", "input": ["model_272/tf.math.add_698/Add", "model_272/tf.nn.convolution_495/convolution/filter", "model_272/tf.math.add_699/Add/y"], "device": "/device:CPU:0", "attr": {"num_host_args": {"i": "0"}, "data_format": {"s": "TkhXQw=="}, "num_args": {"i": "1"}, "fused_ops": {"list": {"s": ["Qmlhc0FkZA=="]}}, "dilations": {"list": {"i": ["1", "1", "1", "1"]}}, "TArgs": {"list": {"type": ["DT_FLOAT"]}}, "explicit_paddings": {"list": {}}, "use_cudnn_on_gpu": {"b": true}, "padding": {"s": "U0FNRQ=="}, "leakyrelu_alpha": {"f": 0.2}, "strides": {"list": {"i": ["1", "1", "1", "1"]}}, "filter_format": {"s": "SFdJTw=="}, "T": {"type": "DT_FLOAT"}, "epsilon": {"f": 0.0}}}, {"name": "model_272/tf.math.sigmoid_419/Sigmoid", "op": "Sigmoid", "input": ["model_272/tf.math.add_699/Add"], "attr": {"T": {"type": "DT_FLOAT"}}}, {"name": "model_272/tf.math.multiply_1887/Mul", "op": "Mul", "input": ["model_272/tf.math.add_699/Add", "model_272/tf.math.sigmoid_419/Sigmoid"], "attr": {"T": {"type": "DT_FLOAT"}}}, {"name": "model_272/tf.math.add_700/Add", "op": "_FusedConv2D", "input": ["model_272/tf.math.multiply_1887/Mul", "model_272/tf.nn.convolution_496/convolution/filter", "model_272/tf.math.add_700/Add/y"], "device": "/device:CPU:0", "attr": {"strides": {"list": {"i": ["1", "1", "1", "1"]}}, "dilations": {"list": {"i": ["1", "1", "1", "1"]}}, "num_args": {"i": "1"}, "fused_ops": {"list": {"s": ["Qmlhc0FkZA=="]}}, "leakyrelu_alpha": {"f": 0.2}, "padding": {"s": "U0FNRQ=="}, "explicit_paddings": {"list": {}}, "use_cudnn_on_gpu": {"b": true}, "filter_format": {"s": "SFdJTw=="}, "TArgs": {"list": {"type": ["DT_FLOAT"]}}, "num_host_args": {"i": "0"}, "data_format": {"s": "TkhXQw=="}, "T": {"type": "DT_FLOAT"}, "epsilon": {"f": 0.0}}}, {"name": "model_272/tf.math.sigmoid_420/Sigmoid", "op": "Sigmoid", "input": ["model_272/tf.math.add_700/Add"], "attr": {"T": {"type": "DT_FLOAT"}}}, {"name": "model_272/tf.math.multiply_1891/Mul", "op": "Mul", "input": ["model_272/tf.math.add_700/Add", "model_272/tf.math.sigmoid_420/Sigmoid"], "attr": {"T": {"type": "DT_FLOAT"}}}, {"name": "model_272/tf.math.add_702/Add", "op": "AddV2", "input": ["model_272/tf.math.add_698/Add", "model_272/tf.math.multiply_1891/Mul"], "attr": {"T": {"type": "DT_FLOAT"}}}, {"name": "model_272/tf.concat_89/concat", "op": "ConcatV2", "input": ["model_272/tf.math.add_702/Add", "model_272/tf.math.multiply_1863/Mul", "model_272/tf.concat_89/concat/axis"], "attr": {"Tidx": {"type": "DT_INT32"}, "N": {"i": "2"}, "T": {"type": "DT_FLOAT"}}}, {"name": "model_272/tf.math.add_703/Add", "op": "_FusedConv2D", "input": ["model_272/tf.concat_89/concat", "model_272/tf.nn.convolution_497/convolution/filter", "model_272/tf.math.add_703/Add/y"], "device": "/device:CPU:0", "attr": {"padding": {"s": "U0FNRQ=="}, "epsilon": {"f": 0.0}, "dilations": {"list": {"i": ["1", "1", "1", "1"]}}, "use_cudnn_on_gpu": {"b": true}, "filter_format": {"s": "SFdJTw=="}, "num_args": {"i": "1"}, "leakyrelu_alpha": {"f": 0.2}, "T": {"type": "DT_FLOAT"}, "strides": {"list": {"i": ["1", "1", "1", "1"]}}, "fused_ops": {"list": {"s": ["Qmlhc0FkZA=="]}}, "num_host_args": {"i": "0"}, "explicit_paddings": {"list": {}}, "TArgs": {"list": {"type": ["DT_FLOAT"]}}, "data_format": {"s": "TkhXQw=="}}}, {"name": "model_272/tf.math.sigmoid_421/Sigmoid", "op": "Sigmoid", "input": ["model_272/tf.math.add_703/Add"], "attr": {"T": {"type": "DT_FLOAT"}}}, {"name": "model_272/tf.math.multiply_1897/Mul", "op": "Mul", "input": ["model_272/tf.math.add_703/Add", "model_272/tf.math.sigmoid_421/Sigmoid"], "attr": {"T": {"type": "DT_FLOAT"}}}, {"name": "model_272/tf.math.add_704/Add", "op": "_FusedConv2D", "input": ["model_272/tf.math.multiply_1897/Mul", "model_272/tf.nn.convolution_498/convolution/filter", "model_272/tf.math.add_704/Add/y"], "device": "/device:CPU:0", "attr": {"use_cudnn_on_gpu": {"b": true}, "num_host_args": {"i": "0"}, "leakyrelu_alpha": {"f": 0.2}, "padding": {"s": "U0FNRQ=="}, "filter_format": {"s": "SFdJTw=="}, "TArgs": {"list": {"type": ["DT_FLOAT"]}}, "dilations": {"list": {"i": ["1", "1", "1", "1"]}}, "fused_ops": {"list": {"s": ["Qmlhc0FkZA=="]}}, "explicit_paddings": {"list": {}}, "num_args": {"i": "1"}, "strides": {"list": {"i": ["1", "1", "1", "1"]}}, "epsilon": {"f": 0.0}, "T": {"type": "DT_FLOAT"}, "data_format": {"s": "TkhXQw=="}}}, {"name": "model_272/tf.math.sigmoid_422/Sigmoid", "op": "Sigmoid", "input": ["model_272/tf.math.add_704/Add"], "attr": {"T": {"type": "DT_FLOAT"}}}, {"name": "model_272/tf.math.multiply_1901/Mul", "op": "Mul", "input": ["model_272/tf.math.add_704/Add", "model_272/tf.math.sigmoid_422/Sigmoid"], "attr": {"T": {"type": "DT_FLOAT"}}}, {"name": "model_272/tf.concat_90/concat", "op": "ConcatV2", "input": ["model_272/tf.strided_slice_44/StridedSlice", "model_272/tf.strided_slice_45/StridedSlice", "model_272/tf.math.multiply_1855/Mul", "model_272/tf.math.multiply_1901/Mul", "model_272/tf.concat_90/concat/axis"], "attr": {"T": {"type": "DT_FLOAT"}, "N": {"i": "4"}, "Tidx": {"type": "DT_INT32"}}}, {"name": "model_272/tf.math.add_705/Add", "op": "_FusedConv2D", "input": ["model_272/tf.concat_90/concat", "model_272/tf.nn.convolution_499/convolution/filter", "model_272/tf.math.add_705/Add/y"], "device": "/device:CPU:0", "attr": {"filter_format": {"s": "SFdJTw=="}, "T": {"type": "DT_FLOAT"}, "leakyrelu_alpha": {"f": 0.2}, "use_cudnn_on_gpu": {"b": true}, "epsilon": {"f": 0.0}, "padding": {"s": "U0FNRQ=="}, "explicit_paddings": {"list": {}}, "num_args": {"i": "1"}, "strides": {"list": {"i": ["1", "1", "1", "1"]}}, "num_host_args": {"i": "0"}, "TArgs": {"list": {"type": ["DT_FLOAT"]}}, "dilations": {"list": {"i": ["1", "1", "1", "1"]}}, "data_format": {"s": "TkhXQw=="}, "fused_ops": {"list": {"s": ["Qmlhc0FkZA=="]}}}}, {"name": "model_272/tf.math.sigmoid_423/Sigmoid", "op": "Sigmoid", "input": ["model_272/tf.math.add_705/Add"], "attr": {"T": {"type": "DT_FLOAT"}}}, {"name": "model_272/tf.math.multiply_1905/Mul", "op": "Mul", "input": ["model_272/tf.math.add_705/Add", "model_272/tf.math.sigmoid_423/Sigmoid"], "attr": {"T": {"type": "DT_FLOAT"}}}, {"name": "model_272/tf.compat.v1.nn.avg_pool_12/AvgPool", "op": "AvgPool", "input": ["model_272/tf.math.multiply_1905/Mul"], "attr": {"data_format": {"s": "TkhXQw=="}, "padding": {"s": "VkFMSUQ="}, "ksize": {"list": {"i": ["1", "2", "2", "1"]}}, "T": {"type": "DT_FLOAT"}, "strides": {"list": {"i": ["1", "1", "1", "1"]}}}}, {"name": "model_272/tf.compat.v1.pad_18/Pad", "op": "Pad", "input": ["model_272/tf.compat.v1.nn.avg_pool_12/AvgPool", "model_272/tf.compat.v1.pad_18/Pad/paddings"], "attr": {"Tpaddings": {"type": "DT_INT32"}, "T": {"type": "DT_FLOAT"}}}, {"name": "model_272/tf.math.add_706/Add", "op": "_FusedConv2D", "input": ["model_272/tf.compat.v1.pad_18/Pad", "model_272/tf.nn.convolution_500/convolution/filter", "model_272/tf.math.add_706/Add/y"], "device": "/device:CPU:0", "attr": {"T": {"type": "DT_FLOAT"}, "leakyrelu_alpha": {"f": 0.2}, "data_format": {"s": "TkhXQw=="}, "padding": {"s": "VkFMSUQ="}, "epsilon": {"f": 0.0}, "num_host_args": {"i": "0"}, "strides": {"list": {"i": ["1", "2", "2", "1"]}}, "num_args": {"i": "1"}, "dilations": {"list": {"i": ["1", "1", "1", "1"]}}, "explicit_paddings": {"list": {}}, "TArgs": {"list": {"type": ["DT_FLOAT"]}}, "fused_ops": {"list": {"s": ["Qmlhc0FkZA=="]}}, "use_cudnn_on_gpu": {"b": true}, "filter_format": {"s": "SFdJTw=="}}}, {"name": "model_272/tf.math.sigmoid_424/Sigmoid", "op": "Sigmoid", "input": ["model_272/tf.math.add_706/Add"], "attr": {"T": {"type": "DT_FLOAT"}}}, {"name": "model_272/tf.math.multiply_1909/Mul", "op": "Mul", "input": ["model_272/tf.math.add_706/Add", "model_272/tf.math.sigmoid_424/Sigmoid"], "attr": {"T": {"type": "DT_FLOAT"}}}, {"name": "model_272/tf.math.add_707/Add", "op": "_FusedConv2D", "input": ["model_272/tf.math.multiply_1909/Mul", "model_272/tf.nn.convolution_501/convolution/filter", "model_272/tf.math.add_707/Add/y"], "device": "/device:CPU:0", "attr": {"padding": {"s": "U0FNRQ=="}, "explicit_paddings": {"list": {}}, "num_args": {"i": "1"}, "filter_format": {"s": "SFdJTw=="}, "num_host_args": {"i": "0"}, "TArgs": {"list": {"type": ["DT_FLOAT"]}}, "strides": {"list": {"i": ["1", "1", "1", "1"]}}, "leakyrelu_alpha": {"f": 0.2}, "fused_ops": {"list": {"s": ["Qmlhc0FkZA=="]}}, "data_format": {"s": "TkhXQw=="}, "dilations": {"list": {"i": ["1", "1", "1", "1"]}}, "T": {"type": "DT_FLOAT"}, "epsilon": {"f": 0.0}, "use_cudnn_on_gpu": {"b": true}}}, {"name": "model_272/tf.math.sigmoid_425/Sigmoid", "op": "Sigmoid", "input": ["model_272/tf.math.add_707/Add"], "attr": {"T": {"type": "DT_FLOAT"}}}, {"name": "model_272/tf.math.multiply_1913/Mul", "op": "Mul", "input": ["model_272/tf.math.add_707/Add", "model_272/tf.math.sigmoid_425/Sigmoid"], "attr": {"T": {"type": "DT_FLOAT"}}}, {"name": "model_272/tf.strided_slice_46/StridedSlice", "op": "StridedSlice", "input": ["model_272/tf.math.multiply_1913/Mul", "model_272/tf.strided_slice_46/ones_like/tensor", "model_272/tf.strided_slice_46/StridedSli…
"SFdJTw=="}, "fused_ops": {"list": {"s": ["Qmlhc0FkZA=="]}}, "epsilon": {"f": 0.0}, "explicit_paddings": {"list": {}}, "strides": {"list": {"i": ["1", "1", "1", "1"]}}, "dilations": {"list": {"i": ["1", "1", "1", "1"]}}, "use_cudnn_on_gpu": {"b": true}, "TArgs": {"list": {"type": ["DT_FLOAT"]}}, "num_args": {"i": "1"}, "leakyrelu_alpha": {"f": 0.2}, "num_host_args": {"i": "0"}, "padding": {"s": "U0FNRQ=="}, "data_format": {"s": "TkhXQw=="}, "T": {"type": "DT_FLOAT"}}}, {"name": "model_272/tf.compat.v1.nn.depthwise_conv2d_18/depthwise", "op": "FusedDepthwiseConv2dNative", "input": ["model_272/tf.math.multiply_2265/Mul", "model_272/tf.compat.v1.nn.depthwise_conv2d_18/depthwise/filter_in", "model_272/tf.math.add_856/Add/y"], "attr": {"strides": {"list": {"i": ["1", "1", "1", "1"]}}, "num_args": {"i": "1"}, "data_format": {"s": "TkhXQw=="}, "padding": {"s": "U0FNRQ=="}, "explicit_paddings": {"list": {}}, "dilations": {"list": {"i": ["1", "1", "1", "1"]}}, "T": {"type": "DT_FLOAT"}, "fused_ops": {"list": {"s": ["Qmlhc0FkZA=="]}}}}, {"name": "model_272/tf.math.sigmoid_505/Sigmoid", "op": "Sigmoid", "input": ["model_272/tf.math.add_853/Add"], "attr": {"T": {"type": "DT_FLOAT"}}}, {"name": "model_272/tf.math.multiply_2269/Mul", "op": "Mul", "input": ["model_272/tf.math.add_853/Add", "model_272/tf.math.sigmoid_505/Sigmoid"], "attr": {"T": {"type": "DT_FLOAT"}}}, {"name": "model_272/tf.math.sigmoid_506/Sigmoid", "op": "Sigmoid", "input": ["model_272/tf.compat.v1.nn.depthwise_conv2d_18/depthwise"], "attr": {"T": {"type": "DT_FLOAT"}}}, {"name": "model_272/tf.math.add_857/Add", "op": "_FusedConv2D", "input": ["model_272/tf.math.multiply_2269/Mul", "model_272/tf.nn.convolution_608/convolution/filter", "model_272/tf.math.add_857/Add/y"], "device": "/device:CPU:0", "attr": {"TArgs": {"list": {"type": ["DT_FLOAT"]}}, "strides": {"list": {"i": ["1", "1", "1", "1"]}}, "explicit_paddings": {"list": {}}, "num_args": {"i": "1"}, "leakyrelu_alpha": {"f": 0.2}, "padding": {"s": "U0FNRQ=="}, "T": {"type": "DT_FLOAT"}, "fused_ops": {"list": {"s": ["Qmlhc0FkZA=="]}}, "dilations": {"list": {"i": ["1", "1", "1", "1"]}}, "filter_format": {"s": "SFdJTw=="}, "data_format": {"s": "TkhXQw=="}, "num_host_args": {"i": "0"}, "use_cudnn_on_gpu": {"b": true}, "epsilon": {"f": 0.0}}}, {"name": "model_272/tf.math.multiply_2273/Mul", "op": "Mul", "input": ["model_272/tf.compat.v1.nn.depthwise_conv2d_18/depthwise", "model_272/tf.math.sigmoid_506/Sigmoid"], "attr": {"T": {"type": "DT_FLOAT"}}}, {"name": "model_272/tf.math.sigmoid_507/Sigmoid", "op": "Sigmoid", "input": ["model_272/tf.math.add_857/Add"], "attr": {"T": {"type": "DT_FLOAT"}}}, {"name": "model_272/tf.math.add_860/Add", "op": "_FusedConv2D", "input": ["model_272/tf.math.multiply_2273/Mul", "model_272/tf.nn.convolution_611/convolution/filter", "model_272/tf.math.add_860/Add/y"], "device": "/device:CPU:0", "attr": {"explicit_paddings": {"list": {}}, "dilations": {"list": {"i": ["1", "1", "1", "1"]}}, "leakyrelu_alpha": {"f": 0.2}, "padding": {"s": "U0FNRQ=="}, "fused_ops": {"list": {"s": ["Qmlhc0FkZA=="]}}, "num_args": {"i": "1"}, "data_format": {"s": "TkhXQw=="}, "filter_format": {"s": "SFdJTw=="}, "epsilon": {"f": 0.0}, "strides": {"list": {"i": ["1", "1", "1", "1"]}}, "num_host_args": {"i": "0"}, "TArgs": {"list": {"type": ["DT_FLOAT"]}}, "use_cudnn_on_gpu": {"b": true}, "T": {"type": "DT_FLOAT"}}}, {"name": "model_272/tf.math.multiply_2277/Mul", "op": "Mul", "input": ["model_272/tf.math.add_857/Add", "model_272/tf.math.sigmoid_507/Sigmoid"], "attr": {"T": {"type": "DT_FLOAT"}}}, {"name": "model_272/tf.math.sigmoid_508/Sigmoid", "op": "Sigmoid", "input": ["model_272/tf.math.add_860/Add"], "attr": {"T": {"type": "DT_FLOAT"}}}, {"name": "model_272/tf.math.add_861/Add", "op": "_FusedConv2D", "input": ["model_272/tf.math.multiply_2277/Mul", "model_272/tf.nn.convolution_612/convolution/filter", "model_272/tf.math.add_861/Add/y"], "device": "/device:CPU:0", "attr": {"num_args": {"i": "1"}, "explicit_paddings": {"list": {}}, "filter_format": {"s": "SFdJTw=="}, "padding": {"s": "U0FNRQ=="}, "num_host_args": {"i": "0"}, "T": {"type": "DT_FLOAT"}, "strides": {"list": {"i": ["1", "1", "1", "1"]}}, "fused_ops": {"list": {"s": ["Qmlhc0FkZA=="]}}, "leakyrelu_alpha": {"f": 0.2}, "TArgs": {"list": {"type": ["DT_FLOAT"]}}, "epsilon": {"f": 0.0}, "use_cudnn_on_gpu": {"b": true}, "dilations": {"list": {"i": ["1", "1", "1", "1"]}}, "data_format": {"s": "TkhXQw=="}}}, {"name": "model_272/tf.math.multiply_2281/Mul", "op": "Mul", "input": ["model_272/tf.math.add_860/Add", "model_272/tf.math.sigmoid_508/Sigmoid"], "attr": {"T": {"type": "DT_FLOAT"}}}, {"name": "model_272/tf.compat.v1.nn.depthwise_conv2d_21/depthwise", "op": "FusedDepthwiseConv2dNative", "input": ["model_272/tf.math.multiply_2281/Mul", "model_272/tf.compat.v1.nn.depthwise_conv2d_21/depthwise/filter_in", "model_272/tf.math.add_864/Add/y"], "attr": {"fused_ops": {"list": {"s": ["Qmlhc0FkZA=="]}}, "explicit_paddings": {"list": {}}, "data_format": {"s": "TkhXQw=="}, "strides": {"list": {"i": ["1", "1", "1", "1"]}}, "dilations": {"list": {"i": ["1", "1", "1", "1"]}}, "num_args": {"i": "1"}, "T": {"type": "DT_FLOAT"}, "padding": {"s": "U0FNRQ=="}}}, {"name": "model_272/tf.math.sigmoid_509/Sigmoid", "op": "Sigmoid", "input": ["model_272/tf.compat.v1.nn.depthwise_conv2d_21/depthwise"], "attr": {"T": {"type": "DT_FLOAT"}}}, {"name": "model_272/tf.math.multiply_2285/Mul", "op": "Mul", "input": ["model_272/tf.compat.v1.nn.depthwise_conv2d_21/depthwise", "model_272/tf.math.sigmoid_509/Sigmoid"], "attr": {"T": {"type": "DT_FLOAT"}}}, {"name": "model_272/tf.math.add_867/Add", "op": "_FusedConv2D", "input": ["model_272/tf.math.multiply_2285/Mul", "model_272/tf.nn.convolution_615/convolution/filter", "model_272/tf.math.add_867/Add/y"], "device": "/device:CPU:0", "attr": {"leakyrelu_alpha": {"f": 0.2}, "epsilon": {"f": 0.0}, "num_args": {"i": "1"}, "TArgs": {"list": {"type": ["DT_FLOAT"]}}, "filter_format": {"s": "SFdJTw=="}, "use_cudnn_on_gpu": {"b": true}, "num_host_args": {"i": "0"}, "strides": {"list": {"i": ["1", "1", "1", "1"]}}, "data_format": {"s": "TkhXQw=="}, "padding": {"s": "U0FNRQ=="}, "T": {"type": "DT_FLOAT"}, "fused_ops": {"list": {"s": ["Qmlhc0FkZA=="]}}, "explicit_paddings": {"list": {}}, "dilations": {"list": {"i": ["1", "1", "1", "1"]}}}}, {"name": "model_272/tf.math.sigmoid_510/Sigmoid", "op": "Sigmoid", "input": ["model_272/tf.math.add_867/Add"], "attr": {"T": {"type": "DT_FLOAT"}}}, {"name": "model_272/tf.math.multiply_2289/Mul", "op": "Mul", "input": ["model_272/tf.math.add_867/Add", "model_272/tf.math.sigmoid_510/Sigmoid"], "attr": {"T": {"type": "DT_FLOAT"}}}, {"name": "model_272/tf.math.add_870/Add", "op": "_FusedConv2D", "input": ["model_272/tf.math.multiply_2289/Mul", "model_272/tf.nn.convolution_618/convolution/filter", "model_272/tf.math.add_870/Add/y"], "device": "/device:CPU:0", "attr": {"num_args": {"i": "1"}, "filter_format": {"s": "SFdJTw=="}, "dilations": {"list": {"i": ["1", "1", "1", "1"]}}, "T": {"type": "DT_FLOAT"}, "fused_ops": {"list": {"s": ["Qmlhc0FkZA=="]}}, "leakyrelu_alpha": {"f": 0.2}, "data_format": {"s": "TkhXQw=="}, "strides": {"list": {"i": ["1", "1", "1", "1"]}}, "padding": {"s": "U0FNRQ=="}, "epsilon": {"f": 0.0}, "explicit_paddings": {"list": {}}, "use_cudnn_on_gpu": {"b": true}, "num_host_args": {"i": "0"}, "TArgs": {"list": {"type": ["DT_FLOAT"]}}}}, {"name": "model_272/tf.concat_113/concat", "op": "ConcatV2", "input": ["model_272/tf.math.add_861/Add", "model_272/tf.math.add_870/Add", "model_272/tf.concat_113/concat/axis"], "attr": {"N": {"i": "2"}, "T": {"type": "DT_FLOAT"}, "Tidx": {"type": "DT_INT32"}}}, {"name": "model_272/tf.compat.v1.transpose_322/transpose", "op": "Transpose", "input": ["model_272/tf.concat_113/concat", "model_272/tf.compat.v1.transpose_322/transpose/perm"], "attr": {"T": {"type": "DT_FLOAT"}, "Tperm": {"type": "DT_INT32"}}}, {"name": "model_272/tf.reshape_38/Reshape", "op": "Reshape", "input": ["model_272/tf.compat.v1.transpose_322/transpose", "model_272/tf.reshape_38/Reshape/shape"], "attr": {"T": {"type": "DT_FLOAT"}, "Tshape": {"type": "DT_INT32"}}}, {"name": "model_272/tf.concat_114/concat", "op": "ConcatV2", "input": ["model_272/tf.reshape_38/Reshape", "model_272/tf.reshape_35/Reshape", "model_272/tf.reshape_32/Reshape", "model_272/tf.concat_114/concat/axis"], "attr": {"T": {"type": "DT_FLOAT"}, "N": {"i": "3"}, "Tidx": {"type": "DT_INT32"}}}, {"name": "model_272/tf.strided_slice_52/StridedSlice", "op": "StridedSlice", "input": ["model_272/tf.concat_114/concat", "model_272/tf.strided_slice_52/StridedSlice/begin", "model_272/tf.strided_slice_52/StridedSlice/end", "model_272/tf.strided_slice_52/StridedSlice/strides"], "attr": {"new_axis_mask": {"i": "0"}, "Index": {"type": "DT_INT64"}, "shrink_axis_mask": {"i": "0"}, "end_mask": {"i": "5"}, "begin_mask": {"i": "7"}, "T": {"type": "DT_FLOAT"}, "ellipsis_mask": {"i": "0"}}}, {"name": "model_272/tf.strided_slice_53/StridedSlice", "op": "StridedSlice", "input": ["model_272/tf.concat_114/concat", "model_272/tf.strided_slice_53/StridedSlice/begin", "model_272/tf.strided_slice_53/StridedSlice/end", "model_272/tf.strided_slice_53/StridedSlice/strides"], "attr": {"ellipsis_mask": {"i": "0"}, "T": {"type": "DT_FLOAT"}, "new_axis_mask": {"i": "0"}, "end_mask": {"i": "5"}, "Index": {"type": "DT_INT64"}, "shrink_axis_mask": {"i": "0"}, "begin_mask": {"i": "5"}}}, {"name": "model_272/tf.reshape_41/Reshape", "op": "Reshape", "input": ["model_272/tf.strided_slice_52/StridedSlice", "model_272/tf.reshape_41/Reshape/shape"], "attr": {"T": {"type": "DT_FLOAT"}, "Tshape": {"type": "DT_INT32"}}}, {"name": "model_272/tf.math.sigmoid_511/Sigmoid", "op": "Sigmoid", "input": ["model_272/tf.strided_slice_53/StridedSlice"], "attr": {"T": {"type": "DT_FLOAT"}}}, {"name": "model_272/tf.compat.v1.transpose_329/transpose", "op": "Transpose", "input": ["model_272/tf.reshape_41/Reshape", "model_272/tf.compat.v1.transpose_329/transpose/perm"], "attr": {"Tperm": {"type": "DT_INT32"}, "T": {"type": "DT_FLOAT"}}}, {"name": "model_272/tf.compat.v1.transpose_330/transpose", "op": "Transpose", "input": ["model_272/tf.compat.v1.transpose_329/transpose", "model_272/tf.compat.v1.transpose_330/transpose/perm"], "attr": {"T": {"type": "DT_FLOAT"}, "Tperm": {"type": "DT_INT32"}}}, {"name": "model_272/tf.nn.softmax_2//model.17/dfl/Softmax", "op": "Softmax", "input": ["model_272/tf.compat.v1.transpose_330/transpose"], "attr": {"T": {"type": "DT_FLOAT"}}}, {"name": "model_272/tf.nn.convolution_619/convolution", "op": "Conv2D", "input": ["model_272/tf.nn.softmax_2//model.17/dfl/Softmax", "model_272/tf.nn.convolution_619/convolution/filter"], "device": "/device:CPU:0", "attr": {"strides": {"list": {"i": ["1", "1", "1", "1"]}}, "padding": {"s": "U0FNRQ=="}, "T": {"type": "DT_FLOAT"}, "explicit_paddings": {"list": {}}, "dilations": {"list": {"i": ["1", "1", "1", "1"]}}, "data_format": {"s": "TkhXQw=="}, "use_cudnn_on_gpu": {"b": true}}}, {"name": "model_272/tf.compat.v1.transpose_335/transpose", "op": "Transpose", "input": ["model_272/tf.nn.convolution_619/convolution", "model_272/tf.compat.v1.transpose_335/transpose/perm"], "attr": {"T": {"type": "DT_FLOAT"}, "Tperm": {"type": "DT_INT32"}}}, {"name": "model_272/tf.reshape_44/Reshape", "op": "Reshape", "input": ["model_272/tf.compat.v1.transpose_335/transpose", "model_272/tf.reshape_44/Reshape/shape"], "attr": {"T": {"type": "DT_FLOAT"}, "Tshape": {"type": "DT_INT32"}}}, {"name": "model_272/tf.strided_slice_55/StridedSlice", "op": "StridedSlice", "input": ["model_272/tf.reshape_44/Reshape", "model_272/tf.strided_slice_55/ones_like/tensor", "model_272/tf.strided_slice_55/StridedSlice/end", "model_272/tf.strided_slice_55/ones_like"], "attr": {"T": {"type": "DT_FLOAT"}, "Index": {"type": "DT_INT64"}, "end_mask": {"i": "5"}, "shrink_axis_mask": {"i": "0"}, "new_axis_mask": {"i": "0"}, "begin_mask": {"i": "5"}, "ellipsis_mask": {"i": "0"}}}, {"name": "model_272/tf.strided_slice_54/StridedSlice", "op": "StridedSlice", "input": ["model_272/tf.reshape_44/Reshape", "model_272/tf.strided_slice_54/ones_like/tensor", "model_272/tf.strided_slice_54/StridedSlice/end", "model_272/tf.strided_slice_54/ones_like"], "attr": {"Index": {"type": "DT_INT64"}, "T": {"type": "DT_FLOAT"}, "begin_mask": {"i": "7"}, "ellipsis_mask": {"i": "0"}, "end_mask": {"i": "5"}, "shrink_axis_mask": {"i": "0"}, "new_axis_mask": {"i": "0"}}}, {"name": "model_272/tf.math.add_871/Add", "op": "AddV2", "input": ["model_272/181977", "model_272/tf.strided_slice_55/StridedSlice"], "attr": {"T": {"type": "DT_FLOAT"}}}, {"name": "model_272/tf.math.subtract_4/Sub", "op": "Sub", "input": ["model_272/181980", "model_272/tf.strided_slice_54/StridedSlice"], "attr": {"T": {"type": "DT_FLOAT"}}}, {"name": "model_272/tf.math.add_872/Add", "op": "AddV2", "input": ["model_272/tf.math.subtract_4/Sub", "model_272/tf.math.add_871/Add"], "attr": {"T": {"type": "DT_FLOAT"}}}, {"name": "model_272/tf.math.subtract_5/Sub", "op": "Sub", "input": ["model_272/tf.math.add_871/Add", "model_272/tf.math.subtract_4/Sub"], "attr": {"T": {"type": "DT_FLOAT"}}}, {"name": "model_272/tf.math.divide_2/truediv", "op": "Mul", "input": ["model_272/tf.math.add_872/Add", "ConstantFolding/model_272/tf.math.divide_2/truediv_recip"], "attr": {"T": {"type": "DT_FLOAT"}}}, {"name": "model_272/tf.concat_118/concat", "op": "ConcatV2", "input": ["model_272/tf.math.divide_2/truediv", "model_272/tf.math.subtract_5/Sub", "model_272/tf.concat_118/concat/axis"], "attr": {"Tidx": {"type": "DT_INT32"}, "T": {"type": "DT_FLOAT"}, "N": {"i": "2"}}}, {"name": "model_272/tf.math.multiply_2302/Mul", "op": "Mul", "input": ["model_272/tf.concat_118/concat", "model_272/tf.math.multiply_2302/Mul/y"], "attr": {"T": {"type": "DT_FLOAT"}}}, {"name": "model_272/output0/concat", "op": "ConcatV2", "input": ["model_272/tf.math.multiply_2302/Mul", "model_272/tf.math.sigmoid_511/Sigmoid", "model_272/output0/concat/axis"], "attr": {"Tidx": {"type": "DT_INT32"}, "T": {"type": "DT_FLOAT"}, "N": {"i": "2"}}}, {"name": "Identity", "op": "Identity", "input": ["model_272/output0/concat"], "attr": {"T": {"type": "DT_FLOAT"}}}], "library": {}, "versions": {"producer": 1882}}, "weightsManifest": [{"paths": ["group1-shard1of1.bin"], "weights": [{"name": "ConstantFolding/model_272/tf.math.divide_2/truediv_recip", "shape": [1, 1, 1], "dtype": "float32"}, {"name": "model_272/181977", "shape": [1, 2, 84], "dtype": "float32"}, {"name": "model_272/tf.strided_slice_55/ones_like/tensor", "shape": [3], "dtype": "int32"}, {"name": "model_272/tf.strided_slice_55/StridedSlice/end", "shape": [3], "dtype": "int32"}, {"name": "model_272/tf.strided_slice_55/ones_like", "shape": [3], "dtype": "int32"}, {"name": "model_272/181980", "shape": [1, 2, 84], "dtype": "float32"}, {"name": "model_272/tf.strided_slice_52/StridedSlice/begin", "shape": [3], "dtype": "int32"}, {"name": "model_272/tf.strided_slice_52/StridedSlice/end", "shape": [3], "dtype": "int32"}, {"name": "model_272/tf.strided_slice_52/StridedSlice/strides", "shape": [3], "dtype": "int32"}, {"name": "model_272/tf.reshape_41/Reshape/shape", "shape": [4], "dtype": "int32"}, {"name": "model_272/tf.compat.v1.transpose_329/transpose/perm", "shape": [4], "dtype": "int32"}, {"name": "model_272/tf.compat.v1.transpose_330/transpose/perm", "shape": [4], "dtype": "int32"}, {"name": "model_272/tf.nn.convolution_619/convolution/filter", "shape": [1, 1, 16, 1], "dtype": "float32"}, {"name": "model_272/tf.compat.v1.transpose_335/transpose/perm", "shape": [4], "dtype": "int32"}, {"name": "model_272/tf.reshape_44/Reshape/shape", "shape": [3], "dtype": "int32"}, {"name": "model_272/tf.strided_slice_54/ones_like/tensor", "shape": [3], "dtype": "int32"}, {"name": "model_272/tf.strided_slice_54/StridedSlice/end", "shape": [3], "dtype": "int32"}, {"name": "model_272/tf.strided_slice_54/ones_like", "shape": [3], "dtype": "int32"}, {"name": "model_272/tf.concat_118/concat/axis", "shape": [], "dtype": "int32"}, {"name": "model_272/tf.math.multiply_2302/Mul/y", "shape": [1, 1, 84], "dtype": "float32"}, {"name": "model_272/tf.nn.convolution_607/convolution/filter", "shape": [3, 3, 8, 64], "dtype": "float32"}, {"name": "model_272/tf.math.add_853/Add/y", "shape": [64], "dtype": "float32"}, {"name": "model_272/tf.nn.convolution_608/convolution/filter", "shape": [3, 3, 64, 64], "dtype": "float32"}, {"name": "model_272/tf.math.add_857/Add/y", "shape": [64], "dtype": "float32"}, {"name": "model_272/tf.nn.convolution_612/convolution/filter", "shape": [1, 1, 64, 64], "dtype": "float32"}, {"name": "model_272/tf.math.add_861/Add/y", "shape": [64], "dtype": "float32"}, {"name": "model_272/tf.strided_slice_50/ones_like/tensor", "shape": [4], "dtype": "int32"}, {"name": "model_272/tf.strided_slice_50/StridedSlice/end", "shape": [4], "dtype": "int32"}, {"name": "model_272/tf.strided_slice_50/ones_like", "shape": [4], "dtype": "int32"}, {"name": "model_272/tf.nn.convolution_582/convolution/filter", "shape": [1, 1, 16, 8], "dtype": "float32"}, {"name": "model_272/tf.math.add_822/Add/y", "shape": [8], "dtype": "float32"}, {"name": "model_272/tf.nn.convolution_586/convolution/filter", "shape": [3, 3, 8, 8], "dtype": "float32"}, {"name": "model_272/tf.math.add_826/Add/y", "shape": [8], "dtype": "float32"}, {"name": "model_272/tf.nn.convolution_589/convolution/filter", "shape": [3, 3, 8, 8], "dtype": "float32"}, {"name": "model_272/tf.math.add_829/Add/y", "shape": [8], "dtype": "float32"}, {"name": "model_272/tf.nn.convolution_592/convolution/filter", "shape": [3, 3, 8, 8], "dtype": "float32"}, {"name": "model_272/tf.math.add_834/Add/y", "shape": [8], "dtype": "float32"}, {"name": "model_272/tf.nn.convolution_595/convolution/filter", "shape": [3, 3, 8, 8], "dtype": "float32"}, {"name": "model_272/tf.math.add_837/Add/y", "shape": [8], "dtype": "float32"}, {"name": "model_272/tf.nn.convolution_598/convolution/filter", "shape": [3, 3, 8, 8], "dtype": "float32"}, {"name": "model_272/tf.math.add_842/Add/y", "shape": [8], "dtype": "float32"}, {"name": "model_272/tf.nn.convolution_601/convolution/filter", "shape": [3, 3, 8, 8], "dtype": "float32"}, {"name": "model_272/tf.math.add_845/Add/y", "shape": [8], "dtype": "float32"}, {"name": "model_272/tf.nn.convolution_558/convolution/filter", "shape": [1, 1, 16, 8], "dtype": "float32"}, {"name": "model_272/tf.math.add_792/Add/y", "shape": [8], "dtype": "float32"}, {"name": "model_272/tf.nn.convolution_563/convolution/filter", "shape": [3, 3, 8, 8], "dtype": "float32"}, {"name": "model_272/tf.math.add_797/Add/y", "shape": [8], "dtype": "float32"}, {"name": "model_272/tf.nn.convolution_567/convolution/filter", "shape": [3, 3, 8, 8], "dtype": "float32"}, {"name": "model_272/tf.math.add_801/Add/y", "shape": [8], "dtype": "float32"}, {"name": "model_272/tf.nn.convolution_570/convolution/filter", "shape": [3, 3, 8, 8], "dtype": "float32"}, {"name": "model_272/tf.math.add_806/Add/y", "shape": [8], "dtype": "float32"}, {"name": "model_272/tf.nn.convolution_573/convolution/filter", "shape": [3, 3, 8, 8], "dtype": "float32"}, {"name": "model_272/tf.math.add_809/Add/y", "shape": [8], "dtype": "float32"}, {"name": "model_272/tf.nn.convolution_576/convolution/filter", "shape": [3, 3, 8, 8], "dtype": "float32"}, {"name": "model_272/tf.math.add_814/Add/y", "shape": [8], "dtype": "float32"}, {"name": "model_272/tf.nn.convolution_579/convolution/filter", "shape": [3, 3, 8, 8], "dtype": "float32"}, {"name": "model_272/tf.math.add_817/Add/y", "shape": [8], "dtype": "float32"}, {"name": "model_272/tf.image.resize_5/resize/size", "shape": [2], "dtype": "int32"}, {"name": "model_272/tf.concat_104/concat/axis", "shape": [], "dtype": "int32"}, {"name": "model_272/tf.nn.convolution_554/convolution/filter", "shape": [1, 1, 24, 32], "dtype": "float32"}, {"name": "model_272/tf.math.add_787/Add/y", "shape": [32], "dtype": "float32"}, {"name": "model_272/tf.strided_slice_51/ones_like/tensor", "shape": [4], "dtype": "int32"}, {"name": "model_272/tf.strided_slice_51/StridedSlice/end", "shape": [4], "dtype": "int32"}, {"name": "model_272/tf.strided_slice_51/ones_like", "shape": [4], "dtype": "int32"}, {"name": "model_272/tf.nn.convolution_559/convolution/filter", "shape": [1, 1, 16, 8], "dtype": "float32"}, {"name": "model_272/tf.math.add_793/Add/y", "shape": [8], "dtype": "float32"}, {"name": "model_272/tf.concat_108/concat/axis", "shape": [], "dtype": "int32"}, {"name": "model_272/tf.nn.convolution_580/convolution/filter", "shape": [1, 1, 16, 16], "dtype": "float32"}, {"name": "model_272/tf.math.add_820/Add/y", "shape": [16], "dtype": "float32"}, {"name": "model_272/tf.nn.convolution_581/convolution/filter", "shape": [3, 3, 16, 16], "dtype": "float32"}, {"name": "model_272/tf.math.add_821/Add/y", "shape": [16], "dtype": "float32"}, {"name": "model_272/tf.nn.convolution_583/convolution/filter", "shape": [1, 1, 16, 8], "dtype": "float32"}, {"name": "model_272/tf.math.add_823/Add/y", "shape": [8], "dtype": "float32"}, {"name": "model_272/tf.concat_111/concat/axis", "shape": [], "dtype": "int32"}, {"name": "model_272/tf.nn.convolution_602/convolution/filter", "shape": [1, 1, 16, 16], "dtype": "float32"}, {"name": "model_272/tf.math.add_848/Add/y", "shape": [16], "dtype": "float32"}, {"name": "model_272/tf.nn.convolution_603/convolution/filter", "shape": [3, 3, 16, 16], "dtype": "float32"}, {"name": "model_272/tf.math.add_849/Add/y", "shape": [16], "dtype": "float32"}, {"name": "model_272/tf.concat_112/concat/axis", "shape": [], "dtype": "int32"}, {"name": "model_272/tf.nn.convolution_604/convolution/filter", "shape": [1, 1, 64, 8], "dtype": "float32"}, {"name": "model_272/tf.math.add_850/Add/y", "shape": [8], "dtype": "float32"}, {"name": "model_272/tf.compat.v1.nn.depthwise_conv2d_18/depthwise/filter_in", "shape": [3, 3, 8, 1], "dtype": "float32"}, {"name": "model_272/tf.math.add_856/Add/y", "shape": [8], "dtype": "float32"}, {"name": "model_272/tf.nn.convolution_611/convolution/filter", "shape": [1, 1, 8, 8], "dtype": "float32"}, {"name": "model_272/tf.math.add_860/Add/y", "shape": [8], "dtype": "float32"}, {"name": "model_272/tf.compat.v1.nn.depthwise_conv2d_21/depthwise/filter_in", "shape": [3, 3, 8, 1], "dtype": "float32"}, {"name": "model_272/tf.math.add_864/Add/y", "shape": [8], "dtype": "float32"}, {"name": "model_272/tf.nn.convolution_615/convolution/filter", "shape": [1, 1, 8, 8], "dtype": "float32"}, {"name": "model_272/tf.math.add_867/Add/y", "shape": [8], "dtype": "float32"}, {"name": "model_272/tf.nn.convolution_618/convolution/filter", "shape": [1, 1, 8, 2], "dtype": "float32"}, {"name": "model_272/tf.math.add_870/Add/y", "shape": [2], "dtype": "float32"}, {"name": "model_272/tf.concat_113/concat/axis", "shape": [], "dtype": "int32"}, {"name": "model_272/tf.compat.v1.transpose_322/transpose/perm", "shape": [4], "dtype": "int32"}, {"name": "model_272/tf.reshape_38/Reshape/shape", "shape": [3], "dtype": "int32"}, {"name": "model_272/tf.nn.convolution_553/convolution/filter", "shape": [3, 3, 16, 64], "dtype": "float32"}, {"name": "model_272/tf.math.add_785/Add/y", "shape": [64], "dtype": "float32"}, {"name": "model_272/tf.nn.convolution_555/convolution/filter", "shape": [3, 3, 64, 64], "dtype": "float32"}, {"name": "model_272/tf.math.add_788/Add/y", "shape": [64], "dtype": "float32"}, {"name": "model_272/tf.nn.convolution_557/convolution/filter", "shape": [1, 1, 64, 64], "dtype": "float32"}, {"name": "model_272/tf.math.add_790/Add/y", "shape": [64], "dtype": "float32"}, {"name": "model_272/tf.strided_slice_48/ones_like/tensor", "shape": [4], "dtype": "int32"}, {"name": "model_272/tf.strided_slice_48/StridedSlice/end", "shape": [4], "dtype": "int32"}, {"name": "model_272/tf.strided_slice_48/ones_like", "shape": [4], "dtype": "int32"}, {"name": "model_272/tf.nn.convolution_542/convolution/filter", "shape": [1, 1, 24, 12], "dtype": "float32"}, {"name": "model_272/tf.math.add_768/Add/y", "shape": [12], "dtype": "float32"}, {"name": "model_272/tf.nn.convolution_544/convolution/filter", "shape": [3, 3, 12, 12], "dtype": "float32"}, {"name": "model_272/tf.math.add_770/Add/y", "shape": [12], "dtype": "float32"}, {"name": "model_272/tf.nn.convolution_545/convolution/filter", "shape": [3, 3, 12, 12], "dtype": "float32"}, {"name": "model_272/tf.math.add_771/Add/y", "shape": [12], "dtype": "float32"}, {"name": "model_272/tf.nn.convolution_546/convolution/filter", "shape": [3, 3, 12, 12], "dtype": "float32"}, {"name": "model_272/tf.math.add_774/Add/y", "shape": [12], "dtype": "float32"}, {"name": "model_272/tf.nn.convolution_547/convolution/filter", "shape": [3, 3, 12, 12], "dtype": "float32"}, {"name": "model_272/tf.math.add_775/Add/y", "shape": [12], "dtype": "float32"}, {"name": "model_272/tf.nn.convolution_548/convolution/filter", "shape": [3, 3, 12, 12], "dtype": "float32"}, {"name": "model_272/tf.math.add_778/Add/y", "shape": [12], "dtype": "float32"}, {"name": "model_272/tf.nn.convolution_549/convolution/filter", "shape": [3, 3, 12, 12], "dtype": "float32"}, {"name": "model_272/tf.math.add_779/Add/y", "shape": [12], "dtype": "float32"}, {"name": "model_272/tf.nn.convolution_530/convolution/filter", "shape": [1, 1, 24, 12], "dtype": "float32"}, {"name": "model_272/tf.math.add_750/Add/y", "shape": [12], "dtype": "float32"}, {"name": "model_272/tf.nn.convolution_533/convolution/filter", "shape": [3, 3, 12, 12], "dtype": "float32"}, {"name": "model_272/tf.math.add_753/Add/y", "shape": [12], "dtype": "float32"}, {"name": "model_272/tf.nn.convolution_535/convolution/filter", "shape": [3, 3, 12, 12], "dtype": "float32"}, {"name": "model_272/tf.math.add_755/Add/y", "shape": [12], "dtype": "float32"}, {"name": "model_272/tf.nn.convolution_536/convolution/filter", "shape": [3, 3, 12, 12], "dtype": "float32"}, {"name": "model_272/tf.math.add_758/Add/y", "shape": [12], "dtype": "float32"}, {"name": "model_272/tf.nn.convolution_537/convolution/filter", "shape": [3, 3, 12, 12], "dtype": "float32"}, {"name": "model_272/tf.math.add_759/Add/y", "shape": [12], "dtype": "float32"}, {"name": "model_272/tf.nn.convolution_538/convolution/filter", "shape": [3, 3, 12, 12], "dtype": "float32"}, {"name": "model_272/tf.math.add_762/Add/y", "shape": [12], "dtype": "float32"}, {"name": "model_272/tf.nn.convolution_539/convolution/filter", "shape": [3, 3, 12, 12], "dtype": "float32"}, {"name": "model_272/tf.math.add_763/Add/y", "shape": [12], "dtype": "float32"}, {"name": "model_272/tf.image.resize_4/resize/size", "shape": [2], "dtype": "int32"}, {"name": "model_272/tf.concat_95/concat/axis", "shape": [], "dtype": "int32"}, {"name": "model_272/tf.nn.convolution_526/convolution/filter", "shape": [1, 1, 32, 48], "dtype": "float32"}, {"name": "model_272/tf.math.add_745/Add/y", "shape": [48], "dtype": "float32"}, {"name": "model_272/tf.strided_slice_49/ones_like/tensor", "shape": [4], "dtype": "int32"}, {"name": "model_272/tf.strided_slice_49/StridedSlice/end", "shape": [4], "dtype": "int32"}, {"name": "model_272/tf.strided_slice_49/ones_like", "shape": [4], "dtype": "int32"}, {"name": "model_272/tf.nn.convolution_531/convolution/filter", "shape": [1, 1, 24, 12], "dtype": "float32"}, {"name": "model_272/tf.math.add_751/Add/y", "shape": [12], "dtype": "float32"}, {"name": "model_272/tf.concat_99/concat/axis", "shape": [], "dtype": "int32"}, {"name": "model_272/tf.nn.convolution_540/convolution/filter", "shape": [1, 1, 24, 24], "dtype": "float32"}, {"name": "model_272/tf.math.add_766/Add/y", "shape": [24], "dtype": "float32"}, {"name": "model_272/tf.nn.convolution_541/convolution/filter", "shape": [3, 3, 24, 24], "dtype": "float32"}, {"name": "model_272/tf.math.add_767/Add/y", "shape": [24], "dtype": "float32"}, {"name": "model_272/tf.nn.convolution_543/convolution/filter", "shape": [1, 1, 24, 12], "dtype": "float32"}, {"name": "model_272/tf.math.add_769/Add/y", "shape": [12], "dtype": "float32"}, {"name": "model_272/tf.concat_100/concat/axis", "shape": [], "dtype": "int32"}, {"name": "model_272/tf.nn.convolution_550/convolution/filter", "shape": [1, 1, 24, 24], "dtype": "float32"}, {"name": "model_272/tf.math.add_782/Add/y", "shape": [24], "dtype": "float32"}, {"name": "model_272/tf.nn.convolution_551/convolution/filter", "shape": [3, 3, 24, 24], "dtype": "float32"}, {"name": "model_272/tf.math.add_783/Add/y", "shape": [24], "dtype": "float32"}, {"name": "model_272/tf.concat_101/concat/axis", "shape": [], "dtype": "int32"}, {"name": "model_272/tf.nn.convolution_552/convolution/filter", "shape": [1, 1, 96, 16], "dtype": "float32"}, {"name": "model_272/tf.math.add_784/Add/y", "shape": [16], "dtype": "float32"}, {"name": "model_272/tf.compat.v1.nn.depthwise_conv2d_14/depthwise/filter_in", "shape": [3, 3, 16, 1], "dtype": "float32"}, {"name": "model_272/tf.math.add_786/Add/y", "shape": [16], "dtype": "float32"}, {"name": "model_272/tf.nn.convolution_556/convolution/filter", "shape": [1, 1, 16, 8], "dtype": "float32"}, {"name": "model_272/tf.math.add_789/Add/y", "shape": [8], "dtype": "float32"}, {"name": "model_272/tf.compat.v1.nn.depthwise_conv2d_15/depthwise/filter_in", "shape": [3, 3, 8, 1], "dtype": "float32"}, {"name": "model_272/tf.math.add_791/Add/y", "shape": [8], "dtype": "float32"}, {"name": "model_272/tf.nn.convolution_560/convolution/filter", "shape": [1, 1, 8, 8], "dtype": "float32"}, {"name": "model_272/tf.math.add_794/Add/y", "shape": [8], "dtype": "float32"}, {"name": "model_272/tf.nn.convolution_564/convolution/filter", "shape": [1, 1, 8, 2], "dtype": "float32"}, {"name": "model_272/tf.math.add_798/Add/y", "shape": [2], "dtype": "float32"}, {"name": "model_272/tf.concat_105/concat/axis", "shape": [], "dtype": "int32"}, {"name": "model_272/tf.compat.v1.transpose_253/transpose/perm", "shape": [4], "dtype": "int32"}, {"name": "model_272/tf.reshape_35/Reshape/shape", "shape": [3], "dtype": "int32"}, {"name": "model_272/tf.nn.convolution_525/convolution/filter", "shape": [3, 3, 16, 64], "dtype": "float32"}, {"name": "model_272/tf.math.add_743/Add/y", "shape": [64], "dtype": "float32"}, {"name": "model_272/tf.nn.convolution_527/convolution/filter", "shape": [3, 3, 64, 64], "dtype": "float32"}, {"name": "model_272/tf.math.add_746/Add/y", "shape": [64], "dtype": "float32"}, {"name": "model_272/tf.nn.convolution_529/convolution/filter", "shape": [1, 1, 64, 64], "dtype": "float32"}, {"name": "model_272/tf.math.add_748/Add/y", "shape": [64], "dtype": "float32"}, {"name": "model_272/tf.strided_slice_46/ones_like/tensor", "shape": [4], "dtype": "int32"}, {"name": "model_272/tf.strided_slice_46/StridedSlice/end", "shape": [4], "dtype": "int32"}, {"name": "model_272/tf.strided_slice_46/ones_like", "shape": [4], "dtype": "int32"}, {"name": "model_272/tf.nn.convolution_512/convolution/filter", "shape": [1, 1, 32, 16], "dtype": "float32"}, {"name": "model_272/tf.math.add_724/Add/y", "shape": [16], "dtype": "float32"}, {"name": "model_272/tf.nn.convolution_514/convolution/filter", "shape": [3, 3, 16, 16], "dtype": "float32"}, {"name": "model_272/tf.math.add_726/Add/y", "shape": [16], "dtype": "float32"}, {"name": "model_272/tf.nn.convolution_515/convolution/filter", "shape": [3, 3, 16, 16], "dtype": "float32"}, {"name": "model_272/tf.math.add_727/Add/y", "shape": [16], "dtype": "float32"}, {"name": "model_272/tf.nn.convolution_516/convolution/filter", "shape": [3, 3, 16, 16], "dtype": "float32"}, {"name": "model_272/tf.math.add_730/Add/y", "shape": [16], "dtype": "float32"}, {"name": "model_272/tf.nn.convolution_517/convolution/filter", "shape": [3, 3, 16, 16], "dtype": "float32"}, {"name": "model_272/tf.math.add_731/Add/y", "shape": [16], "dtype": "float32"}, {"name": "model_272/tf.nn.convolution_518/convolution/filter", "shape": [3, 3, 16, 16], "dtype": "float32"}, {"name": "model_272/tf.math.add_734/Add/y", "shape": [16], "dtype": "float32"}, {"name": "model_272/tf.nn.convolution_519/convolution/filter", "shape": [3, 3, 16, 16], "dtype": "float32"}, {"name": "model_272/tf.math.add_735/Add/y", "shape": [16], "dtype": "float32"}, {"name": "model_272/tf.nn.convolution_502/convolution/filter", "shape": [1, 1, 32, 16], "dtype": "float32"}, {"name": "model_272/tf.math.add_708/Add/y", "shape": [16], "dtype": "float32"}, {"name": "model_272/tf.nn.convolution_504/convolution/filter", "shape": [3, 3, 16, 16], "dtype": "float32"}, {"name": "model_272/tf.math.add_710/Add/y", "shape": [16], "dtype": "float32"}, {"name": "model_272/tf.nn.convolution_505/convolution/filter", "shape": [3, 3, 16, 16], "dtype": "float32"}, {"name": "model_272/tf.math.add_711/Add/y", "shape": [16], "dtype": "float32"}, {"name": "model_272/tf.nn.convolution_506/convolution/filter", "shape": [3, 3, 16, 16], "dtype": "float32"}, {"name": "model_272/tf.math.add_714/Add/y", "shape": [16], "dtype": "float32"}, {"name": "model_272/tf.nn.convolution_507/convolution/filter", "shape": [3, 3, 16, 16], "dtype": "float32"}, {"name": "model_272/tf.math.add_715/Add/y", "shape": [16], "dtype": "float32"}, {"name": "model_272/tf.nn.convolution_508/convolution/filter", "shape": [3, 3, 16, 16], "dtype": "float32"}, {"name": "model_272/tf.math.add_718/Add/y", "shape": [16], "dtype": "float32"}, {"name": "model_272/tf.nn.convolution_509/convolution/filter", "shape": [3, 3, 16, 16], "dtype": "float32"}, {"name": "model_272/tf.math.add_719/Add/y", "shape": [16], "dtype": "float32"}, {"name": "model_272/tf.strided_slice_44/ones_like/tensor", "shape": [4], "dtype": "int32"}, {"name": "model_272/tf.strided_slice_44/StridedSlice/end", "shape": [4], "dtype": "int32"}, {"name": "model_272/tf.strided_slice_44/ones_like", "shape": [4], "dtype": "int32"}, {"name": "model_272/tf.nn.convolution_489/convolution/filter", "shape": [1, 1, 24, 12], "dtype": "float32"}, {"name": "model_272/tf.math.add_689/Add/y", "shape": [12], "dtype": "float32"}, {"name": "model_272/tf.nn.convolution_491/convolution/filter", "shape": [3, 3, 12, 12], "dtype": "float32"}, {"name": "model_272/tf.math.add_691/Add/y", "shape": [12], "dtype": "float32"}, {"name": "model_272/tf.nn.convolution_492/convolution/filter", "shape": [3, 3, 12, 12], "dtype": "float32"}, {"name": "model_272/tf.math.add_692/Add/y", "shape": [12], "dtype": "float32"}, {"name": "model_272/tf.nn.convolution_493/convolution/filter", "shape": [3, 3, 12, 12], "dtype": "float32"}, {"name": "model_272/tf.math.add_695/Add/y", "shape": [12], "dtype": "float32"}, {"name": "model_272/tf.nn.convolution_494/convolution/filter", "shape": [3, 3, 12, 12], "dtype": "float32"}, {"name": "model_272/tf.math.add_696/Add/y", "shape": [12], "dtype": "float32"}, {"name": "model_272/tf.nn.convolution_495/convolution/filter", "shape": [3, 3, 12, 12], "dtype": "float32"}, {"name": "model_272/tf.math.add_699/Add/y", "shape": [12], "dtype": "float32"}, {"name": "model_272/tf.nn.convolution_496/convolution/filter", "shape": [3, 3, 12, 12], "dtype": "float32"}, {"name": "model_272/tf.math.add_700/Add/y", "shape": [12], "dtype": "float32"}, {"name": "model_272/tf.nn.convolution_479/convolution/filter", "shape": [1, 1, 24, 12], "dtype": "float32"}, {"name": "model_272/tf.math.add_673/Add/y", "shape": [12], "dtype": "float32"}, {"name": "model_272/tf.nn.convolution_481/convolution/filter", "shape": [3, 3, 12, 12], "dtype": "float32"}, {"name": "model_272/tf.math.add_675/Add/y", "shape": [12], "dtype": "float32"}, {"name": "model_272/tf.nn.convolution_482/convolution/filter", "shape": [3, 3, 12, 12], "dtype": "float32"}, {"name": "model_272/tf.math.add_676/Add/y", "shape": [12], "dtype": "float32"}, {"name": "model_272/tf.nn.convolution_483/convolution/filter", "shape": [3, 3, 12, 12], "dtype": "float32"}, {"name": "model_272/tf.math.add_679/Add/y", "shape": [12], "dtype": "float32"}, {"name": "model_272/tf.nn.convolution_484/convolution/filter", "shape": [3, 3, 12, 12], "dtype": "float32"}, {"name": "model_272/tf.math.add_680/Add/y", "shape": [12], "dtype": "float32"}, {"name": "model_272/tf.nn.convolution_485/convolution/filter", "shape": [3, 3, 12, 12], "dtype": "float32"}, {"name": "model_272/tf.math.add_683/Add/y", "shape": [12], "dtype": "float32"}, {"name": "model_272/tf.nn.convolution_486/convolution/filter", "shape": [3, 3, 12, 12], "dtype": "float32"}, {"name": "model_272/tf.math.add_684/Add/y", "shape": [12], "dtype": "float32"}, {"name": "model_272/tf.strided_slice_42/ones_like/tensor", "shape": [4], "dtype": "int32"}, {"name": "model_272/tf.strided_slice_42/StridedSlice/end", "shape": [4], "dtype": "int32"}, {"name": "model_272/tf.strided_slice_42/ones_like", "shape": [4], "dtype": "int32"}, {"name": "model_272/tf.nn.convolution_454/convolution/filter", "shape": [1, 1, 16, 8], "dtype": "float32"}, {"name": "model_272/tf.math.add_642/Add/y", "shape": [8], "dtype": "float32"}, {"name": "model_272/tf.nn.convolution_458/convolution/filter", "shape": [3, 3, 8, 8], "dtype": "float32"}, {"name": "model_272/tf.math.add_646/Add/y", "shape": [8], "dtype": "float32"}, {"name": "model_272/tf.nn.convolution_461/convolution/filter", "shape": [3, 3, 8, 8], "dtype": "float32"}, {"name": "model_272/tf.math.add_649/Add/y", "shape": [8], "dtype": "float32"}, {"name": "model_272/tf.nn.convolution_464/convolution/filter", "shape": [3, 3, 8, 8], "dtype": "float32"}, {"name": "model_272/tf.math.add_654/Add/y", "shape": [8], "dtype": "float32"}, {"name": "model_272/tf.nn.convolution_467/convolution/filter", "shape": [3, 3, 8, 8], "dtype": "float32"}, {"name": "model_272/tf.math.add_657/Add/y", "shape": [8], "dtype": "float32"}, {"name": "model_272/tf.nn.convolution_470/convolution/filter", "shape": [3, 3, 8, 8], "dtype": "float32"}, {"name": "model_272/tf.math.add_662/Add/y", "shape": [8], "dtype": "float32"}, {"name": "model_272/tf.nn.convolution_473/convolution/filter", "shape": [3, 3, 8, 8], "dtype": "float32"}, {"name": "model_272/tf.math.add_665/Add/y", "shape": [8], "dtype": "float32"}, {"name": "model_272/tf.nn.convolution_432/convolution/filter", "shape": [1, 1, 16, 8], "dtype": "float32"}, {"name": "model_272/tf.math.add_614/Add/y", "shape": [8], "dtype": "float32"}, {"name": "model_272/tf.nn.convolution_436/convolution/filter", "shape": [3, 3, 8, 8], "dtype": "float32"}, {"name": "model_272/tf.math.add_618/Add/y", "shape": [8], "dtype": "float32"}, {"name": "model_272/tf.nn.convolution_439/convolution/filter", "shape": [3, 3, 8, 8], "dtype": "float32"}, {"name": "model_272/tf.math.add_621/Add/y", "shape": [8], "dtype": "float32"}, {"name": "model_272/tf.nn.convolution_442/convolution/filter", "shape": [3, 3, 8, 8], "dtype": "float32"}, {"name": "model_272/tf.math.add_626/Add/y", "shape": [8], "dtype": "float32"}, {"name": "model_272/tf.nn.convolution_445/convolution/filter", "shape": [3, 3, 8, 8], "dtype": "float32"}, {"name": "model_272/tf.math.add_629/Add/y", "shape": [8], "dtype": "float32"}, {"name": "model_272/tf.nn.convolution_448/convolution/filter", "shape": [3, 3, 8, 8], "dtype": "float32"}, {"name": "model_272/tf.math.add_634/Add/y", "shape": [8], "dtype": "float32"}, {"name": "model_272/tf.nn.convolution_451/convolution/filter", "shape": [3, 3, 8, 8], "dtype": "float32"}, {"name": "model_272/tf.math.add_637/Add/y", "shape": [8], "dtype": "float32"}, {"name": "model_272/tf.strided_slice_40/ones_like/tensor", "shape": [4], "dtype": "int32"}, {"name": "model_272/tf.strided_slice_40/StridedSlice/end", "shape": [4], "dtype": "int32"}, {"name": "model_272/tf.strided_slice_40/ones_like", "shape": [4], "dtype": "int32"}, {"name": "model_272/tf.compat.v1.pad_14/Pad/paddings", "shape": [4, 2], "dtype": "int32"}, {"name": "model_272/tf.nn.convolution_422/convolution/filter", "shape": [3, 3, 3, 8], "dtype": "float32"}, {"name": "model_272/tf.math.add_604/Add/y", "shape": [8], "dtype": "float32"}, {"name": "model_272/tf.compat.v1.pad_15/Pad/paddings", "shape": [4, 2], "dtype": "int32"}, {"name": "model_272/tf.nn.convolution_423/convolution/filter", "shape": [3, 3, 8, 8], "dtype": "float32"}, {"name": "model_272/tf.math.add_605/Add/y", "shape": [8], "dtype": "float32"}, {"name": "model_272/tf.nn.convolution_424/convolution/filter", "shape": [1, 1, 8, 16], "dtype": "float32"}, {"name": "model_272/tf.math.add_606/Add/y", "shape": [16], "dtype": "float32"}, {"name": "model_272/tf.strided_slice_41/ones_like/tensor", "shape": [4], "dtype": "int32"}, {"name": "model_272/tf.strided_slice_41/StridedSlice/end", "shape": [4], "dtype": "int32"}, {"name": "model_272/tf.strided_slice_41/ones_like", "shape": [4], "dtype": "int32"}, {"name": "model_272/tf.nn.convolution_425/convolution/filter", "shape": [3, 3, 8, 8], "dtype": "float32"}, {"name": "model_272/tf.math.add_607/Add/y", "shape": [8], "dtype": "float32"}, {"name": "model_272/tf.nn.convolution_426/convolution/filter", "shape": [3, 3, 8, 8], "dtype": "float32"}, {"name": "model_272/tf.math.add_608/Add/y", "shape": [8], "dtype": "float32"}, {"name": "model_272/tf.concat_80/concat/axis", "shape": [], "dtype": "int32"}, {"name": "model_272/tf.nn.convolution_427/convolution/filter", "shape": [1, 1, 32, 8], "dtype": "float32"}, {"name": "model_272/tf.math.add_609/Add/y", "shape": [8], "dtype": "float32"}, {"name": "model_272/tf.compat.v1.pad_16/Pad/paddings", "shape": [4, 2], "dtype": "int32"}, {"name": "model_272/tf.nn.convolution_428/convolution/filter", "shape": [3, 3, 8, 8], "dtype": "float32"}, {"name": "model_272/tf.math.add_610/Add/y", "shape": [8], "dtype": "float32"}, {"name": "model_272/tf.nn.convolution_431/convolution/filter", "shape": [1, 1, 8, 32], "dtype": "float32"}, {"name": "model_272/tf.math.add_613/Add/y", "shape": [32], "dtype": "float32"}, {"name": "model_272/tf.strided_slice_43/ones_like/tensor", "shape": [4], "dtype": "int32"}, {"name": "model_272/tf.strided_slice_43/StridedSlice/end", "shape": [4], "dtype": "int32"}, {"name": "model_272/tf.strided_slice_43/ones_like", "shape": [4], "dtype": "int32"}, {"name": "model_272/tf.nn.convolution_433/convolution/filter", "shape": [1, 1, 16, 8], "dtype": "float32"}, {"name": "model_272/tf.math.add_615/Add/y", "shape": [8], "dtype": "float32"}, {"name": "model_272/tf.concat_83/concat/axis", "shape": [], "dtype": "int32"}, {"name": "model_272/tf.nn.convolution_452/convolution/filter", "shape": [1, 1, 16, 16], "dtype": "float32"}, {"name": "model_272/tf.math.add_640/Add/y", "shape": [16], "dtype": "float32"}, {"name": "model_272/tf.nn.convolution_453/convolution/filter", "shape": [3, 3, 16, 16], "dtype": "float32"}, {"name": "model_272/tf.math.add_641/Add/y", "shape": [16], "dtype": "float32"}, {"name": "model_272/tf.nn.convolution_455/convolution/filter", "shape": [1, 1, 16, 8], "dtype": "float32"}, {"name": "model_272/tf.math.add_643/Add/y", "shape": [8], "dtype": "float32"}, {"name": "model_272/tf.concat_86/concat/axis", "shape": [], "dtype": "int32"}, {"name": "model_272/tf.nn.convolution_474/convolution/filter", "shape": [1, 1, 16, 16], "dtype": "float32"}, {"name": "model_272/tf.math.add_668/Add/y", "shape": [16], "dtype": "float32"}, {"name": "model_272/tf.nn.convolution_475/convolution/filter", "shape": [3, 3, 16, 16], "dtype": "float32"}, {"name": "model_272/tf.math.add_669/Add/y", "shape": [16], "dtype": "float32"}, {"name": "model_272/tf.concat_87/concat/axis", "shape": [], "dtype": "int32"}, {"name": "model_272/tf.nn.convolution_476/convolution/filter", "shape": [1, 1, 64, 8], "dtype": "float32"}, {"name": "model_272/tf.math.add_670/Add/y", "shape": [8], "dtype": "float32"}, {"name": "model_272/tf.compat.v1.pad_17/Pad/paddings", "shape": [4, 2], "dtype": "int32"}, {"name": "model_272/tf.nn.convolution_477/convolution/filter", "shape": [3, 3, 8, 16], "dtype": "float32"}, {"name": "model_272/tf.math.add_671/Add/y", "shape": [16], "dtype": "float32"}, {"name": "model_272/tf.nn.convolution_478/convolution/filter", "shape": [1, 1, 16, 48], "dtype": "float32"}, {"name": "model_272/tf.math.add_672/Add/y", "shape": [48], "dtype": "float32"}, {"name": "model_272/tf.strided_slice_45/ones_like/tensor", "shape": [4], "dtype": "int32"}, {"name": "model_272/tf.strided_slice_45/StridedSlice/end", "shape": [4], "dtype": "int32"}, {"name": "model_272/tf.strided_slice_45/ones_like", "shape": [4], "dtype": "int32"}, {"name": "model_272/tf.nn.convolution_480/convolution/filter", "shape": [1, 1, 24, 12], "dtype": "float32"}, {"name": "model_272/tf.math.add_674/Add/y", "shape": [12], "dtype": "float32"}, {"name": "model_272/tf.concat_88/concat/axis", "shape": [], "dtype": "int32"}, {"name": "model_272/tf.nn.convolution_487/convolution/filter", "shape": [1, 1, 24, 24], "dtype": "float32"}, {"name": "model_272/tf.math.add_687/Add/y", "shape": [24], "dtype": "float32"}, {"name": "model_272/tf.nn.convolution_488/convolution/filter", "shape": [3, 3, 24, 24], "dtype": "float32"}, {"name": "model_272/tf.math.add_688/Add/y", "shape": [24], "dtype": "float32"}, {"name": "model_272/tf.nn.convolution_490/convolution/filter", "shape": [1, 1, 24, 12], "dtype": "float32"}, {"name": "model_272/tf.math.add_690/Add/y", "shape": [12], "dtype": "float32"}, {"name": "model_272/tf.concat_89/concat/axis", "shape": [], "dtype": "int32"}, {"name": "model_272/tf.nn.convolution_497/convolution/filter", "shape": [1, 1, 24, 24], "dtype": "float32"}, {"name": "model_272/tf.math.add_703/Add/y", "shape": [24], "dtype": "float32"}, {"name": "model_272/tf.nn.convolution_498/convolution/filter", "shape": [3, 3, 24, 24], "dtype": "float32"}, {"name": "model_272/tf.math.add_704/Add/y", "shape": [24], "dtype": "float32"}, {"name": "model_272/tf.concat_90/concat/axis", "shape": [], "dtype": "int32"}, {"name": "model_272/tf.nn.convolution_499/convolution/filter", "shape": [1, 1, 96, 16], "dtype": "float32"}, {"name": "model_272/tf.math.add_705/Add/y", "shape": [16], "dtype": "float32"}, {"name": "model_272/tf.compat.v1.pad_18/Pad/paddings", "shape": [4, 2], "dtype": "int32"}, {"name": "model_272/tf.nn.convolution_500/convolution/filter", "shape": [3, 3, 16, 16], "dtype": "float32"}, {"name": "model_272/tf.math.add_706/Add/y", "shape": [16], "dtype": "float32"}, {"name": "model_272/tf.nn.convolution_501/convolution/filter", "shape": [1, 1, 16, 64], "dtype": "float32"}, {"name": "model_272/tf.math.add_707/Add/y", "shape": [64], "dtype": "float32"}, {"name": "model_272/tf.strided_slice_47/ones_like/tensor", "shape": [4], "dtype": "int32"}, {"name": "model_272/tf.strided_slice_47/StridedSlice/end", "shape": [4], "dtype": "int32"}, {"name": "model_272/tf.strided_slice_47/ones_like", "shape": [4], "dtype": "int32"}, {"name": "model_272/tf.nn.convolution_503/convolution/filter", "shape": [1, 1, 32, 16], "dtype": "float32"}, {"name": "model_272/tf.math.add_709/Add/y", "shape": [16], "dtype": "float32"}, {"name": "model_272/tf.concat_91/concat/axis", "shape": [], "dtype": "int32"}, {"name": "model_272/tf.nn.convolution_510/convolution/filter", "shape": [1, 1, 32, 32], "dtype": "float32"}, {"name": "model_272/tf.math.add_722/Add/y", "shape": [32], "dtype": "float32"}, {"name": "model_272/tf.nn.convolution_511/convolution/filter", "shape": [3, 3, 32, 32], "dtype": "float32"}, {"name": "model_272/tf.math.add_723/Add/y", "shape": [32], "dtype": "float32"}, {"name": "model_272/tf.nn.convolution_513/convolution/filter", "shape": [1, 1, 32, 16], "dtype": "float32"}, {"name": "model_272/tf.math.add_725/Add/y", "shape": [16], "dtype": "float32"}, {"name": "model_272/tf.concat_92/concat/axis", "shape": [], "dtype": "int32"}, {"name": "model_272/tf.nn.convolution_520/convolution/filter", "shape": [1, 1, 32, 32], "dtype": "float32"}, {"name": "model_272/tf.math.add_738/Add/y", "shape": [32], "dtype": "float32"}, {"name": "model_272/tf.nn.convolution_521/convolution/filter", "shape": [3, 3, 32, 32], "dtype": "float32"}, {"name": "model_272/tf.math.add_739/Add/y", "shape": [32], "dtype": "float32"}, {"name": "model_272/tf.concat_93/concat/axis", "shape": [], "dtype": "int32"}, {"name": "model_272/tf.nn.convolution_522/convolution/filter", "shape": [1, 1, 128, 16], "dtype": "float32"}, {"name": "model_272/tf.math.add_740/Add/y", "shape": [16], "dtype": "float32"}, {"name": "model_272/tf.nn.convolution_523/convolution/filter", "shape": [1, 1, 16, 32], "dtype": "float32"}, {"name": "model_272/tf.math.add_741/Add/y", "shape": [32], "dtype": "float32"}, {"name": "model_272/tf.concat_94/concat/axis", "shape": [], "dtype": "int32"}, {"name": "model_272/tf.nn.convolution_524/convolution/filter", "shape": [1, 1, 128, 16], "dtype": "float32"}, {"name": "model_272/tf.math.add_742/Add/y", "shape": [16], "dtype": "float32"}, {"name": "model_272/tf.compat.v1.nn.depthwise_conv2d_12/depthwise/filter_in", "shape": [3, 3, 16, 1], "dtype": "float32"}, {"name": "model_272/tf.math.add_744/Add/y", "shape": [16], "dtype": "float32"}, {"name": "model_272/tf.nn.convolution_528/convolution/filter", "shape": [1, 1, 16, 8], "dtype": "float32"}, {"name": "model_272/tf.math.add_747/Add/y", "shape": [8], "dtype": "float32"}, {"name": "model_272/tf.compat.v1.nn.depthwise_conv2d_13/depthwise/filter_in", "shape": [3, 3, 8, 1], "dtype": "float32"}, {"name": "model_272/tf.math.add_749/Add/y", "shape": [8], "dtype": "float32"}, {"name": "model_272/tf.nn.convolution_532/convolution/filter", "shape": [1, 1, 8, 8], "dtype": "float32"}, {"name": "model_272/tf.math.add_752/Add/y", "shape": [8], "dtype": "float32"}, {"name": "model_272/tf.nn.convolution_534/convolution/filter", "shape": [1, 1, 8, 2], "dtype": "float32"}, {"name": "model_272/tf.math.add_754/Add/y", "shape": [2], "dtype": "float32"}, {"name": "model_272/tf.concat_98/concat/axis", "shape": [], "dtype": "int32"}, {"name": "model_272/tf.compat.v1.transpose_240/transpose/perm", "shape": [4], "dtype": "int32"}, {"name": "model_272/tf.reshape_32/Reshape/shape", "shape": [3], "dtype": "int32"}, {"name": "model_272/tf.concat_114/concat/axis", "shape": [], "dtype": "int32"}, {"name": "model_272/tf.strided_slice_53/StridedSlice/begin", "shape": [3], "dtype": "int32"}, {"name": "model_272/tf.strided_slice_53/StridedSlice/end", "shape": [3], "dtype": "int32"}, {"name": "model_272/tf.strided_slice_53/StridedSlice/strides", "shape": [3], "dtype": "int32"}, {"name": "model_272/output0/concat/axis", "shape": [], "dtype": "int32"}]}]}