{"format": "graph-model", "generatedBy": "2.17.0", "convertedBy": "TensorFlow.js Converter v4.21.0", "signature": {"outputs": {"Identity:0": {"name": "Identity:0"}}}, "modelTopology": {"node": [{"name": "ConstantFolding/model_27/tf.math.divide_1/truediv_recip", "op": "Const", "attr": {"value": {"tensor": {"dtype": "DT_FLOAT", "tensorShape": {"dim": [{"size": "1"}, {"size": "1"}, {"size": "1"}]}}}, "dtype": {"type": "DT_FLOAT"}}}, {"name": "model_27/46734", "op": "Const", "attr": {"value": {"tensor": {"dtype": "DT_FLOAT", "tensorShape": {"dim": [{"size": "1"}, {"size": "2"}, {"size": "8400"}]}}}, "dtype": {"type": "DT_FLOAT"}}}, {"name": "model_27/tf.strided_slice_39/ones_like/tensor", "op": "Const", "attr": {"dtype": {"type": "DT_INT64"}, "value": {"tensor": {"dtype": "DT_INT64", "tensorShape": {"dim": [{"size": "3"}]}}}}}, {"name": "model_27/tf.strided_slice_39/StridedSlice/end", "op": "Const", "attr": {"value": {"tensor": {"dtype": "DT_INT64", "tensorShape": {"dim": [{"size": "3"}]}}}, "dtype": {"type": "DT_INT64"}}}, {"name": "model_27/tf.strided_slice_39/ones_like", "op": "Const", "attr": {"value": {"tensor": {"dtype": "DT_INT64", "tensorShape": {"dim": [{"size": "3"}]}}}, "dtype": {"type": "DT_INT64"}}}, {"name": "model_27/46737", "op": "Const", "attr": {"value": {"tensor": {"dtype": "DT_FLOAT", "tensorShape": {"dim": [{"size": "1"}, {"size": "2"}, {"size": "8400"}]}}}, "dtype": {"type": "DT_FLOAT"}}}, {"name": "model_27/tf.strided_slice_36/StridedSlice/begin", "op": "Const", "attr": {"value": {"tensor": {"dtype": "DT_INT64", "tensorShape": {"dim": [{"size": "3"}]}}}, "dtype": {"type": "DT_INT64"}}}, {"name": "model_27/tf.strided_slice_36/StridedSlice/end", "op": "Const", "attr": {"value": {"tensor": {"dtype": "DT_INT64", "tensorShape": {"dim": [{"size": "3"}]}}}, "dtype": {"type": "DT_INT64"}}}, {"name": "model_27/tf.strided_slice_36/StridedSlice/strides", "op": "Const", "attr": {"value": {"tensor": {"dtype": "DT_INT64", "tensorShape": {"dim": [{"size": "3"}]}}}, "dtype": {"type": "DT_INT64"}}}, {"name": "model_27/tf.reshape_26/Reshape/shape", "op": "Const", "attr": {"value": {"tensor": {"dtype": "DT_INT32", "tensorShape": {"dim": [{"size": "4"}]}}}, "dtype": {"type": "DT_INT32"}}}, {"name": "model_27/tf.compat.v1.transpose_47/transpose/perm", "op": "Const", "attr": {"dtype": {"type": "DT_INT32"}, "value": {"tensor": {"dtype": "DT_INT32", "tensorShape": {"dim": [{"size": "4"}]}}}}}, {"name": "model_27/tf.compat.v1.transpose_48/transpose/perm", "op": "Const", "attr": {"value": {"tensor": {"dtype": "DT_INT32", "tensorShape": {"dim": [{"size": "4"}]}}}, "dtype": {"type": "DT_INT32"}}}, {"name": "model_27/tf.nn.convolution_249/convolution/filter", "op": "Const", "attr": {"dtype": {"type": "DT_FLOAT"}, "value": {"tensor": {"dtype": "DT_FLOAT", "tensorShape": {"dim": [{"size": "1"}, {"size": "1"}, {"size": "16"}, {"size": "1"}]}}}}}, {"name": "model_27/tf.compat.v1.transpose_53/transpose/perm", "op": "Const", "attr": {"value": {"tensor": {"dtype": "DT_INT32", "tensorShape": {"dim": [{"size": "4"}]}}}, "dtype": {"type": "DT_INT32"}}}, {"name": "model_27/tf.reshape_29/Reshape/shape", "op": "Const", "attr": {"value": {"tensor": {"dtype": "DT_INT32", "tensorShape": {"dim": [{"size": "3"}]}}}, "dtype": {"type": "DT_INT32"}}}, {"name": "model_27/tf.strided_slice_38/ones_like/tensor", "op": "Const", "attr": {"dtype": {"type": "DT_INT64"}, "value": {"tensor": {"dtype": "DT_INT64", "tensorShape": {"dim": [{"size": "3"}]}}}}}, {"name": "model_27/tf.strided_slice_38/StridedSlice/end", "op": "Const", "attr": {"dtype": {"type": "DT_INT64"}, "value": {"tensor": {"dtype": "DT_INT64", "tensorShape": {"dim": [{"size": "3"}]}}}}}, {"name": "model_27/tf.strided_slice_38/ones_like", "op": "Const", "attr": {"value": {"tensor": {"dtype": "DT_INT64", "tensorShape": {"dim": [{"size": "3"}]}}}, "dtype": {"type": "DT_INT64"}}}, {"name": "model_27/tf.concat_56/concat/axis", "op": "Const", "attr": {"dtype": {"type": "DT_INT32"}, "value": {"tensor": {"dtype": "DT_INT32", "tensorShape": {}}}}}, {"name": "model_27/tf.math.multiply_1113/Mul/y", "op": "Const", "attr": {"dtype": {"type": "DT_FLOAT"}, "value": {"tensor": {"dtype": "DT_FLOAT", "tensorShape": {"dim": [{"size": "1"}, {"size": "1"}, {"size": "8400"}]}}}}}, {"name": "model_27/tf.nn.convolution_185/convolution/filter", "op": "Const", "attr": {"value": {"tensor": {"dtype": "DT_FLOAT", "tensorShape": {"dim": [{"size": "3"}, {"size": "3"}, {"size": "64"}, {"size": "64"}]}}}, "dtype": {"type": "DT_FLOAT"}}}, {"name": "model_27/tf.math.add_264/Add/y", "op": "Const", "attr": {"dtype": {"type": "DT_FLOAT"}, "value": {"tensor": {"dtype": "DT_FLOAT", "tensorShape": {"dim": [{"size": "64"}]}}}}}, {"name": "model_27/tf.nn.convolution_187/convolution/filter", "op": "Const", "attr": {"dtype": {"type": "DT_FLOAT"}, "value": {"tensor": {"dtype": "DT_FLOAT", "tensorShape": {"dim": [{"size": "3"}, {"size": "3"}, {"size": "64"}, {"size": "64"}]}}}}}, {"name": "model_27/tf.math.add_267/Add/y", "op": "Const", "attr": {"value": {"tensor": {"dtype": "DT_FLOAT", "tensorShape": {"dim": [{"size": "64"}]}}}, "dtype": {"type": "DT_FLOAT"}}}, {"name": "model_27/tf.nn.convolution_190/convolution/filter", "op": "Const", "attr": {"dtype": {"type": "DT_FLOAT"}, "value": {"tensor": {"dtype": "DT_FLOAT", "tensorShape": {"dim": [{"size": "1"}, {"size": "1"}, {"size": "64"}, {"size": "64"}]}}}}}, {"name": "model_27/tf.math.add_270/Add/y", "op": "Const", "attr": {"value": {"tensor": {"dtype": "DT_FLOAT", "tensorShape": {"dim": [{"size": "64"}]}}}, "dtype": {"type": "DT_FLOAT"}}}, {"name": "model_27/tf.compat.v1.nn.depthwise_conv2d_6/depthwise/filter_in", "op": "Const", "attr": {"value": {"tensor": {"dtype": "DT_FLOAT", "tensorShape": {"dim": [{"size": "3"}, {"size": "3"}, {"size": "64"}, {"size": "1"}]}}}, "dtype": {"type": "DT_FLOAT"}}}, {"name": "model_27/tf.math.add_265/Add/y", "op": "Const", "attr": {"dtype": {"type": "DT_FLOAT"}, "value": {"tensor": {"dtype": "DT_FLOAT", "tensorShape": {"dim": [{"size": "64"}]}}}}}, {"name": "model_27/tf.nn.convolution_188/convolution/filter", "op": "Const", "attr": {"dtype": {"type": "DT_FLOAT"}, "value": {"tensor": {"dtype": "DT_FLOAT", "tensorShape": {"dim": [{"size": "1"}, {"size": "1"}, {"size": "64"}, {"size": "64"}]}}}}}, {"name": "model_27/tf.math.add_268/Add/y", "op": "Const", "attr": {"dtype": {"type": "DT_FLOAT"}, "value": {"tensor": {"dtype": "DT_FLOAT", "tensorShape": {"dim": [{"size": "64"}]}}}}}, {"name": "model_27/tf.compat.v1.nn.depthwise_conv2d_7/depthwise/filter_in", "op": "Const", "attr": {"value": {"tensor": {"dtype": "DT_FLOAT", "tensorShape": {"dim": [{"size": "3"}, {"size": "3"}, {"size": "64"}, {"size": "1"}]}}}, "dtype": {"type": "DT_FLOAT"}}}, {"name": "model_27/tf.math.add_271/Add/y", "op": "Const", "attr": {"dtype": {"type": "DT_FLOAT"}, "value": {"tensor": {"dtype": "DT_FLOAT", "tensorShape": {"dim": [{"size": "64"}]}}}}}, {"name": "model_27/tf.nn.convolution_191/convolution/filter", "op": "Const", "attr": {"dtype": {"type": "DT_FLOAT"}, "value": {"tensor": {"dtype": "DT_FLOAT", "tensorShape": {"dim": [{"size": "1"}, {"size": "1"}, {"size": "64"}, {"size": "64"}]}}}}}, {"name": "model_27/tf.math.add_272/Add/y", "op": "Const", "attr": {"value": {"tensor": {"dtype": "DT_FLOAT", "tensorShape": {"dim": [{"size": "64"}]}}}, "dtype": {"type": "DT_FLOAT"}}}, {"name": "model_27/tf.nn.convolution_194/convolution/filter", "op": "Const", "attr": {"value": {"tensor": {"dtype": "DT_FLOAT", "tensorShape": {"dim": [{"size": "1"}, {"size": "1"}, {"size": "64"}, {"size": "2"}]}}}, "dtype": {"type": "DT_FLOAT"}}}, {"name": "model_27/tf.math.add_275/Add/y", "op": "Const", "attr": {"value": {"tensor": {"dtype": "DT_FLOAT", "tensorShape": {"dim": [{"size": "2"}]}}}, "dtype": {"type": "DT_FLOAT"}}}, {"name": "model_27/tf.concat_42/concat/axis", "op": "Const", "attr": {"value": {"tensor": {"dtype": "DT_INT32", "tensorShape": {}}}, "dtype": {"type": "DT_INT32"}}}, {"name": "model_27/tf.compat.v1.transpose_30/transpose/perm", "op": "Const", "attr": {"dtype": {"type": "DT_INT32"}, "value": {"tensor": {"dtype": "DT_INT32", "tensorShape": {"dim": [{"size": "4"}]}}}}}, {"name": "model_27/tf.reshape_17/Reshape/shape", "op": "Const", "attr": {"value": {"tensor": {"dtype": "DT_INT32", "tensorShape": {"dim": [{"size": "3"}]}}}, "dtype": {"type": "DT_INT32"}}}, {"name": "model_27/tf.nn.convolution_214/convolution/filter", "op": "Const", "attr": {"dtype": {"type": "DT_FLOAT"}, "value": {"tensor": {"dtype": "DT_FLOAT", "tensorShape": {"dim": [{"size": "3"}, {"size": "3"}, {"size": "96"}, {"size": "64"}]}}}}}, {"name": "model_27/tf.math.add_307/Add/y", "op": "Const", "attr": {"dtype": {"type": "DT_FLOAT"}, "value": {"tensor": {"dtype": "DT_FLOAT", "tensorShape": {"dim": [{"size": "64"}]}}}}}, {"name": "model_27/tf.nn.convolution_216/convolution/filter", "op": "Const", "attr": {"dtype": {"type": "DT_FLOAT"}, "value": {"tensor": {"dtype": "DT_FLOAT", "tensorShape": {"dim": [{"size": "3"}, {"size": "3"}, {"size": "64"}, {"size": "64"}]}}}}}, {"name": "model_27/tf.math.add_310/Add/y", "op": "Const", "attr": {"value": {"tensor": {"dtype": "DT_FLOAT", "tensorShape": {"dim": [{"size": "64"}]}}}, "dtype": {"type": "DT_FLOAT"}}}, {"name": "model_27/tf.nn.convolution_219/convolution/filter", "op": "Const", "attr": {"dtype": {"type": "DT_FLOAT"}, "value": {"tensor": {"dtype": "DT_FLOAT", "tensorShape": {"dim": [{"size": "1"}, {"size": "1"}, {"size": "64"}, {"size": "64"}]}}}}}, {"name": "model_27/tf.math.add_313/Add/y", "op": "Const", "attr": {"dtype": {"type": "DT_FLOAT"}, "value": {"tensor": {"dtype": "DT_FLOAT", "tensorShape": {"dim": [{"size": "64"}]}}}}}, {"name": "model_27/tf.compat.v1.nn.depthwise_conv2d_8/depthwise/filter_in", "op": "Const", "attr": {"value": {"tensor": {"dtype": "DT_FLOAT", "tensorShape": {"dim": [{"size": "3"}, {"size": "3"}, {"size": "96"}, {"size": "1"}]}}}, "dtype": {"type": "DT_FLOAT"}}}, {"name": "model_27/tf.math.add_308/Add/y", "op": "Const", "attr": {"value": {"tensor": {"dtype": "DT_FLOAT", "tensorShape": {"dim": [{"size": "96"}]}}}, "dtype": {"type": "DT_FLOAT"}}}, {"name": "model_27/tf.nn.convolution_217/convolution/filter", "op": "Const", "attr": {"value": {"tensor": {"dtype": "DT_FLOAT", "tensorShape": {"dim": [{"size": "1"}, {"size": "1"}, {"size": "96"}, {"size": "64"}]}}}, "dtype": {"type": "DT_FLOAT"}}}, {"name": "model_27/tf.math.add_311/Add/y", "op": "Const", "attr": {"dtype": {"type": "DT_FLOAT"}, "value": {"tensor": {"dtype": "DT_FLOAT", "tensorShape": {"dim": [{"size": "64"}]}}}}}, {"name": "model_27/tf.compat.v1.nn.depthwise_conv2d_9/depthwise/filter_in", "op": "Const", "attr": {"value": {"tensor": {"dtype": "DT_FLOAT", "tensorShape": {"dim": [{"size": "3"}, {"size": "3"}, {"size": "64"}, {"size": "1"}]}}}, "dtype": {"type": "DT_FLOAT"}}}, {"name": "model_27/tf.math.add_314/Add/y", "op": "Const", "attr": {"dtype": {"type": "DT_FLOAT"}, "value": {"tensor": {"dtype": "DT_FLOAT", "tensorShape": {"dim": [{"size": "64"}]}}}}}, {"name": "model_27/tf.nn.convolution_220/convolution/filter", "op": "Const", "attr": {"dtype": {"type": "DT_FLOAT"}, "value": {"tensor": {"dtype": "DT_FLOAT", "tensorShape": {"dim": [{"size": "1"}, {"size": "1"}, {"size": "64"}, {"size": "64"}]}}}}}, {"name": "model_27/tf.math.add_315/Add/y", "op": "Const", "attr": {"value": {"tensor": {"dtype": "DT_FLOAT", "tensorShape": {"dim": [{"size": "64"}]}}}, "dtype": {"type": "DT_FLOAT"}}}, {"name": "model_27/tf.nn.convolution_223/convolution/filter", "op": "Const", "attr": {"value": {"tensor": {"dtype": "DT_FLOAT", "tensorShape": {"dim": [{"size": "1"}, {"size": "1"}, {"size": "64"}, {"size": "2"}]}}}, "dtype": {"type": "DT_FLOAT"}}}, {"name": "model_27/tf.math.add_318/Add/y", "op": "Const", "attr": {"value": {"tensor": {"dtype": "DT_FLOAT", "tensorShape": {"dim": [{"size": "2"}]}}}, "dtype": {"type": "DT_FLOAT"}}}, {"name": "model_27/tf.concat_47/concat/axis", "op": "Const", "attr": {"dtype": {"type": "DT_INT32"}, "value": {"tensor": {"dtype": "DT_INT32", "tensorShape": {}}}}}, {"name": "model_27/tf.compat.v1.transpose_35/transpose/perm", "op": "Const", "attr": {"dtype": {"type": "DT_INT32"}, "value": {"tensor": {"dtype": "DT_INT32", "tensorShape": {"dim": [{"size": "4"}]}}}}}, {"name": "model_27/tf.reshape_20/Reshape/shape", "op": "Const", "attr": {"dtype": {"type": "DT_INT32"}, "value": {"tensor": {"dtype": "DT_INT32", "tensorShape": {"dim": [{"size": "3"}]}}}}}, {"name": "model_27/tf.nn.convolution_243/convolution/filter", "op": "Const", "attr": {"dtype": {"type": "DT_FLOAT"}, "value": {"tensor": {"dtype": "DT_FLOAT", "tensorShape": {"dim": [{"size": "3"}, {"size": "3"}, {"size": "128"}, {"size": "64"}]}}}}}, {"name": "model_27/tf.math.add_350/Add/y", "op": "Const", "attr": {"dtype": {"type": "DT_FLOAT"}, "value": {"tensor": {"dtype": "DT_FLOAT", "tensorShape": {"dim": [{"size": "64"}]}}}}}, {"name": "model_27/tf.nn.convolution_244/convolution/filter", "op": "Const", "attr": {"value": {"tensor": {"dtype": "DT_FLOAT", "tensorShape": {"dim": [{"size": "3"}, {"size": "3"}, {"size": "64"}, {"size": "64"}]}}}, "dtype": {"type": "DT_FLOAT"}}}, {"name": "model_27/tf.math.add_352/Add/y", "op": "Const", "attr": {"dtype": {"type": "DT_FLOAT"}, "value": {"tensor": {"dtype": "DT_FLOAT", "tensorShape": {"dim": [{"size": "64"}]}}}}}, {"name": "model_27/tf.nn.convolution_246/convolution/filter", "op": "Const", "attr": {"dtype": {"type": "DT_FLOAT"}, "value": {"tensor": {"dtype": "DT_FLOAT", "tensorShape": {"dim": [{"size": "1"}, {"size": "1"}, {"size": "64"}, {"size": "64"}]}}}}}, {"name": "model_27/tf.math.add_354/Add/y", "op": "Const", "attr": {"dtype": {"type": "DT_FLOAT"}, "value": {"tensor": {"dtype": "DT_FLOAT", "tensorShape": {"dim": [{"size": "64"}]}}}}}, {"name": "model_27/tf.strided_slice_34/ones_like/tensor", "op": "Const", "attr": {"value": {"tensor": {"dtype": "DT_INT64", "tensorShape": {"dim": [{"size": "4"}]}}}, "dtype": {"type": "DT_INT64"}}}, {"name": "model_27/tf.strided_slice_34/StridedSlice/end", "op": "Const", "attr": {"dtype": {"type": "DT_INT64"}, "value": {"tensor": {"dtype": "DT_INT64", "tensorShape": {"dim": [{"size": "4"}]}}}}}, {"name": "model_27/tf.strided_slice_34/ones_like", "op": "Const", "attr": {"dtype": {"type": "DT_INT64"}, "value": {"tensor": {"dtype": "DT_INT64", "tensorShape": {"dim": [{"size": "4"}]}}}}}, {"name": "model_27/tf.nn.convolution_232/convolution/filter", "op": "Const", "attr": {"dtype": {"type": "DT_FLOAT"}, "value": {"tensor": {"dtype": "DT_FLOAT", "tensorShape": {"dim": [{"size": "1"}, {"size": "1"}, {"size": "64"}, {"size": "32"}]}}}}}, {"name": "model_27/tf.math.add_333/Add/y", "op": "Const", "attr": {"value": {"tensor": {"dtype": "DT_FLOAT", "tensorShape": {"dim": [{"size": "32"}]}}}, "dtype": {"type": "DT_FLOAT"}}}, {"name": "model_27/tf.nn.convolution_234/convolution/filter", "op": "Const", "attr": {"dtype": {"type": "DT_FLOAT"}, "value": {"tensor": {"dtype": "DT_FLOAT", "tensorShape": {"dim": [{"size": "3"}, {"size": "3"}, {"size": "32"}, {"size": "32"}]}}}}}, {"name": "model_27/tf.math.add_335/Add/y", "op": "Const", "attr": {"value": {"tensor": {"dtype": "DT_FLOAT", "tensorShape": {"dim": [{"size": "32"}]}}}, "dtype": {"type": "DT_FLOAT"}}}, {"name": "model_27/tf.nn.convolution_235/convolution/filter", "op": "Const", "attr": {"dtype": {"type": "DT_FLOAT"}, "value": {"tensor": {"dtype": "DT_FLOAT", "tensorShape": {"dim": [{"size": "3"}, {"size": "3"}, {"size": "32"}, {"size": "32"}]}}}}}, {"name": "model_27/tf.math.add_336/Add/y", "op": "Const", "attr": {"value": {"tensor": {"dtype": "DT_FLOAT", "tensorShape": {"dim": [{"size": "32"}]}}}, "dtype": {"type": "DT_FLOAT"}}}, {"name": "model_27/tf.nn.convolution_236/convolution/filter", "op": "Const", "attr": {"value": {"tensor": {"dtype": "DT_FLOAT", "tensorShape": {"dim": [{"size": "3"}, {"size": "3"}, {"size": "32"}, {"size": "32"}]}}}, "dtype": {"type": "DT_FLOAT"}}}, {"name": "model_27/tf.math.add_339/Add/y", "op": "Const", "attr": {"value": {"tensor": {"dtype": "DT_FLOAT", "tensorShape": {"dim": [{"size": "32"}]}}}, "dtype": {"type": "DT_FLOAT"}}}, {"name": "model_27/tf.nn.convolution_237/convolution/filter", "op": "Const", "attr": {"dtype": {"type": "DT_FLOAT"}, "value": {"tensor": {"dtype": "DT_FLOAT", "tensorShape": {"dim": [{"size": "3"}, {"size": "3"}, {"size": "32"}, {"size": "32"}]}}}}}, {"name": "model_27/tf.math.add_340/Add/y", "op": "Const", "attr": {"dtype": {"type": "DT_FLOAT"}, "value": {"tensor": {"dtype": "DT_FLOAT", "tensorShape": {"dim": [{"size": "32"}]}}}}}, {"name": "model_27/tf.nn.convolution_238/convolution/filter", "op": "Const", "attr": {"value": {"tensor": {"dtype": "DT_FLOAT", "tensorShape": {"dim": [{"size": "3"}, {"size": "3"}, {"size": "32"}, {"size": "32"}]}}}, "dtype": {"type": "DT_FLOAT"}}}, {"name": "model_27/tf.math.add_343/Add/y", "op": "Const", "attr": {"value": {"tensor": {"dtype": "DT_FLOAT", "tensorShape": {"dim": [{"size": "32"}]}}}, "dtype": {"type": "DT_FLOAT"}}}, {"name": "model_27/tf.nn.convolution_239/convolution/filter", "op": "Const", "attr": {"value": {"tensor": {"dtype": "DT_FLOAT", "tensorShape": {"dim": [{"size": "3"}, {"size": "3"}, {"size": "32"}, {"size": "32"}]}}}, "dtype": {"type": "DT_FLOAT"}}}, {"name": "model_27/tf.math.add_344/Add/y", "op": "Const", "attr": {"dtype": {"type": "DT_FLOAT"}, "value": {"tensor": {"dtype": "DT_FLOAT", "tensorShape": {"dim": [{"size": "32"}]}}}}}, {"name": "model_27/tf.nn.convolution_221/convolution/filter", "op": "Const", "attr": {"value": {"tensor": {"dtype": "DT_FLOAT", "tensorShape": {"dim": [{"size": "1"}, {"size": "1"}, {"size": "64"}, {"size": "32"}]}}}, "dtype": {"type": "DT_FLOAT"}}}, {"name": "model_27/tf.math.add_316/Add/y", "op": "Const", "attr": {"value": {"tensor": {"dtype": "DT_FLOAT", "tensorShape": {"dim": [{"size": "32"}]}}}, "dtype": {"type": "DT_FLOAT"}}}, {"name": "model_27/tf.nn.convolution_224/convolution/filter", "op": "Const", "attr": {"dtype": {"type": "DT_FLOAT"}, "value": {"tensor": {"dtype": "DT_FLOAT", "tensorShape": {"dim": [{"size": "3"}, {"size": "3"}, {"size": "32"}, {"size": "32"}]}}}}}, {"name": "model_27/tf.math.add_319/Add/y", "op": "Const", "attr": {"value": {"tensor": {"dtype": "DT_FLOAT", "tensorShape": {"dim": [{"size": "32"}]}}}, "dtype": {"type": "DT_FLOAT"}}}, {"name": "model_27/tf.nn.convolution_225/convolution/filter", "op": "Const", "attr": {"dtype": {"type": "DT_FLOAT"}, "value": {"tensor": {"dtype": "DT_FLOAT", "tensorShape": {"dim": [{"size": "3"}, {"size": "3"}, {"size": "32"}, {"size": "32"}]}}}}}, {"name": "model_27/tf.math.add_320/Add/y", "op": "Const", "attr": {"dtype": {"type": "DT_FLOAT"}, "value": {"tensor": {"dtype": "DT_FLOAT", "tensorShape": {"dim": [{"size": "32"}]}}}}}, {"name": "model_27/tf.nn.convolution_226/convolution/filter", "op": "Const", "attr": {"dtype": {"type": "DT_FLOAT"}, "value": {"tensor": {"dtype": "DT_FLOAT", "tensorShape": {"dim": [{"size": "3"}, {"size": "3"}, {"size": "32"}, {"size": "32"}]}}}}}, {"name": "model_27/tf.math.add_323/Add/y", "op": "Const", "attr": {"value": {"tensor": {"dtype": "DT_FLOAT", "tensorShape": {"dim": [{"size": "32"}]}}}, "dtype": {"type": "DT_FLOAT"}}}, {"name": "model_27/tf.nn.convolution_227/convolution/filter", "op": "Const", "attr": {"value": {"tensor": {"dtype": "DT_FLOAT", "tensorShape": {"dim": [{"size": "3"}, {"size": "3"}, {"size": "32"}, {"size": "32"}]}}}, "dtype": {"type": "DT_FLOAT"}}}, {"name": "model_27/tf.math.add_324/Add/y", "op": "Const", "attr": {"value": {"tensor": {"dtype": "DT_FLOAT", "tensorShape": {"dim": [{"size": "32"}]}}}, "dtype": {"type": "DT_FLOAT"}}}, {"name": "model_27/tf.nn.convolution_228/convolution/filter", "op": "Const", "attr": {"value": {"tensor": {"dtype": "DT_FLOAT", "tensorShape": {"dim": [{"size": "3"}, {"size": "3"}, {"size": "32"}, {"size": "32"}]}}}, "dtype": {"type": "DT_FLOAT"}}}, {"name": "model_27/tf.math.add_327/Add/y", "op": "Const", "attr": {"dtype": {"type": "DT_FLOAT"}, "value": {"tensor": {"dtype": "DT_FLOAT", "tensorShape": {"dim": [{"size": "32"}]}}}}}, {"name": "model_27/tf.nn.convolution_229/convolution/filter", "op": "Const", "attr": {"value": {"tensor": {"dtype": "DT_FLOAT", "tensorShape": {"dim": [{"size": "3"}, {"size": "3"}, {"size": "32"}, {"size": "32"}]}}}, "dtype": {"type": "DT_FLOAT"}}}, {"name": "model_27/tf.math.add_328/Add/y", "op": "Const", "attr": {"dtype": {"type": "DT_FLOAT"}, "value": {"tensor": {"dtype": "DT_FLOAT", "tensorShape": {"dim": [{"size": "32"}]}}}}}, {"name": "model_27/tf.strided_slice_32/ones_like/tensor", "op": "Const", "attr": {"value": {"tensor": {"dtype": "DT_INT64", "tensorShape": {"dim": [{"size": "4"}]}}}, "dtype": {"type": "DT_INT64"}}}, {"name": "model_27/tf.strided_slice_32/StridedSlice/end", "op": "Const", "attr": {"dtype": {"type": "DT_INT64"}, "value": {"tensor": {"dtype": "DT_INT64", "tensorShape": {"dim": [{"size": "4"}]}}}}}, {"name": "model_27/tf.strided_slice_32/ones_like", "op": "Const", "attr": {"value": {"tensor": {"dtype": "DT_INT64", "tensorShape": {"dim": [{"size": "4"}]}}}, "dtype": {"type": "DT_INT64"}}}, {"name": "model_27/tf.nn.convolution_203/convolution/filter", "op": "Const", "attr": {"dtype": {"type": "DT_FLOAT"}, "value": {"tensor": {"dtype": "DT_FLOAT", "tensorShape": {"dim": [{"size": "1"}, {"size": "1"}, {"size": "48"}, {"size": "24"}]}}}}}, {"name": "model_27/tf.math.add_290/Add/y", "op": "Const", "attr": {"dtype": {"type": "DT_FLOAT"}, "value": {"tensor": {"dtype": "DT_FLOAT", "tensorShape": {"dim": [{"size": "24"}]}}}}}, {"name": "model_27/tf.nn.convolution_205/convolution/filter", "op": "Const", "attr": {"dtype": {"type": "DT_FLOAT"}, "value": {"tensor": {"dtype": "DT_FLOAT", "tensorShape": {"dim": [{"size": "3"}, {"size": "3"}, {"size": "24"}, {"size": "24"}]}}}}}, {"name": "model_27/tf.math.add_292/Add/y", "op": "Const", "attr": {"dtype": {"type": "DT_FLOAT"}, "value": {"tensor": {"dtype": "DT_FLOAT", "tensorShape": {"dim": [{"size": "24"}]}}}}}, {"name": "model_27/tf.nn.convolution_206/convolution/filter", "op": "Const", "attr": {"dtype": {"type": "DT_FLOAT"}, "value": {"tensor": {"dtype": "DT_FLOAT", "tensorShape": {"dim": [{"size": "3"}, {"size": "3"}, {"size": "24"}, {"size": "24"}]}}}}}, {"name": "model_27/tf.math.add_293/Add/y", "op": "Const", "attr": {"dtype": {"type": "DT_FLOAT"}, "value": {"tensor": {"dtype": "DT_FLOAT", "tensorShape": {"dim": [{"size": "24"}]}}}}}, {"name": "model_27/tf.nn.convolution_207/convolution/filter", "op": "Const", "attr": {"value": {"tensor": {"dtype": "DT_FLOAT", "tensorShape": {"dim": [{"size": "3"}, {"size": "3"}, {"size": "24"}, {"size": "24"}]}}}, "dtype": {"type": "DT_FLOAT"}}}, {"name": "model_27/tf.math.add_296/Add/y", "op": "Const", "attr": {"dtype": {"type": "DT_FLOAT"}, "value": {"tensor": {"dtype": "DT_FLOAT", "tensorShape": {"dim": [{"size": "24"}]}}}}}, {"name": "model_27/tf.nn.convolution_208/convolution/filter", "op": "Const", "attr": {"value": {"tensor": {"dtype": "DT_FLOAT", "tensorShape": {"dim": [{"size": "3"}, {"size": "3"}, {"size": "24"}, {"size": "24"}]}}}, "dtype": {"type": "DT_FLOAT"}}}, {"name": "model_27/tf.math.add_297/Add/y", "op": "Const", "attr": {"dtype": {"type": "DT_FLOAT"}, "value": {"tensor": {"dtype": "DT_FLOAT", "tensorShape": {"dim": [{"size": "24"}]}}}}}, {"name": "model_27/tf.nn.convolution_209/convolution/filter", "op": "Const", "attr": {"value": {"tensor": {"dtype": "DT_FLOAT", "tensorShape": {"dim": [{"size": "3"}, {"size": "3"}, {"size": "24"}, {"size": "24"}]}}}, "dtype": {"type": "DT_FLOAT"}}}, {"name": "model_27/tf.math.add_300/Add/y", "op": "Const", "attr": {"value": {"tensor": {"dtype": "DT_FLOAT", "tensorShape": {"dim": [{"size": "24"}]}}}, "dtype": {"type": "DT_FLOAT"}}}, {"name": "model_27/tf.nn.convolution_210/convolution/filter", "op": "Const", "attr": {"value": {"tensor": {"dtype": "DT_FLOAT", "tensorShape": {"dim": [{"size": "3"}, {"size": "3"}, {"size": "24"}, {"size": "24"}]}}}, "dtype": {"type": "DT_FLOAT"}}}, {"name": "model_27/tf.math.add_301/Add/y", "op": "Const", "attr": {"value": {"tensor": {"dtype": "DT_FLOAT", "tensorShape": {"dim": [{"size": "24"}]}}}, "dtype": {"type": "DT_FLOAT"}}}, {"name": "model_27/tf.nn.convolution_192/convolution/filter", "op": "Const", "attr": {"dtype": {"type": "DT_FLOAT"}, "value": {"tensor": {"dtype": "DT_FLOAT", "tensorShape": {"dim": [{"size": "1"}, {"size": "1"}, {"size": "48"}, {"size": "24"}]}}}}}, {"name": "model_27/tf.math.add_273/Add/y", "op": "Const", "attr": {"dtype": {"type": "DT_FLOAT"}, "value": {"tensor": {"dtype": "DT_FLOAT", "tensorShape": {"dim": [{"size": "24"}]}}}}}, {"name": "model_27/tf.nn.convolution_195/convolution/filter", "op": "Const", "attr": {"dtype": {"type": "DT_FLOAT"}, "value": {"tensor": {"dtype": "DT_FLOAT", "tensorShape": {"dim": [{"size": "3"}, {"size": "3"}, {"size": "24"}, {"size": "24"}]}}}}}, {"name": "model_27/tf.math.add_276/Add/y", "op": "Const", "attr": {"value": {"tensor": {"dtype": "DT_FLOAT", "tensorShape": {"dim": [{"size": "24"}]}}}, "dtype": {"type": "DT_FLOAT"}}}, {"name": "model_27/tf.nn.convolution_196/convolution/filter", "op": "Const", "attr": {"value": {"tensor": {"dtype": "DT_FLOAT", "tensorShape": {"dim": [{"size": "3"}, {"size": "3"}, {"size": "24"}, {"size": "24"}]}}}, "dtype": {"type": "DT_FLOAT"}}}, {"name": "model_27/tf.math.add_277/Add/y", "op": "Const", "attr": {"value": {"tensor": {"dtype": "DT_FLOAT", "tensorShape": {"dim": [{"size": "24"}]}}}, "dtype": {"type": "DT_FLOAT"}}}, {"name": "model_27/tf.nn.convolution_197/convolution/filter", "op": "Const", "attr": {"dtype": {"type": "DT_FLOAT"}, "value": {"tensor": {"dtype": "DT_FLOAT", "tensorShape": {"dim": [{"size": "3"}, {"size": "3"}, {"size": "24"}, {"size": "24"}]}}}}}, {"name": "model_27/tf.math.add_280/Add/y", "op": "Const", "attr": {"value": {"tensor": {"dtype": "DT_FLOAT", "tensorShape": {"dim": [{"size": "24"}]}}}, "dtype": {"type": "DT_FLOAT"}}}, {"name": "model_27/tf.nn.convolution_198/convolution/filter", "op": "Const", "attr": {"value": {"tensor": {"dtype": "DT_FLOAT", "tensorShape": {"dim": [{"size": "3"}, {"size": "3"}, {"size": "24"}, {"size": "24"}]}}}, "dtype": {"type": "DT_FLOAT"}}}, {"name": "model_27/tf.math.add_281/Add/y", "op": "Const", "attr": {"value": {"tensor": {"dtype": "DT_FLOAT", "tensorShape": {"dim": [{"size": "24"}]}}}, "dtype": {"type": "DT_FLOAT"}}}, {"name": "model_27/tf.nn.convolution_199/convolution/filter", "op": "Const", "attr": {"dtype": {"type": "DT_FLOAT"}, "value": {"tensor": {"dtype": "DT_FLOAT", "tensorShape": {"dim": [{"size": "3"}, {"size": "3"}, {"size": "24"}, {"size": "24"}]}}}}}, {"name": "model_27/tf.math.add_284/Add/y", "op": "Const", "attr": {"dtype": {"type": "DT_FLOAT"}, "value": {"tensor": {"dtype": "DT_FLOAT", "tensorShape": {"dim": [{"size": "24"}]}}}}}, {"name": "model_27/tf.nn.convolution_200/convolution/filter", "op": "Const", "attr": {"value": {"tensor": {"dtype": "DT_FLOAT", "tensorShape": {"dim": [{"size": "3"}, {"size": "3"}, {"size": "24"}, {"size": "24"}]}}}, "dtype": {"type": "DT_FLOAT"}}}, {"name": "model_27/tf.math.add_285/Add/y", "op": "Const", "attr": {"dtype": {"type": "DT_FLOAT"}, "value": {"tensor": {"dtype": "DT_FLOAT", "tensorShape": {"dim": [{"size": "24"}]}}}}}, {"name": "model_27/tf.strided_slice_30/ones_like/tensor", "op": "Const", "attr": {"value": {"tensor": {"dtype": "DT_INT64", "tensorShape": {"dim": [{"size": "4"}]}}}, "dtype": {"type": "DT_INT64"}}}, {"name": "model_27/tf.strided_slice_30/StridedSlice/end", "op": "Const", "attr": {"dtype": {"type": "DT_INT64"}, "value": {"tensor": {"dtype": "DT_INT64", "tensorShape": {"dim": [{"size": "4"}]}}}}}, {"name": "model_27/tf.strided_slice_30/ones_like", "op": "Const", "attr": {"value": {"tensor": {"dtype": "DT_INT64", "tensorShape": {"dim": [{"size": "4"}]}}}, "dtype": {"type": "DT_INT64"}}}, {"name": "model_27/tf.nn.convolution_174/convolution/filter", "op": "Const", "attr": {"dtype": {"type": "DT_FLOAT"}, "value": {"tensor": {"dtype": "DT_FLOAT", "tensorShape": {"dim": [{"size": "1"}, {"size": "1"}, {"size": "32"}, {"size": "16"}]}}}}}, {"name": "model_27/tf.math.add_247/Add/y", "op": "Const", "attr": {"value": {"tensor": {"dtype": "DT_FLOAT", "tensorShape": {"dim": [{"size": "16"}]}}}, "dtype": {"type": "DT_FLOAT"}}}, {"name": "model_27/tf.nn.convolution_176/convolution/filter", "op": "Const", "attr": {"value": {"tensor": {"dtype": "DT_FLOAT", "tensorShape": {"dim": [{"size": "3"}, {"size": "3"}, {"size": "16"}, {"size": "16"}]}}}, "dtype": {"type": "DT_FLOAT"}}}, {"name": "model_27/tf.math.add_249/Add/y", "op": "Const", "attr": {"dtype": {"type": "DT_FLOAT"}, "value": {"tensor": {"dtype": "DT_FLOAT", "tensorShape": {"dim": [{"size": "16"}]}}}}}, {"name": "model_27/tf.nn.convolution_177/convolution/filter", "op": "Const", "attr": {"value": {"tensor": {"dtype": "DT_FLOAT", "tensorShape": {"dim": [{"size": "3"}, {"size": "3"}, {"size": "16"}, {"size": "16"}]}}}, "dtype": {"type": "DT_FLOAT"}}}, {"name": "model_27/tf.math.add_250/Add/y", "op": "Const", "attr": {"dtype": {"type": "DT_FLOAT"}, "value": {"tensor": {"dtype": "DT_FLOAT", "tensorShape": {"dim": [{"size": "16"}]}}}}}, {"name": "model_27/tf.nn.convolution_178/convolution/filter", "op": "Const", "attr": {"dtype": {"type": "DT_FLOAT"}, "value": {"tensor": {"dtype": "DT_FLOAT", "tensorShape": {"dim": [{"size": "3"}, {"size": "3"}, {"size": "16"}, {"size": "16"}]}}}}}, {"name": "model_27/tf.math.add_253/Add/y", "op": "Const", "attr": {"value": {"tensor": {"dtype": "DT_FLOAT", "tensorShape": {"dim": [{"size": "16"}]}}}, "dtype": {"type": "DT_FLOAT"}}}, {"name": "model_27/tf.nn.convolution_179/convolution/filter", "op": "Const", "attr": {"dtype": {"type": "DT_FLOAT"}, "value": {"tensor": {"dtype": "DT_FLOAT", "tensorShape": {"dim": [{"size": "3"}, {"size": "3"}, {"size": "16"}, {"size": "16"}]}}}}}, {"name": "model_27/tf.math.add_254/Add/y", "op": "Const", "attr": {"dtype": {"type": "DT_FLOAT"}, "value": {"tensor": {"dtype": "DT_FLOAT", "tensorShape": {"dim": [{"size": "16"}]}}}}}, {"name": "model_27/tf.nn.convolution_180/convolution/filter", "op": "Const", "attr": {"dtype": {"type": "DT_FLOAT"}, "value": {"tensor": {"dtype": "DT_FLOAT", "tensorShape": {"dim": [{"size": "3"}, {"size": "3"}, {"size": "16"}, {"size": "16"}]}}}}}, {"name": "model_27/tf.math.add_257/Add/y", "op": "Const", "attr": {"dtype": {"type": "DT_FLOAT"}, "value": {"tensor": {"dtype": "DT_FLOAT", "tensorShape": {"dim": [{"size": "16"}]}}}}}, {"name": "model_27/tf.nn.convolution_181/convolution/filter", "op": "Const", "attr": {"dtype": {"type": "DT_FLOAT"}, "value": {"tensor": {"dtype": "DT_FLOAT", "tensorShape": {"dim": [{"size": "3"}, {"size": "3"}, {"size": "16"}, {"size": "16"}]}}}}}, {"name": "model_27/tf.math.add_258/Add/y", "op": "Const", "attr": {"value": {"tensor": {"dtype": "DT_FLOAT", "tensorShape": {"dim": [{"size": "16"}]}}}, "dtype": {"type": "DT_FLOAT"}}}, {"name": "model_27/tf.nn.convolution_164/convolution/filter", "op": "Const", "attr": {"value": {"tensor": {"dtype": "DT_FLOAT", "tensorShape": {"dim": [{"size": "1"}, {"size": "1"}, {"size": "32"}, {"size": "16"}]}}}, "dtype": {"type": "DT_FLOAT"}}}, {"name": "model_27/tf.math.add_231/Add/y", "op": "Const", "attr": {"value": {"tensor": {"dtype": "DT_FLOAT", "tensorShape": {"dim": [{"size": "16"}]}}}, "dtype": {"type": "DT_FLOAT"}}}, {"name": "model_27/tf.nn.convolution_166/convolution/filter", "op": "Const", "attr": {"value": {"tensor": {"dtype": "DT_FLOAT", "tensorShape": {"dim": [{"size": "3"}, {"size": "3"}, {"size": "16"}, {"size": "16"}]}}}, "dtype": {"type": "DT_FLOAT"}}}, {"name": "model_27/tf.math.add_233/Add/y", "op": "Const", "attr": {"dtype": {"type": "DT_FLOAT"}, "value": {"tensor": {"dtype": "DT_FLOAT", "tensorShape": {"dim": [{"size": "16"}]}}}}}, {"name": "model_27/tf.nn.convolution_167/convolution/filter", "op": "Const", "attr": {"value": {"tensor": {"dtype": "DT_FLOAT", "tensorShape": {"dim": [{"size": "3"}, {"size": "3"}, {"size": "16"}, {"size": "16"}]}}}, "dtype": {"type": "DT_FLOAT"}}}, {"name": "model_27/tf.math.add_234/Add/y", "op": "Const", "attr": {"dtype": {"type": "DT_FLOAT"}, "value": {"tensor": {"dtype": "DT_FLOAT", "tensorShape": {"dim": [{"size": "16"}]}}}}}, {"name": "model_27/tf.nn.convolution_168/convolution/filter", "op": "Const", "attr": {"dtype": {"type": "DT_FLOAT"}, "value": {"tensor": {"dtype": "DT_FLOAT", "tensorShape": {"dim": [{"size": "3"}, {"size": "3"}, {"size": "16"}, {"size": "16"}]}}}}}, {"name": "model_27/tf.math.add_237/Add/y", "op": "Const", "attr": {"value": {"tensor": {"dtype": "DT_FLOAT", "tensorShape": {"dim": [{"size": "16"}]}}}, "dtype": {"type": "DT_FLOAT"}}}, {"name": "model_27/tf.nn.convolution_169/convolution/filter", "op": "Const", "attr": {"dtype": {"type": "DT_FLOAT"}, "value": {"tensor": {"dtype": "DT_FLOAT", "tensorShape": {"dim": [{"size": "3"}, {"size": "3"}, {"size": "16"}, {"size": "16"}]}}}}}, {"name": "model_27/tf.math.add_238/Add/y", "op": "Const", "attr": {"value": {"tensor": {"dtype": "DT_FLOAT", "tensorShape": {"dim": [{"size": "16"}]}}}, "dtype": {"type": "DT_FLOAT"}}}, {"name": "model_27/tf.nn.convolution_170/convolution/filter", "op": "Const", "attr": {"value": {"tensor": {"dtype": "DT_FLOAT", "tensorShape": {"dim": [{"size": "3"}, {"size": "3"}, {"size": "16"}, {"size": "16"}]}}}, "dtype": {"type": "DT_FLOAT"}}}, {"name": "model_27/tf.math.add_241/Add/y", "op": "Const", "attr": {"dtype": {"type": "DT_FLOAT"}, "value": {"tensor": {"dtype": "DT_FLOAT", "tensorShape": {"dim": [{"size": "16"}]}}}}}, {"name": "model_27/tf.nn.convolution_171/convolution/filter", "op": "Const", "attr": {"value": {"tensor": {"dtype": "DT_FLOAT", "tensorShape": {"dim": [{"size": "3"}, {"size": "3"}, {"size": "16"}, {"size": "16"}]}}}, "dtype": {"type": "DT_FLOAT"}}}, {"name": "model_27/tf.math.add_242/Add/y", "op": "Const", "attr": {"value": {"tensor": {"dtype": "DT_FLOAT", "tensorShape": {"dim": [{"size": "16"}]}}}, "dtype": {"type": "DT_FLOAT"}}}, {"name": "model_27/tf.image.resize_3/resize/size", "op": "Const", "attr": {"value": {"tensor": {"dtype": "DT_INT32", "tensorShape": {"dim": [{"size": "2"}]}}}, "dtype": {"type": "DT_INT32"}}}, {"name": "model_27/tf.concat_37/concat/axis", "op": "Const", "attr": {"value": {"tensor": {"dtype": "DT_INT32", "tensorShape": {}}}, "dtype": {"type": "DT_INT32"}}}, {"name": "model_27/tf.nn.convolution_163/convolution/filter", "op": "Const", "attr": {"value": {"tensor": {"dtype": "DT_FLOAT", "tensorShape": {"dim": [{"size": "1"}, {"size": "1"}, {"size": "160"}, {"size": "64"}]}}}, "dtype": {"type": "DT_FLOAT"}}}, {"name": "model_27/tf.math.add_230/Add/y", "op": "Const", "attr": {"dtype": {"type": "DT_FLOAT"}, "value": {"tensor": {"dtype": "DT_FLOAT", "tensorShape": {"dim": [{"size": "64"}]}}}}}, {"name": "model_27/tf.strided_slice_31/ones_like/tensor", "op": "Const", "attr": {"value": {"tensor": {"dtype": "DT_INT64", "tensorShape": {"dim": [{"size": "4"}]}}}, "dtype": {"type": "DT_INT64"}}}, {"name": "model_27/tf.strided_slice_31/StridedSlice/end", "op": "Const", "attr": {"value": {"tensor": {"dtype": "DT_INT64", "tensorShape": {"dim": [{"size": "4"}]}}}, "dtype": {"type": "DT_INT64"}}}, {"name": "model_27/tf.strided_slice_31/ones_like", "op": "Const", "attr": {"dtype": {"type": "DT_INT64"}, "value": {"tensor": {"dtype": "DT_INT64", "tensorShape": {"dim": [{"size": "4"}]}}}}}, {"name": "model_27/tf.nn.convolution_165/convolution/filter", "op": "Const", "attr": {"value": {"tensor": {"dtype": "DT_FLOAT", "tensorShape": {"dim": [{"size": "1"}, {"size": "1"}, {"size": "32"}, {"size": "16"}]}}}, "dtype": {"type": "DT_FLOAT"}}}, {"name": "model_27/tf.math.add_232/Add/y", "op": "Const", "attr": {"value": {"tensor": {"dtype": "DT_FLOAT", "tensorShape": {"dim": [{"size": "16"}]}}}, "dtype": {"type": "DT_FLOAT"}}}, {"name": "model_27/tf.concat_38/concat/axis", "op": "Const", "attr": {"value": {"tensor": {"dtype": "DT_INT32", "tensorShape": {}}}, "dtype": {"type": "DT_INT32"}}}, {"name": "model_27/tf.nn.convolution_172/convolution/filter", "op": "Const", "attr": {"dtype": {"type": "DT_FLOAT"}, "value": {"tensor": {"dtype": "DT_FLOAT", "tensorShape": {"dim": [{"size": "1"}, {"size": "1"}, {"size": "32"}, {"size": "32"}]}}}}}, {"name": "model_27/tf.math.add_245/Add/y", "op": "Const", "attr": {"dtype": {"type": "DT_FLOAT"}, "value": {"tensor": {"dtype": "DT_FLOAT", "tensorShape": {"dim": [{"size": "32"}]}}}}}, {"name": "model_27/tf.nn.convolution_173/convolution/filter", "op": "Const", "attr": {"value": {"tensor": {"dtype": "DT_FLOAT", "tensorShape": {"dim": [{"size": "3"}, {"size": "3"}, {"size": "32"}, {"size": "32"}]}}}, "dtype": {"type": "DT_FLOAT"}}}, {"name": "model_27/tf.math.add_246/Add/y", "op": "Const", "attr": {"value": {"tensor": {"dtype": "DT_FLOAT", "tensorShape": {"dim": [{"size": "32"}]}}}, "dtype": {"type": "DT_FLOAT"}}}, {"name": "model_27/tf.nn.convolution_175/convolution/filter", "op": "Const", "attr": {"dtype": {"type": "DT_FLOAT"}, "value": {"tensor": {"dtype": "DT_FLOAT", "tensorShape": {"dim": [{"size": "1"}, {"size": "1"}, {"size": "32"}, {"size": "16"}]}}}}}, {"name": "model_27/tf.math.add_248/Add/y", "op": "Const", "attr": {"dtype": {"type": "DT_FLOAT"}, "value": {"tensor": {"dtype": "DT_FLOAT", "tensorShape": {"dim": [{"size": "16"}]}}}}}, {"name": "model_27/tf.concat_39/concat/axis", "op": "Const", "attr": {"dtype": {"type": "DT_INT32"}, "value": {"tensor": {"dtype": "DT_INT32", "tensorShape": {}}}}}, {"name": "model_27/tf.nn.convolution_182/convolution/filter", "op": "Const", "attr": {"value": {"tensor": {"dtype": "DT_FLOAT", "tensorShape": {"dim": [{"size": "1"}, {"size": "1"}, {"size": "32"}, {"size": "32"}]}}}, "dtype": {"type": "DT_FLOAT"}}}, {"name": "model_27/tf.math.add_261/Add/y", "op": "Const", "attr": {"dtype": {"type": "DT_FLOAT"}, "value": {"tensor": {"dtype": "DT_FLOAT", "tensorShape": {"dim": [{"size": "32"}]}}}}}, {"name": "model_27/tf.nn.convolution_183/convolution/filter", "op": "Const", "attr": {"value": {"tensor": {"dtype": "DT_FLOAT", "tensorShape": {"dim": [{"size": "3"}, {"size": "3"}, {"size": "32"}, {"size": "32"}]}}}, "dtype": {"type": "DT_FLOAT"}}}, {"name": "model_27/tf.math.add_262/Add/y", "op": "Const", "attr": {"value": {"tensor": {"dtype": "DT_FLOAT", "tensorShape": {"dim": [{"size": "32"}]}}}, "dtype": {"type": "DT_FLOAT"}}}, {"name": "model_27/tf.concat_40/concat/axis", "op": "Const", "attr": {"value": {"tensor": {"dtype": "DT_INT32", "tensorShape": {}}}, "dtype": {"type": "DT_INT32"}}}, {"name": "model_27/tf.nn.convolution_184/convolution/filter", "op": "Const", "attr": {"value": {"tensor": {"dtype": "DT_FLOAT", "tensorShape": {"dim": [{"size": "1"}, {"size": "1"}, {"size": "128"}, {"size": "64"}]}}}, "dtype": {"type": "DT_FLOAT"}}}, {"name": "model_27/tf.math.add_263/Add/y", "op": "Const", "attr": {"value": {"tensor": {"dtype": "DT_FLOAT", "tensorShape": {"dim": [{"size": "64"}]}}}, "dtype": {"type": "DT_FLOAT"}}}, {"name": "model_27/tf.compat.v1.pad_12/Pad/paddings", "op": "Const", "attr": {"dtype": {"type": "DT_INT32"}, "value": {"tensor": {"dtype": "DT_INT32", "tensorShape": {"dim": [{"size": "4"}, {"size": "2"}]}}}}}, {"name": "model_27/tf.nn.convolution_186/convolution/filter", "op": "Const", "attr": {"dtype": {"type": "DT_FLOAT"}, "value": {"tensor": {"dtype": "DT_FLOAT", "tensorShape": {"dim": [{"size": "3"}, {"size": "3"}, {"size": "64"}, {"size": "48"}]}}}}}, {"name": "model_27/tf.math.add_266/Add/y", "op": "Const", "attr": {"value": {"tensor": {"dtype": "DT_FLOAT", "tensorShape": {"dim": [{"size": "48"}]}}}, "dtype": {"type": "DT_FLOAT"}}}, {"name": "model_27/tf.strided_slice_28/ones_like/tensor", "op": "Const", "attr": {"value": {"tensor": {"dtype": "DT_INT64", "tensorShape": {"dim": [{"size": "4"}]}}}, "dtype": {"type": "DT_INT64"}}}, {"name": "model_27/tf.strided_slice_28/StridedSlice/end", "op": "Const", "attr": {"dtype": {"type": "DT_INT64"}, "value": {"tensor": {"dtype": "DT_INT64", "tensorShape": {"dim": [{"size": "4"}]}}}}}, {"name": "model_27/tf.strided_slice_28/ones_like", "op": "Const", "attr": {"value": {"tensor": {"dtype": "DT_INT64", "tensorShape": {"dim": [{"size": "4"}]}}}, "dtype": {"type": "DT_INT64"}}}, {"name": "model_27/tf.nn.convolution_152/convolution/filter", "op": "Const", "attr": {"value": {"tensor": {"dtype": "DT_FLOAT", "tensorShape": {"dim": [{"size": "1"}, {"size": "1"}, {"size": "48"}, {"size": "24"}]}}}, "dtype": {"type": "DT_FLOAT"}}}, {"name": "model_27/tf.math.add_213/Add/y", "op": "Const", "attr": {"dtype": {"type": "DT_FLOAT"}, "value": {"tensor": {"dtype": "DT_FLOAT", "tensorShape": {"dim": [{"size": "24"}]}}}}}, {"name": "model_27/tf.nn.convolution_154/convolution/filter", "op": "Const", "attr": {"value": {"tensor": {"dtype": "DT_FLOAT", "tensorShape": {"dim": [{"size": "3"}, {"size": "3"}, {"size": "24"}, {"size": "24"}]}}}, "dtype": {"type": "DT_FLOAT"}}}, {"name": "model_27/tf.math.add_215/Add/y", "op": "Const", "attr": {"dtype": {"type": "DT_FLOAT"}, "value": {"tensor": {"dtype": "DT_FLOAT", "tensorShape": {"dim": [{"size": "24"}]}}}}}, {"name": "model_27/tf.nn.convolution_155/convolution/filter", "op": "Const", "attr": {"value": {"tensor": {"dtype": "DT_FLOAT", "tensorShape": {"dim": [{"size": "3"}, {"size": "3"}, {"size": "24"}, {"size": "24"}]}}}, "dtype": {"type": "DT_FLOAT"}}}, {"name": "model_27/tf.math.add_216/Add/y", "op": "Const", "attr": {"value": {"tensor": {"dtype": "DT_FLOAT", "tensorShape": {"dim": [{"size": "24"}]}}}, "dtype": {"type": "DT_FLOAT"}}}, {"name": "model_27/tf.nn.convolution_156/convolution/filter", "op": "Const", "attr": {"dtype": {"type": "DT_FLOAT"}, "value": {"tensor": {"dtype": "DT_FLOAT", "tensorShape": {"dim": [{"size": "3"}, {"size": "3"}, {"size": "24"}, {"size": "24"}]}}}}}, {"name": "model_27/tf.math.add_219/Add/y", "op": "Const", "attr": {"dtype": {"type": "DT_FLOAT"}, "value": {"tensor": {"dtype": "DT_FLOAT", "tensorShape": {"dim": [{"size": "24"}]}}}}}, {"name": "model_27/tf.nn.convolution_157/convolution/filter", "op": "Const", "attr": {"value": {"tensor": {"dtype": "DT_FLOAT", "tensorShape": {"dim": [{"size": "3"}, {"size": "3"}, {"size": "24"}, {"size": "24"}]}}}, "dtype": {"type": "DT_FLOAT"}}}, {"name": "model_27/tf.math.add_220/Add/y", "op": "Const", "attr": {"dtype": {"type": "DT_FLOAT"}, "value": {"tensor": {"dtype": "DT_FLOAT", "tensorShape": {"dim": [{"size": "24"}]}}}}}, {"name": "model_27/tf.nn.convolution_158/convolution/filter", "op": "Const", "attr": {"value": {"tensor": {"dtype": "DT_FLOAT", "tensorShape": {"dim": [{"size": "3"}, {"size": "3"}, {"size": "24"}, {"size": "24"}]}}}, "dtype": {"type": "DT_FLOAT"}}}, {"name": "model_27/tf.math.add_223/Add/y", "op": "Const", "attr": {"value": {"tensor": {"dtype": "DT_FLOAT", "tensorShape": {"dim": [{"size": "24"}]}}}, "dtype": {"type": "DT_FLOAT"}}}, {"name": "model_27/tf.nn.convolution_159/convolution/filter", "op": "Const", "attr": {"value": {"tensor": {"dtype": "DT_FLOAT", "tensorShape": {"dim": [{"size": "3"}, {"size": "3"}, {"size": "24"}, {"size": "24"}]}}}, "dtype": {"type": "DT_FLOAT"}}}, {"name": "model_27/tf.math.add_224/Add/y", "op": "Const", "attr": {"dtype": {"type": "DT_FLOAT"}, "value": {"tensor": {"dtype": "DT_FLOAT", "tensorShape": {"dim": [{"size": "24"}]}}}}}, {"name": "model_27/tf.nn.convolution_142/convolution/filter", "op": "Const", "attr": {"dtype": {"type": "DT_FLOAT"}, "value": {"tensor": {"dtype": "DT_FLOAT", "tensorShape": {"dim": [{"size": "1"}, {"size": "1"}, {"size": "48"}, {"size": "24"}]}}}}}, {"name": "model_27/tf.math.add_197/Add/y", "op": "Const", "attr": {"dtype": {"type": "DT_FLOAT"}, "value": {"tensor": {"dtype": "DT_FLOAT", "tensorShape": {"dim": [{"size": "24"}]}}}}}, {"name": "model_27/tf.nn.convolution_144/convolution/filter", "op": "Const", "attr": {"dtype": {"type": "DT_FLOAT"}, "value": {"tensor": {"dtype": "DT_FLOAT", "tensorShape": {"dim": [{"size": "3"}, {"size": "3"}, {"size": "24"}, {"size": "24"}]}}}}}, {"name": "model_27/tf.math.add_199/Add/y", "op": "Const", "attr": {"dtype": {"type": "DT_FLOAT"}, "value": {"tensor": {"dtype": "DT_FLOAT", "tensorShape": {"dim": [{"size": "24"}]}}}}}, {"name": "model_27/tf.nn.convolution_145/convolution/filter", "op": "Const", "attr": {"value": {"tensor": {"dtype": "DT_FLOAT", "tensorShape": {"dim": [{"size": "3"}, {"size": "3"}, {"size": "24"}, {"size": "24"}]}}}, "dtype": {"type": "DT_FLOAT"}}}, {"name": "model_27/tf.math.add_200/Add/y", "op": "Const", "attr": {"value": {"tensor": {"dtype": "DT_FLOAT", "tensorShape": {"dim": [{"size": "24"}]}}}, "dtype": {"type": "DT_FLOAT"}}}, {"name": "model_27/tf.nn.convolution_146/convolution/filter", "op": "Const", "attr": {"value": {"tensor": {"dtype": "DT_FLOAT", "tensorShape": {"dim": [{"size": "3"}, {"size": "3"}, {"size": "24"}, {"size": "24"}]}}}, "dtype": {"type": "DT_FLOAT"}}}, {"name": "model_27/tf.math.add_203/Add/y", "op": "Const", "attr": {"dtype": {"type": "DT_FLOAT"}, "value": {"tensor": {"dtype": "DT_FLOAT", "tensorShape": {"dim": [{"size": "24"}]}}}}}, {"name": "model_27/tf.nn.convolution_147/convolution/filter", "op": "Const", "attr": {"dtype": {"type": "DT_FLOAT"}, "value": {"tensor": {"dtype": "DT_FLOAT", "tensorShape": {"dim": [{"size": "3"}, {"size": "3"}, {"size": "24"}, {"size": "24"}]}}}}}, {"name": "model_27/tf.math.add_204/Add/y", "op": "Const", "attr": {"dtype": {"type": "DT_FLOAT"}, "value": {"tensor": {"dtype": "DT_FLOAT", "tensorShape": {"dim": [{"size": "24"}]}}}}}, {"name": "model_27/tf.nn.convolution_148/convolution/filter", "op": "Const", "attr": {"dtype": {"type": "DT_FLOAT"}, "value": {"tensor": {"dtype": "DT_FLOAT", "tensorShape": {"dim": [{"size": "3"}, {"size": "3"}, {"size": "24"}, {"size": "24"}]}}}}}, {"name": "model_27/tf.math.add_207/Add/y", "op": "Const", "attr": {"value": {"tensor": {"dtype": "DT_FLOAT", "tensorShape": {"dim": [{"size": "24"}]}}}, "dtype": {"type": "DT_FLOAT"}}}, {"name": "model_27/tf.nn.convolution_149/convolution/filter", "op": "Const", "attr": {"dtype": {"type": "DT_FLOAT"}, "value": {"tensor": {"dtype": "DT_FLOAT", "tensorShape": {"dim": [{"size": "3"}, {"size": "3"}, {"size": "24"}, {"size": "24"}]}}}}}, {"name": "model_27/tf.math.add_208/Add/y", "op": "Const", "attr": {"value": {"tensor": {"dtype": "DT_FLOAT", "tensorShape": {"dim": [{"size": "24"}]}}}, "dtype": {"type": "DT_FLOAT"}}}, {"name": "model_27/tf.image.resize_2/resize/size", "op": "Const", "attr": {"dtype": {"type": "DT_INT32"}, "value": {"tensor": {"dtype": "DT_INT32", "tensorShape": {"dim": [{"size": "2"}]}}}}}, {"name": "model_27/tf.concat_33/concat/axis", "op": "Const", "attr": {"dtype": {"type": "DT_INT32"}, "value": {"tensor": {"dtype": "DT_INT32", "tensorShape": {}}}}}, {"name": "model_27/tf.nn.convolution_141/convolution/filter", "op": "Const", "attr": {"dtype": {"type": "DT_FLOAT"}, "value": {"tensor": {"dtype": "DT_FLOAT", "tensorShape": {"dim": [{"size": "1"}, {"size": "1"}, {"size": "224"}, {"size": "96"}]}}}}}, {"name": "model_27/tf.math.add_196/Add/y", "op": "Const", "attr": {"value": {"tensor": {"dtype": "DT_FLOAT", "tensorShape": {"dim": [{"size": "96"}]}}}, "dtype": {"type": "DT_FLOAT"}}}, {"name": "model_27/tf.strided_slice_29/ones_like/tensor", "op": "Const", "attr": {"dtype": {"type": "DT_INT64"}, "value": {"tensor": {"dtype": "DT_INT64", "tensorShape": {"dim": [{"size": "4"}]}}}}}, {"name": "model_27/tf.strided_slice_29/StridedSlice/end", "op": "Const", "attr": {"dtype": {"type": "DT_INT64"}, "value": {"tensor": {"dtype": "DT_INT64", "tensorShape": {"dim": [{"size": "4"}]}}}}}, {"name": "model_27/tf.strided_slice_29/ones_like", "op": "Const", "attr": {"dtype": {"type": "DT_INT64"}, "value": {"tensor": {"dtype": "DT_INT64", "tensorShape": {"dim": [{"size": "4"}]}}}}}, {"name": "model_27/tf.nn.convolution_143/convolution/filter", "op": "Const", "attr": {"value": {"tensor": {"dtype": "DT_FLOAT", "tensorShape": {"dim": [{"size": "1"}, {"size": "1"}, {"size": "48"}, {"size": "24"}]}}}, "dtype": {"type": "DT_FLOAT"}}}, {"name": "model_27/tf.math.add_198/Add/y", "op": "Const", "attr": {"value": {"tensor": {"dtype": "DT_FLOAT", "tensorShape": {"dim": [{"size": "24"}]}}}, "dtype": {"type": "DT_FLOAT"}}}, {"name": "model_27/tf.concat_34/concat/axis", "op": "Const", "attr": {"value": {"tensor": {"dtype": "DT_INT32", "tensorShape": {}}}, "dtype": {"type": "DT_INT32"}}}, {"name": "model_27/tf.nn.convolution_150/convolution/filter", "op": "Const", "attr": {"value": {"tensor": {"dtype": "DT_FLOAT", "tensorShape": {"dim": [{"size": "1"}, {"size": "1"}, {"size": "48"}, {"size": "48"}]}}}, "dtype": {"type": "DT_FLOAT"}}}, {"name": "model_27/tf.math.add_211/Add/y", "op": "Const", "attr": {"dtype": {"type": "DT_FLOAT"}, "value": {"tensor": {"dtype": "DT_FLOAT", "tensorShape": {"dim": [{"size": "48"}]}}}}}, {"name": "model_27/tf.nn.convolution_151/convolution/filter", "op": "Const", "attr": {"dtype": {"type": "DT_FLOAT"}, "value": {"tensor": {"dtype": "DT_FLOAT", "tensorShape": {"dim": [{"size": "3"}, {"size": "3"}, {"size": "48"}, {"size": "48"}]}}}}}, {"name": "model_27/tf.math.add_212/Add/y", "op": "Const", "attr": {"dtype": {"type": "DT_FLOAT"}, "value": {"tensor": {"dtype": "DT_FLOAT", "tensorShape": {"dim": [{"size": "48"}]}}}}}, {"name": "model_27/tf.nn.convolution_153/convolution/filter", "op": "Const", "attr": {"value": {"tensor": {"dtype": "DT_FLOAT", "tensorShape": {"dim": [{"size": "1"}, {"size": "1"}, {"size": "48"}, {"size": "24"}]}}}, "dtype": {"type": "DT_FLOAT"}}}, {"name": "model_27/tf.math.add_214/Add/y", "op": "Const", "attr": {"value": {"tensor": {"dtype": "DT_FLOAT", "tensorShape": {"dim": [{"size": "24"}]}}}, "dtype": {"type": "DT_FLOAT"}}}, {"name": "model_27/tf.concat_35/concat/axis", "op": "Const", "attr": {"dtype": {"type": "DT_INT32"}, "value": {"tensor": {"dtype": "DT_INT32", "tensorShape": {}}}}}, {"name": "model_27/tf.nn.convolution_160/convolution/filter", "op": "Const", "attr": {"dtype": {"type": "DT_FLOAT"}, "value": {"tensor": {"dtype": "DT_FLOAT", "tensorShape": {"dim": [{"size": "1"}, {"size": "1"}, {"size": "48"}, {"size": "48"}]}}}}}, {"name": "model_27/tf.math.add_227/Add/y", "op": "Const", "attr": {"value": {"tensor": {"dtype": "DT_FLOAT", "tensorShape": {"dim": [{"size": "48"}]}}}, "dtype": {"type": "DT_FLOAT"}}}, {"name": "model_27/tf.nn.convolution_161/convolution/filter", "op": "Const", "attr": {"value": {"tensor": {"dtype": "DT_FLOAT", "tensorShape": {"dim": [{"size": "3"}, {"size": "3"}, {"size": "48"}, {"size": "48"}]}}}, "dtype": {"type": "DT_FLOAT"}}}, {"name": "model_27/tf.math.add_228/Add/y", "op": "Const", "attr": {"value": {"tensor": {"dtype": "DT_FLOAT", "tensorShape": {"dim": [{"size": "48"}]}}}, "dtype": {"type": "DT_FLOAT"}}}, {"name": "model_27/tf.concat_36/concat/axis", "op": "Const", "attr": {"value": {"tensor": {"dtype": "DT_INT32", "tensorShape": {}}}, "dtype": {"type": "DT_INT32"}}}, {"name": "model_27/tf.nn.convolution_162/convolution/filter", "op": "Const", "attr": {"value": {"tensor": {"dtype": "DT_FLOAT", "tensorShape": {"dim": [{"size": "1"}, {"size": "1"}, {"size": "192"}, {"size": "96"}]}}}, "dtype": {"type": "DT_FLOAT"}}}, {"name": "model_27/tf.math.add_229/Add/y", "op": "Const", "attr": {"value": {"tensor": {"dtype": "DT_FLOAT", "tensorShape": {"dim": [{"size": "96"}]}}}, "dtype": {"type": "DT_FLOAT"}}}, {"name": "model_27/tf.concat_41/concat/axis", "op": "Const", "attr": {"dtype": {"type": "DT_INT32"}, "value": {"tensor": {"dtype": "DT_INT32", "tensorShape": {}}}}}, {"name": "model_27/tf.nn.convolution_189/convolution/filter", "op": "Const", "attr": {"value": {"tensor": {"dtype": "DT_FLOAT", "tensorShape": {"dim": [{"size": "1"}, {"size": "1"}, {"size": "144"}, {"size": "96"}]}}}, "dtype": {"type": "DT_FLOAT"}}}, {"name": "model_27/tf.math.add_269/Add/y", "op": "Const", "attr": {"value": {"tensor": {"dtype": "DT_FLOAT", "tensorShape": {"dim": [{"size": "96"}]}}}, "dtype": {"type": "DT_FLOAT"}}}, {"name": "model_27/tf.strided_slice_33/ones_like/tensor", "op": "Const", "attr": {"dtype": {"type": "DT_INT64"}, "value": {"tensor": {"dtype": "DT_INT64", "tensorShape": {"dim": [{"size": "4"}]}}}}}, {"name": "model_27/tf.strided_slice_33/StridedSlice/end", "op": "Const", "attr": {"value": {"tensor": {"dtype": "DT_INT64", "tensorShape": {"dim": [{"size": "4"}]}}}, "dtype": {"type": "DT_INT64"}}}, {"name": "model_27/tf.strided_slice_33/ones_like", "op": "Const", "attr": {"dtype": {"type": "DT_INT64"}, "value": {"tensor": {"dtype": "DT_INT64", "tensorShape": {"dim": [{"size": "4"}]}}}}}, {"name": "model_27/tf.nn.convolution_193/convolution/filter", "op": "Const", "attr": {"value": {"tensor": {"dtype": "DT_FLOAT", "tensorShape": {"dim": [{"size": "1"}, {"size": "1"}, {"size": "48"}, {"size": "24"}]}}}, "dtype": {"type": "DT_FLOAT"}}}, {"name": "model_27/tf.math.add_274/Add/y", "op": "Const", "attr": {"dtype": {"type": "DT_FLOAT"}, "value": {"tensor": {"dtype": "DT_FLOAT", "tensorShape": {"dim": [{"size": "24"}]}}}}}, {"name": "model_27/tf.concat_43/concat/axis", "op": "Const", "attr": {"dtype": {"type": "DT_INT32"}, "value": {"tensor": {"dtype": "DT_INT32", "tensorShape": {}}}}}, {"name": "model_27/tf.nn.convolution_201/convolution/filter", "op": "Const", "attr": {"value": {"tensor": {"dtype": "DT_FLOAT", "tensorShape": {"dim": [{"size": "1"}, {"size": "1"}, {"size": "48"}, {"size": "48"}]}}}, "dtype": {"type": "DT_FLOAT"}}}, {"name": "model_27/tf.math.add_288/Add/y", "op": "Const", "attr": {"dtype": {"type": "DT_FLOAT"}, "value": {"tensor": {"dtype": "DT_FLOAT", "tensorShape": {"dim": [{"size": "48"}]}}}}}, {"name": "model_27/tf.nn.convolution_202/convolution/filter", "op": "Const", "attr": {"dtype": {"type": "DT_FLOAT"}, "value": {"tensor": {"dtype": "DT_FLOAT", "tensorShape": {"dim": [{"size": "3"}, {"size": "3"}, {"size": "48"}, {"size": "48"}]}}}}}, {"name": "model_27/tf.math.add_289/Add/y", "op": "Const", "attr": {"dtype": {"type": "DT_FLOAT"}, "value": {"tensor": {"dtype": "DT_FLOAT", "tensorShape": {"dim": [{"size": "48"}]}}}}}, {"name": "model_27/tf.nn.convolution_204/convolution/filter", "op": "Const", "attr": {"dtype": {"type": "DT_FLOAT"}, "value": {"tensor": {"dtype": "DT_FLOAT", "tensorShape": {"dim": [{"size": "1"}, {"size": "1"}, {"size": "48"}, {"size": "24"}]}}}}}, {"name": "model_27/tf.math.add_291/Add/y", "op": "Const", "attr": {"value": {"tensor": {"dtype": "DT_FLOAT", "tensorShape": {"dim": [{"size": "24"}]}}}, "dtype": {"type": "DT_FLOAT"}}}, {"name": "model_27/tf.concat_44/concat/axis", "op": "Const", "attr": {"value": {"tensor": {"dtype": "DT_INT32", "tensorShape": {}}}, "dtype": {"type": "DT_INT32"}}}, {"name": "model_27/tf.nn.convolution_211/convolution/filter", "op": "Const", "attr": {"dtype": {"type": "DT_FLOAT"}, "value": {"tensor": {"dtype": "DT_FLOAT", "tensorShape": {"dim": [{"size": "1"}, {"size": "1"}, {"size": "48"}, {"size": "48"}]}}}}}, {"name": "model_27/tf.math.add_304/Add/y", "op": "Const", "attr": {"value": {"tensor": {"dtype": "DT_FLOAT", "tensorShape": {"dim": [{"size": "48"}]}}}, "dtype": {"type": "DT_FLOAT"}}}, {"name": "model_27/tf.nn.convolution_212/convolution/filter", "op": "Const", "attr": {"dtype": {"type": "DT_FLOAT"}, "value": {"tensor": {"dtype": "DT_FLOAT", "tensorShape": {"dim": [{"size": "3"}, {"size": "3"}, {"size": "48"}, {"size": "48"}]}}}}}, {"name": "model_27/tf.math.add_305/Add/y", "op": "Const", "attr": {"value": {"tensor": {"dtype": "DT_FLOAT", "tensorShape": {"dim": [{"size": "48"}]}}}, "dtype": {"type": "DT_FLOAT"}}}, {"name": "model_27/tf.concat_45/concat/axis", "op": "Const", "attr": {"value": {"tensor": {"dtype": "DT_INT32", "tensorShape": {}}}, "dtype": {"type": "DT_INT32"}}}, {"name": "model_27/tf.nn.convolution_213/convolution/filter", "op": "Const", "attr": {"value": {"tensor": {"dtype": "DT_FLOAT", "tensorShape": {"dim": [{"size": "1"}, {"size": "1"}, {"size": "192"}, {"size": "96"}]}}}, "dtype": {"type": "DT_FLOAT"}}}, {"name": "model_27/tf.math.add_306/Add/y", "op": "Const", "attr": {"dtype": {"type": "DT_FLOAT"}, "value": {"tensor": {"dtype": "DT_FLOAT", "tensorShape": {"dim": [{"size": "96"}]}}}}}, {"name": "model_27/tf.compat.v1.pad_13/Pad/paddings", "op": "Const", "attr": {"dtype": {"type": "DT_INT32"}, "value": {"tensor": {"dtype": "DT_INT32", "tensorShape": {"dim": [{"size": "4"}, {"size": "2"}]}}}}}, {"name": "model_27/tf.nn.convolution_215/convolution/filter", "op": "Const", "attr": {"value": {"tensor": {"dtype": "DT_FLOAT", "tensorShape": {"dim": [{"size": "3"}, {"size": "3"}, {"size": "96"}, {"size": "64"}]}}}, "dtype": {"type": "DT_FLOAT"}}}, {"name": "model_27/tf.math.add_309/Add/y", "op": "Const", "attr": {"dtype": {"type": "DT_FLOAT"}, "value": {"tensor": {"dtype": "DT_FLOAT", "tensorShape": {"dim": [{"size": "64"}]}}}}}, {"name": "model_27/tf.strided_slice_26/ones_like/tensor", "op": "Const", "attr": {"value": {"tensor": {"dtype": "DT_INT64", "tensorShape": {"dim": [{"size": "4"}]}}}, "dtype": {"type": "DT_INT64"}}}, {"name": "model_27/tf.strided_slice_26/StridedSlice/end", "op": "Const", "attr": {"value": {"tensor": {"dtype": "DT_INT64", "tensorShape": {"dim": [{"size": "4"}]}}}, "dtype": {"type": "DT_INT64"}}}, {"name": "model_27/tf.strided_slice_26/ones_like", "op": "Const", "attr": {"value": {"tensor": {"dtype": "DT_INT64", "tensorShape": {"dim": [{"size": "4"}]}}}, "dtype": {"type": "DT_INT64"}}}, {"name": "model_27/tf.nn.convolution_128/convolution/filter", "op": "Const", "attr": {"dtype": {"type": "DT_FLOAT"}, "value": {"tensor": {"dtype": "DT_FLOAT", "tensorShape": {"dim": [{"size": "1"}, {"size": "1"}, {"size": "64"}, {"size": "32"}]}}}}}, {"name": "model_27/tf.math.add_177/Add/y", "op": "Const", "attr": {"dtype": {"type": "DT_FLOAT"}, "value": {"tensor": {"dtype": "DT_FLOAT", "tensorShape": {"dim": [{"size": "32"}]}}}}}, {"name": "model_27/tf.nn.convolution_130/convolution/filter", "op": "Const", "attr": {"dtype": {"type": "DT_FLOAT"}, "value": {"tensor": {"dtype": "DT_FLOAT", "tensorShape": {"dim": [{"size": "3"}, {"size": "3"}, {"size": "32"}, {"size": "32"}]}}}}}, {"name": "model_27/tf.math.add_179/Add/y", "op": "Const", "attr": {"dtype": {"type": "DT_FLOAT"}, "value": {"tensor": {"dtype": "DT_FLOAT", "tensorShape": {"dim": [{"size": "32"}]}}}}}, {"name": "model_27/tf.nn.convolution_131/convolution/filter", "op": "Const", "attr": {"dtype": {"type": "DT_FLOAT"}, "value": {"tensor": {"dtype": "DT_FLOAT", "tensorShape": {"dim": [{"size": "3"}, {"size": "3"}, {"size": "32"}, {"size": "32"}]}}}}}, {"name": "model_27/tf.math.add_180/Add/y", "op": "Const", "attr": {"value": {"tensor": {"dtype": "DT_FLOAT", "tensorShape": {"dim": [{"size": "32"}]}}}, "dtype": {"type": "DT_FLOAT"}}}, {"name": "model_27/tf.nn.convolution_132/convolution/filter", "op": "Const", "attr": {"value": {"tensor": {"dtype": "DT_FLOAT", "tensorShape": {"dim": [{"size": "3"}, {"size": "3"}, {"size": "32"}, {"size": "32"}]}}}, "dtype": {"type": "DT_FLOAT"}}}, {"name": "model_27/tf.math.add_183/Add/y", "op": "Const", "attr": {"dtype": {"type": "DT_FLOAT"}, "value": {"tensor": {"dtype": "DT_FLOAT", "tensorShape": {"dim": [{"size": "32"}]}}}}}, {"name": "model_27/tf.nn.convolution_133/convolution/filter", "op": "Const", "attr": {"value": {"tensor": {"dtype": "DT_FLOAT", "tensorShape": {"dim": [{"size": "3"}, {"size": "3"}, {"size": "32"}, {"size": "32"}]}}}, "dtype": {"type": "DT_FLOAT"}}}, {"name": "model_27/tf.math.add_184/Add/y", "op": "Const", "attr": {"value": {"tensor": {"dtype": "DT_FLOAT", "tensorShape": {"dim": [{"size": "32"}]}}}, "dtype": {"type": "DT_FLOAT"}}}, {"name": "model_27/tf.nn.convolution_134/convolution/filter", "op": "Const", "attr": {"value": {"tensor": {"dtype": "DT_FLOAT", "tensorShape": {"dim": [{"size": "3"}, {"size": "3"}, {"size": "32"}, {"size": "32"}]}}}, "dtype": {"type": "DT_FLOAT"}}}, {"name": "model_27/tf.math.add_187/Add/y", "op": "Const", "attr": {"value": {"tensor": {"dtype": "DT_FLOAT", "tensorShape": {"dim": [{"size": "32"}]}}}, "dtype": {"type": "DT_FLOAT"}}}, {"name": "model_27/tf.nn.convolution_135/convolution/filter", "op": "Const", "attr": {"value": {"tensor": {"dtype": "DT_FLOAT", "tensorShape": {"dim": [{"size": "3"}, {"size": "3"}, {"size": "32"}, {"size": "32"}]}}}, "dtype": {"type": "DT_FLOAT"}}}, {"name": "model_27/tf.math.add_188/Add/y", "op": "Const", "attr": {"value": {"tensor": {"dtype": "DT_FLOAT", "tensorShape": {"dim": [{"size": "32"}]}}}, "dtype": {"type": "DT_FLOAT"}}}, {"name": "model_27/tf.nn.convolution_118/convolution/filter", "op": "Const", "attr": {"value": {"tensor": {"dtype": "DT_FLOAT", "tensorShape": {"dim": [{"size": "1"}, {"size": "1"}, {"size": "64"}, {"size": "32"}]}}}, "dtype": {"type": "DT_FLOAT"}}}, {"name": "model_27/tf.math.add_161/Add/y", "op": "Const", "attr": {"dtype": {"type": "DT_FLOAT"}, "value": {"tensor": {"dtype": "DT_FLOAT", "tensorShape": {"dim": [{"size": "32"}]}}}}}, {"name": "model_27/tf.nn.convolution_120/convolution/filter", "op": "Const", "attr": {"value": {"tensor": {"dtype": "DT_FLOAT", "tensorShape": {"dim": [{"size": "3"}, {"size": "3"}, {"size": "32"}, {"size": "32"}]}}}, "dtype": {"type": "DT_FLOAT"}}}, {"name": "model_27/tf.math.add_163/Add/y", "op": "Const", "attr": {"value": {"tensor": {"dtype": "DT_FLOAT", "tensorShape": {"dim": [{"size": "32"}]}}}, "dtype": {"type": "DT_FLOAT"}}}, {"name": "model_27/tf.nn.convolution_121/convolution/filter", "op": "Const", "attr": {"dtype": {"type": "DT_FLOAT"}, "value": {"tensor": {"dtype": "DT_FLOAT", "tensorShape": {"dim": [{"size": "3"}, {"size": "3"}, {"size": "32"}, {"size": "32"}]}}}}}, {"name": "model_27/tf.math.add_164/Add/y", "op": "Const", "attr": {"dtype": {"type": "DT_FLOAT"}, "value": {"tensor": {"dtype": "DT_FLOAT", "tensorShape": {"dim": [{"size": "32"}]}}}}}, {"name": "model_27/tf.nn.convolution_122/convolution/filter", "op": "Const", "attr": {"dtype": {"type": "DT_FLOAT"}, "value": {"tensor": {"dtype": "DT_FLOAT", "tensorShape": {"dim": [{"size": "3"}, {"size": "3"}, {"size": "32"}, {"size": "32"}]}}}}}, {"name": "model_27/tf.math.add_167/Add/y", "op": "Const", "attr": {"dtype": {"type": "DT_FLOAT"}, "value": {"tensor": {"dtype": "DT_FLOAT", "tensorShape": {"dim": [{"size": "32"}]}}}}}, {"name": "model_27/tf.nn.convolution_123/convolution/filter", "op": "Const", "attr": {"dtype": {"type": "DT_FLOAT"}, "value": {"tensor": {"dtype": "DT_FLOAT", "tensorShape": {"dim": [{"size": "3"}, {"size": "3"}, {"size": "32"}, {"size": "32"}]}}}}}, {"name": "model_27/tf.math.add_168/Add/y", "op": "Const", "attr": {"value": {"tensor": {"dtype": "DT_FLOAT", "tensorShape": {"dim": [{"size": "32"}]}}}, "dtype": {"type": "DT_FLOAT"}}}, {"name": "model_27/tf.nn.convolution_124/convolution/filter", "op": "Const", "attr": {"dtype": {"type": "DT_FLOAT"}, "value": {"tensor": {"dtype": "DT_FLOAT", "tensorShape": {"dim": [{"size": "3"}, {"size": "3"}, {"size": "32"}, {"size": "32"}]}}}}}, {"name": "model_27/tf.math.add_171/Add/y", "op": "Const", "attr": {"dtype": {"type": "DT_FLOAT"}, "value": {"tensor": {"dtype": "DT_FLOAT", "tensorShape": {"dim": [{"size": "32"}]}}}}}, {"name": "model_27/tf.nn.convolution_125/convolution/filter", "op": "Const", "attr": {"dtype": {"type": "DT_FLOAT"}, "value": {"tensor": {"dtype": "DT_FLOAT", "tensorShape": {"dim": [{"size": "3"}, {"size": "3"}, {"size": "32"}, {"size": "32"}]}}}}}, {"name": "model_27/tf.math.add_172/Add/y", "op": "Const", "attr": {"value": {"tensor": {"dtype": "DT_FLOAT", "tensorShape": {"dim": [{"size": "32"}]}}}, "dtype": {"type": "DT_FLOAT"}}}, {"name": "model_27/tf.strided_slice_24/ones_like/tensor", "op": "Const", "attr": {"value": {"tensor": {"dtype": "DT_INT64", "tensorShape": {"dim": [{"size": "4"}]}}}, "dtype": {"type": "DT_INT64"}}}, {"name": "model_27/tf.strided_slice_24/StridedSlice/end", "op": "Const", "attr": {"dtype": {"type": "DT_INT64"}, "value": {"tensor": {"dtype": "DT_INT64", "tensorShape": {"dim": [{"size": "4"}]}}}}}, {"name": "model_27/tf.strided_slice_24/ones_like", "op": "Const", "attr": {"value": {"tensor": {"dtype": "DT_INT64", "tensorShape": {"dim": [{"size": "4"}]}}}, "dtype": {"type": "DT_INT64"}}}, {"name": "model_27/tf.nn.convolution_105/convolution/filter", "op": "Const", "attr": {"value": {"tensor": {"dtype": "DT_FLOAT", "tensorShape": {"dim": [{"size": "1"}, {"size": "1"}, {"size": "48"}, {"size": "24"}]}}}, "dtype": {"type": "DT_FLOAT"}}}, {"name": "model_27/tf.math.add_142/Add/y", "op": "Const", "attr": {"value": {"tensor": {"dtype": "DT_FLOAT", "tensorShape": {"dim": [{"size": "24"}]}}}, "dtype": {"type": "DT_FLOAT"}}}, {"name": "model_27/tf.nn.convolution_107/convolution/filter", "op": "Const", "attr": {"value": {"tensor": {"dtype": "DT_FLOAT", "tensorShape": {"dim": [{"size": "3"}, {"size": "3"}, {"size": "24"}, {"size": "24"}]}}}, "dtype": {"type": "DT_FLOAT"}}}, {"name": "model_27/tf.math.add_144/Add/y", "op": "Const", "attr": {"dtype": {"type": "DT_FLOAT"}, "value": {"tensor": {"dtype": "DT_FLOAT", "tensorShape": {"dim": [{"size": "24"}]}}}}}, {"name": "model_27/tf.nn.convolution_108/convolution/filter", "op": "Const", "attr": {"value": {"tensor": {"dtype": "DT_FLOAT", "tensorShape": {"dim": [{"size": "3"}, {"size": "3"}, {"size": "24"}, {"size": "24"}]}}}, "dtype": {"type": "DT_FLOAT"}}}, {"name": "model_27/tf.math.add_145/Add/y", "op": "Const", "attr": {"dtype": {"type": "DT_FLOAT"}, "value": {"tensor": {"dtype": "DT_FLOAT", "tensorShape": {"dim": [{"size": "24"}]}}}}}, {"name": "model_27/tf.nn.convolution_109/convolution/filter", "op": "Const", "attr": {"value": {"tensor": {"dtype": "DT_FLOAT", "tensorShape": {"dim": [{"size": "3"}, {"size": "3"}, {"size": "24"}, {"size": "24"}]}}}, "dtype": {"type": "DT_FLOAT"}}}, {"name": "model_27/tf.math.add_148/Add/y", "op": "Const", "attr": {"value": {"tensor": {"dtype": "DT_FLOAT", "tensorShape": {"dim": [{"size": "24"}]}}}, "dtype": {"type": "DT_FLOAT"}}}, {"name": "model_27/tf.nn.convolution_110/convolution/filter", "op": "Const", "attr": {"value": {"tensor": {"dtype": "DT_FLOAT", "tensorShape": {"dim": [{"size": "3"}, {"size": "3"}, {"size": "24"}, {"size": "24"}]}}}, "dtype": {"type": "DT_FLOAT"}}}, {"name": "model_27/tf.math.add_149/Add/y", "op": "Const", "attr": {"value": {"tensor": {"dtype": "DT_FLOAT", "tensorShape": {"dim": [{"size": "24"}]}}}, "dtype": {"type": "DT_FLOAT"}}}, {"name": "model_27/tf.nn.convolution_111/convolution/filter", "op": "Const", "attr": {"value": {"tensor": {"dtype": "DT_FLOAT", "tensorShape": {"dim": [{"size": "3"}, {"size": "3"}, {"size": "24"}, {"size": "24"}]}}}, "dtype": {"type": "DT_FLOAT"}}}, {"name": "model_27/tf.math.add_152/Add/y", "op": "Const", "attr": {"dtype": {"type": "DT_FLOAT"}, "value": {"tensor": {"dtype": "DT_FLOAT", "tensorShape": {"dim": [{"size": "24"}]}}}}}, {"name": "model_27/tf.nn.convolution_112/convolution/filter", "op": "Const", "attr": {"dtype": {"type": "DT_FLOAT"}, "value": {"tensor": {"dtype": "DT_FLOAT", "tensorShape": {"dim": [{"size": "3"}, {"size": "3"}, {"size": "24"}, {"size": "24"}]}}}}}, {"name": "model_27/tf.math.add_153/Add/y", "op": "Const", "attr": {"dtype": {"type": "DT_FLOAT"}, "value": {"tensor": {"dtype": "DT_FLOAT", "tensorShape": {"dim": [{"size": "24"}]}}}}}, {"name": "model_27/tf.nn.convolution_95/convolution/filter", "op": "Const", "attr": {"dtype": {"type": "DT_FLOAT"}, "value": {"tensor": {"dtype": "DT_FLOAT", "tensorShape": {"dim": [{"size": "1"}, {"size": "1"}, {"size": "48"}, {"size": "24"}]}}}}}, {"name": "model_27/tf.math.add_126/Add/y", "op": "Const", "attr": {"value": {"tensor": {"dtype": "DT_FLOAT", "tensorShape": {"dim": [{"size": "24"}]}}}, "dtype": {"type": "DT_FLOAT"}}}, {"name": "model_27/tf.nn.convolution_97/convolution/filter", "op": "Const", "attr": {"value": {"tensor": {"dtype": "DT_FLOAT", "tensorShape": {"dim": [{"size": "3"}, {"size": "3"}, {"size": "24"}, {"size": "24"}]}}}, "dtype": {"type": "DT_FLOAT"}}}, {"name": "model_27/tf.math.add_128/Add/y", "op": "Const", "attr": {"value": {"tensor": {"dtype": "DT_FLOAT", "tensorShape": {"dim": [{"size": "24"}]}}}, "dtype": {"type": "DT_FLOAT"}}}, {"name": "model_27/tf.nn.convolution_98/convolution/filter", "op": "Const", "attr": {"value": {"tensor": {"dtype": "DT_FLOAT", "tensorShape": {"dim": [{"size": "3"}, {"size": "3"}, {"size": "24"}, {"size": "24"}]}}}, "dtype": {"type": "DT_FLOAT"}}}, {"name": "model_27/tf.math.add_129/Add/y", "op": "Const", "attr": {"dtype": {"type": "DT_FLOAT"}, "value": {"tensor": {"dtype": "DT_FLOAT", "tensorShape": {"dim": [{"size": "24"}]}}}}}, {"name": "model_27/tf.nn.convolution_99/convolution/filter", "op": "Const", "attr": {"dtype": {"type": "DT_FLOAT"}, "value": {"tensor": {"dtype": "DT_FLOAT", "tensorShape": {"dim": [{"size": "3"}, {"size": "3"}, {"size": "24"}, {"size": "24"}]}}}}}, {"name": "model_27/tf.math.add_132/Add/y", "op": "Const", "attr": {"value": {"tensor": {"dtype": "DT_FLOAT", "tensorShape": {"dim": [{"size": "24"}]}}}, "dtype": {"type": "DT_FLOAT"}}}, {"name": "model_27/tf.nn.convolution_100/convolution/filter", "op": "Const", "attr": {"dtype": {"type": "DT_FLOAT"}, "value": {"tensor": {"dtype": "DT_FLOAT", "tensorShape": {"dim": [{"size": "3"}, {"size": "3"}, {"size": "24"}, {"size": "24"}]}}}}}, {"name": "model_27/tf.math.add_133/Add/y", "op": "Const", "attr": {"dtype": {"type": "DT_FLOAT"}, "value": {"tensor": {"dtype": "DT_FLOAT", "tensorShape": {"dim": [{"size": "24"}]}}}}}, {"name": "model_27/tf.nn.convolution_101/convolution/filter", "op": "Const", "attr": {"value": {"tensor": {"dtype": "DT_FLOAT", "tensorShape": {"dim": [{"size": "3"}, {"size": "3"}, {"size": "24"}, {"size": "24"}]}}}, "dtype": {"type": "DT_FLOAT"}}}, {"name": "model_27/tf.math.add_136/Add/y", "op": "Const", "attr": {"value": {"tensor": {"dtype": "DT_FLOAT", "tensorShape": {"dim": [{"size": "24"}]}}}, "dtype": {"type": "DT_FLOAT"}}}, {"name": "model_27/tf.nn.convolution_102/convolution/filter", "op": "Const", "attr": {"value": {"tensor": {"dtype": "DT_FLOAT", "tensorShape": {"dim": [{"size": "3"}, {"size": "3"}, {"size": "24"}, {"size": "24"}]}}}, "dtype": {"type": "DT_FLOAT"}}}, {"name": "model_27/tf.math.add_137/Add/y", "op": "Const", "attr": {"value": {"tensor": {"dtype": "DT_FLOAT", "tensorShape": {"dim": [{"size": "24"}]}}}, "dtype": {"type": "DT_FLOAT"}}}, {"name": "model_27/tf.strided_slice_22/ones_like/tensor", "op": "Const", "attr": {"dtype": {"type": "DT_INT64"}, "value": {"tensor": {"dtype": "DT_INT64", "tensorShape": {"dim": [{"size": "4"}]}}}}}, {"name": "model_27/tf.strided_slice_22/StridedSlice/end", "op": "Const", "attr": {"dtype": {"type": "DT_INT64"}, "value": {"tensor": {"dtype": "DT_INT64", "tensorShape": {"dim": [{"size": "4"}]}}}}}, {"name": "model_27/tf.strided_slice_22/ones_like", "op": "Const", "attr": {"value": {"tensor": {"dtype": "DT_INT64", "tensorShape": {"dim": [{"size": "4"}]}}}, "dtype": {"type": "DT_INT64"}}}, {"name": "model_27/tf.nn.convolution_82/convolution/filter", "op": "Const", "attr": {"dtype": {"type": "DT_FLOAT"}, "value": {"tensor": {"dtype": "DT_FLOAT", "tensorShape": {"dim": [{"size": "1"}, {"size": "1"}, {"size": "32"}, {"size": "16"}]}}}}}, {"name": "model_27/tf.math.add_107/Add/y", "op": "Const", "attr": {"dtype": {"type": "DT_FLOAT"}, "value": {"tensor": {"dtype": "DT_FLOAT", "tensorShape": {"dim": [{"size": "16"}]}}}}}, {"name": "model_27/tf.nn.convolution_84/convolution/filter", "op": "Const", "attr": {"value": {"tensor": {"dtype": "DT_FLOAT", "tensorShape": {"dim": [{"size": "3"}, {"size": "3"}, {"size": "16"}, {"size": "16"}]}}}, "dtype": {"type": "DT_FLOAT"}}}, {"name": "model_27/tf.math.add_109/Add/y", "op": "Const", "attr": {"value": {"tensor": {"dtype": "DT_FLOAT", "tensorShape": {"dim": [{"size": "16"}]}}}, "dtype": {"type": "DT_FLOAT"}}}, {"name": "model_27/tf.nn.convolution_85/convolution/filter", "op": "Const", "attr": {"value": {"tensor": {"dtype": "DT_FLOAT", "tensorShape": {"dim": [{"size": "3"}, {"size": "3"}, {"size": "16"}, {"size": "16"}]}}}, "dtype": {"type": "DT_FLOAT"}}}, {"name": "model_27/tf.math.add_110/Add/y", "op": "Const", "attr": {"dtype": {"type": "DT_FLOAT"}, "value": {"tensor": {"dtype": "DT_FLOAT", "tensorShape": {"dim": [{"size": "16"}]}}}}}, {"name": "model_27/tf.nn.convolution_86/convolution/filter", "op": "Const", "attr": {"value": {"tensor": {"dtype": "DT_FLOAT", "tensorShape": {"dim": [{"size": "3"}, {"size": "3"}, {"size": "16"}, {"size": "16"}]}}}, "dtype": {"type": "DT_FLOAT"}}}, {"name": "model_27/tf.math.add_113/Add/y", "op": "Const", "attr": {"value": {"tensor": {"dtype": "DT_FLOAT", "tensorShape": {"dim": [{"size": "16"}]}}}, "dtype": {"type": "DT_FLOAT"}}}, {"name": "model_27/tf.nn.convolution_87/convolution/filter", "op": "Const", "attr": {"value": {"tensor": {"dtype": "DT_FLOAT", "tensorShape": {"dim": [{"size": "3"}, {"size": "3"}, {"size": "16"}, {"size": "16"}]}}}, "dtype": {"type": "DT_FLOAT"}}}, {"name": "model_27/tf.math.add_114/Add/y", "op": "Const", "attr": {"value": {"tensor": {"dtype": "DT_FLOAT", "tensorShape": {"dim": [{"size": "16"}]}}}, "dtype": {"type": "DT_FLOAT"}}}, {"name": "model_27/tf.nn.convolution_88/convolution/filter", "op": "Const", "attr": {"value": {"tensor": {"dtype": "DT_FLOAT", "tensorShape": {"dim": [{"size": "3"}, {"size": "3"}, {"size": "16"}, {"size": "16"}]}}}, "dtype": {"type": "DT_FLOAT"}}}, {"name": "model_27/tf.math.add_117/Add/y", "op": "Const", "attr": {"dtype": {"type": "DT_FLOAT"}, "value": {"tensor": {"dtype": "DT_FLOAT", "tensorShape": {"dim": [{"size": "16"}]}}}}}, {"name": "model_27/tf.nn.convolution_89/convolution/filter", "op": "Const", "attr": {"dtype": {"type": "DT_FLOAT"}, "value": {"tensor": {"dtype": "DT_FLOAT", "tensorShape": {"dim": [{"size": "3"}, {"size": "3"}, {"size": "16"}, {"size": "16"}]}}}}}, {"name": "model_27/tf.math.add_118/Add/y", "op": "Const", "attr": {"dtype": {"type": "DT_FLOAT"}, "value": {"tensor": {"dtype": "DT_FLOAT", "tensorShape": {"dim": [{"size": "16"}]}}}}}, {"name": "model_27/tf.nn.convolution_72/convolution/filter", "op": "Const", "attr": {"dtype": {"type": "DT_FLOAT"}, "value": {"tensor": {"dtype": "DT_FLOAT", "tensorShape": {"dim": [{"size": "1"}, {"size": "1"}, {"size": "32"}, {"size": "16"}]}}}}}, {"name": "model_27/tf.math.add_91/Add/y", "op": "Const", "attr": {"dtype": {"type": "DT_FLOAT"}, "value": {"tensor": {"dtype": "DT_FLOAT", "tensorShape": {"dim": [{"size": "16"}]}}}}}, {"name": "model_27/tf.nn.convolution_74/convolution/filter", "op": "Const", "attr": {"dtype": {"type": "DT_FLOAT"}, "value": {"tensor": {"dtype": "DT_FLOAT", "tensorShape": {"dim": [{"size": "3"}, {"size": "3"}, {"size": "16"}, {"size": "16"}]}}}}}, {"name": "model_27/tf.math.add_93/Add/y", "op": "Const", "attr": {"value": {"tensor": {"dtype": "DT_FLOAT", "tensorShape": {"dim": [{"size": "16"}]}}}, "dtype": {"type": "DT_FLOAT"}}}, {"name": "model_27/tf.nn.convolution_75/convolution/filter", "op": "Const", "attr": {"value": {"tensor": {"dtype": "DT_FLOAT", "tensorShape": {"dim": [{"size": "3"}, {"size": "3"}, {"size": "16"}, {"size": "16"}]}}}, "dtype": {"type": "DT_FLOAT"}}}, {"name": "model_27/tf.math.add_94/Add/y", "op": "Const", "attr": {"value": {"tensor": {"dtype": "DT_FLOAT", "tensorShape": {"dim": [{"size": "16"}]}}}, "dtype": {"type": "DT_FLOAT"}}}, {"name": "model_27/tf.nn.convolution_76/convolution/filter", "op": "Const", "attr": {"dtype": {"type": "DT_FLOAT"}, "value": {"tensor": {"dtype": "DT_FLOAT", "tensorShape": {"dim": [{"size": "3"}, {"size": "3"}, {"size": "16"}, {"size": "16"}]}}}}}, {"name": "model_27/tf.math.add_97/Add/y", "op": "Const", "attr": {"dtype": {"type": "DT_FLOAT"}, "value": {"tensor": {"dtype": "DT_FLOAT", "tensorShape": {"dim": [{"size": "16"}]}}}}}, {"name": "model_27/tf.nn.convolution_77/convolution/filter", "op": "Const", "attr": {"dtype": {"type": "DT_FLOAT"}, "value": {"tensor": {"dtype": "DT_FLOAT", "tensorShape": {"dim": [{"size": "3"}, {"size": "3"}, {"size": "16"}, {"size": "16"}]}}}}}, {"name": "model_27/tf.math.add_98/Add/y", "op": "Const", "attr": {"dtype": {"type": "DT_FLOAT"}, "value": {"tensor": {"dtype": "DT_FLOAT", "tensorShape": {"dim": [{"size": "16"}]}}}}}, {"name": "model_27/tf.nn.convolution_78/convolution/filter", "op": "Const", "attr": {"dtype": {"type": "DT_FLOAT"}, "value": {"tensor": {"dtype": "DT_FLOAT", "tensorShape": {"dim": [{"size": "3"}, {"size": "3"}, {"size": "16"}, {"size": "16"}]}}}}}, {"name": "model_27/tf.math.add_101/Add/y", "op": "Const", "attr": {"value": {"tensor": {"dtype": "DT_FLOAT", "tensorShape": {"dim": [{"size": "16"}]}}}, "dtype": {"type": "DT_FLOAT"}}}, {"name": "model_27/tf.nn.convolution_79/convolution/filter", "op": "Const", "attr": {"dtype": {"type": "DT_FLOAT"}, "value": {"tensor": {"dtype": "DT_FLOAT", "tensorShape": {"dim": [{"size": "3"}, {"size": "3"}, {"size": "16"}, {"size": "16"}]}}}}}, {"name": "model_27/tf.math.add_102/Add/y", "op": "Const", "attr": {"value": {"tensor": {"dtype": "DT_FLOAT", "tensorShape": {"dim": [{"size": "16"}]}}}, "dtype": {"type": "DT_FLOAT"}}}, {"name": "model_27/tf.strided_slice_20/ones_like/tensor", "op": "Const", "attr": {"value": {"tensor": {"dtype": "DT_INT64", "tensorShape": {"dim": [{"size": "4"}]}}}, "dtype": {"type": "DT_INT64"}}}, {"name": "model_27/tf.strided_slice_20/StridedSlice/end", "op": "Const", "attr": {"dtype": {"type": "DT_INT64"}, "value": {"tensor": {"dtype": "DT_INT64", "tensorShape": {"dim": [{"size": "4"}]}}}}}, {"name": "model_27/tf.strided_slice_20/ones_like", "op": "Const", "attr": {"dtype": {"type": "DT_INT64"}, "value": {"tensor": {"dtype": "DT_INT64", "tensorShape": {"dim": [{"size": "4"}]}}}}}, {"name": "model_27/tf.compat.v1.pad_7/Pad/paddings", "op": "Const", "attr": {"value": {"tensor": {"dtype": "DT_INT32", "tensorShape": {"dim": [{"size": "4"}, {"size": "2"}]}}}, "dtype": {"type": "DT_INT32"}}}, {"name": "model_27/tf.nn.convolution_64/convolution/filter", "op": "Const", "attr": {"value": {"tensor": {"dtype": "DT_FLOAT", "tensorShape": {"dim": [{"size": "3"}, {"size": "3"}, {"size": "3"}, {"size": "16"}]}}}, "dtype": {"type": "DT_FLOAT"}}}, {"name": "model_27/tf.math.add_83/Add/y", "op": "Const", "attr": {"dtype": {"type": "DT_FLOAT"}, "value": {"tensor": {"dtype": "DT_FLOAT", "tensorShape": {"dim": [{"size": "16"}]}}}}}, {"name": "model_27/tf.compat.v1.pad_8/Pad/paddings", "op": "Const", "attr": {"dtype": {"type": "DT_INT32"}, "value": {"tensor": {"dtype": "DT_INT32", "tensorShape": {"dim": [{"size": "4"}, {"size": "2"}]}}}}}, {"name": "model_27/tf.nn.convolution_65/convolution/filter", "op": "Const", "attr": {"value": {"tensor": {"dtype": "DT_FLOAT", "tensorShape": {"dim": [{"size": "3"}, {"size": "3"}, {"size": "16"}, {"size": "32"}]}}}, "dtype": {"type": "DT_FLOAT"}}}, {"name": "model_27/tf.math.add_84/Add/y", "op": "Const", "attr": {"dtype": {"type": "DT_FLOAT"}, "value": {"tensor": {"dtype": "DT_FLOAT", "tensorShape": {"dim": [{"size": "32"}]}}}}}, {"name": "model_27/tf.nn.convolution_66/convolution/filter", "op": "Const", "attr": {"dtype": {"type": "DT_FLOAT"}, "value": {"tensor": {"dtype": "DT_FLOAT", "tensorShape": {"dim": [{"size": "1"}, {"size": "1"}, {"size": "32"}, {"size": "32"}]}}}}}, {"name": "model_27/tf.math.add_85/Add/y", "op": "Const", "attr": {"dtype": {"type": "DT_FLOAT"}, "value": {"tensor": {"dtype": "DT_FLOAT", "tensorShape": {"dim": [{"size": "32"}]}}}}}, {"name": "model_27/tf.strided_slice_21/ones_like/tensor", "op": "Const", "attr": {"value": {"tensor": {"dtype": "DT_INT64", "tensorShape": {"dim": [{"size": "4"}]}}}, "dtype": {"type": "DT_INT64"}}}, {"name": "model_27/tf.strided_slice_21/StridedSlice/end", "op": "Const", "attr": {"value": {"tensor": {"dtype": "DT_INT64", "tensorShape": {"dim": [{"size": "4"}]}}}, "dtype": {"type": "DT_INT64"}}}, {"name": "model_27/tf.strided_slice_21/ones_like", "op": "Const", "attr": {"value": {"tensor": {"dtype": "DT_INT64", "tensorShape": {"dim": [{"size": "4"}]}}}, "dtype": {"type": "DT_INT64"}}}, {"name": "model_27/tf.nn.convolution_67/convolution/filter", "op": "Const", "attr": {"dtype": {"type": "DT_FLOAT"}, "value": {"tensor": {"dtype": "DT_FLOAT", "tensorShape": {"dim": [{"size": "3"}, {"size": "3"}, {"size": "16"}, {"size": "16"}]}}}}}, {"name": "model_27/tf.math.add_86/Add/y", "op": "Const", "attr": {"value": {"tensor": {"dtype": "DT_FLOAT", "tensorShape": {"dim": [{"size": "16"}]}}}, "dtype": {"type": "DT_FLOAT"}}}, {"name": "model_27/tf.nn.convolution_68/convolution/filter", "op": "Const", "attr": {"dtype": {"type": "DT_FLOAT"}, "value": {"tensor": {"dtype": "DT_FLOAT", "tensorShape": {"dim": [{"size": "3"}, {"size": "3"}, {"size": "16"}, {"size": "16"}]}}}}}, {"name": "model_27/tf.math.add_87/Add/y", "op": "Const", "attr": {"value": {"tensor": {"dtype": "DT_FLOAT", "tensorShape": {"dim": [{"size": "16"}]}}}, "dtype": {"type": "DT_FLOAT"}}}, {"name": "model_27/tf.concat_22/concat/axis", "op": "Const", "attr": {"value": {"tensor": {"dtype": "DT_INT32", "tensorShape": {}}}, "dtype": {"type": "DT_INT32"}}}, {"name": "model_27/tf.nn.convolution_69/convolution/filter", "op": "Const", "attr": {"value": {"tensor": {"dtype": "DT_FLOAT", "tensorShape": {"dim": [{"size": "1"}, {"size": "1"}, {"size": "64"}, {"size": "32"}]}}}, "dtype": {"type": "DT_FLOAT"}}}, {"name": "model_27/tf.math.add_88/Add/y", "op": "Const", "attr": {"dtype": {"type": "DT_FLOAT"}, "value": {"tensor": {"dtype": "DT_FLOAT", "tensorShape": {"dim": [{"size": "32"}]}}}}}, {"name": "model_27/tf.compat.v1.pad_9/Pad/paddings", "op": "Const", "attr": {"value": {"tensor": {"dtype": "DT_INT32", "tensorShape": {"dim": [{"size": "4"}, {"size": "2"}]}}}, "dtype": {"type": "DT_INT32"}}}, {"name": "model_27/tf.nn.convolution_70/convolution/filter", "op": "Const", "attr": {"value": {"tensor": {"dtype": "DT_FLOAT", "tensorShape": {"dim": [{"size": "3"}, {"size": "3"}, {"size": "32"}, {"size": "64"}]}}}, "dtype": {"type": "DT_FLOAT"}}}, {"name": "model_27/tf.math.add_89/Add/y", "op": "Const", "attr": {"dtype": {"type": "DT_FLOAT"}, "value": {"tensor": {"dtype": "DT_FLOAT", "tensorShape": {"dim": [{"size": "64"}]}}}}}, {"name": "model_27/tf.nn.convolution_71/convolution/filter", "op": "Const", "attr": {"dtype": {"type": "DT_FLOAT"}, "value": {"tensor": {"dtype": "DT_FLOAT", "tensorShape": {"dim": [{"size": "1"}, {"size": "1"}, {"size": "64"}, {"size": "64"}]}}}}}, {"name": "model_27/tf.math.add_90/Add/y", "op": "Const", "attr": {"dtype": {"type": "DT_FLOAT"}, "value": {"tensor": {"dtype": "DT_FLOAT", "tensorShape": {"dim": [{"size": "64"}]}}}}}, {"name": "model_27/tf.strided_slice_23/ones_like/tensor", "op": "Const", "attr": {"value": {"tensor": {"dtype": "DT_INT64", "tensorShape": {"dim": [{"size": "4"}]}}}, "dtype": {"type": "DT_INT64"}}}, {"name": "model_27/tf.strided_slice_23/StridedSlice/end", "op": "Const", "attr": {"value": {"tensor": {"dtype": "DT_INT64", "tensorShape": {"dim": [{"size": "4"}]}}}, "dtype": {"type": "DT_INT64"}}}, {"name": "model_27/tf.strided_slice_23/ones_like", "op": "Const", "attr": {"value": {"tensor": {"dtype": "DT_INT64", "tensorShape": {"dim": [{"size": "4"}]}}}, "dtype": {"type": "DT_INT64"}}}, {"name": "model_27/tf.nn.convolution_73/convolution/filter", "op": "Const", "attr": {"value": {"tensor": {"dtype": "DT_FLOAT", "tensorShape": {"dim": [{"size": "1"}, {"size": "1"}, {"size": "32"}, {"size": "16"}]}}}, "dtype": {"type": "DT_FLOAT"}}}, {"name": "model_27/tf.math.add_92/Add/y", "op": "Const", "attr": {"dtype": {"type": "DT_FLOAT"}, "value": {"tensor": {"dtype": "DT_FLOAT", "tensorShape": {"dim": [{"size": "16"}]}}}}}, {"name": "model_27/tf.concat_23/concat/axis", "op": "Const", "attr": {"dtype": {"type": "DT_INT32"}, "value": {"tensor": {"dtype": "DT_INT32", "tensorShape": {}}}}}, {"name": "model_27/tf.nn.convolution_80/convolution/filter", "op": "Const", "attr": {"dtype": {"type": "DT_FLOAT"}, "value": {"tensor": {"dtype": "DT_FLOAT", "tensorShape": {"dim": [{"size": "1"}, {"size": "1"}, {"size": "32"}, {"size": "32"}]}}}}}, {"name": "model_27/tf.math.add_105/Add/y", "op": "Const", "attr": {"dtype": {"type": "DT_FLOAT"}, "value": {"tensor": {"dtype": "DT_FLOAT", "tensorShape": {"dim": [{"size": "32"}]}}}}}, {"name": "model_27/tf.nn.convolution_81/convolution/filter", "op": "Const", "attr": {"dtype": {"type": "DT_FLOAT"}, "value": {"tensor": {"dtype": "DT_FLOAT", "tensorShape": {"dim": [{"size": "3"}, {"size": "3"}, {"size": "32"}, {"size": "32"}]}}}}}, {"name": "model_27/tf.math.add_106/Add/y", "op": "Const", "attr": {"dtype": {"type": "DT_FLOAT"}, "value": {"tensor": {"dtype": "DT_FLOAT", "tensorShape": {"dim": [{"size": "32"}]}}}}}, {"name": "model_27/tf.nn.convolution_83/convolution/filter", "op": "Const", "attr": {"dtype": {"type": "DT_FLOAT"}, "value": {"tensor": {"dtype": "DT_FLOAT", "tensorShape": {"dim": [{"size": "1"}, {"size": "1"}, {"size": "32"}, {"size": "16"}]}}}}}, {"name": "model_27/tf.math.add_108/Add/y", "op": "Const", "attr": {"value": {"tensor": {"dtype": "DT_FLOAT", "tensorShape": {"dim": [{"size": "16"}]}}}, "dtype": {"type": "DT_FLOAT"}}}, {"name": "model_27/tf.concat_24/concat/axis", "op": "Const", "attr": {"value": {"tensor": {"dtype": "DT_INT32", "tensorShape": {}}}, "dtype": {"type": "DT_INT32"}}}, {"name": "model_27/tf.nn.convolution_90/convolution/filter", "op": "Const", "attr": {"dtype": {"type": "DT_FLOAT"}, "value": {"tensor": {"dtype": "DT_FLOAT", "tensorShape": {"dim": [{"size": "1"}, {"size": "1"}, {"size": "32"}, {"size": "32"}]}}}}}, {"name": "model_27/tf.math.add_121/Add/y", "op": "Const", "attr": {"value": {"tensor": {"dtype": "DT_FLOAT", "tensorShape": {"dim": [{"size": "32"}]}}}, "dtype": {"type": "DT_FLOAT"}}}, {"name": "model_27/tf.nn.convolution_91/convolution/filter", "op": "Const", "attr": {"value": {"tensor": {"dtype": "DT_FLOAT", "tensorShape": {"dim": [{"size": "3"}, {"size": "3"}, {"size": "32"}, {"size": "32"}]}}}, "dtype": {"type": "DT_FLOAT"}}}, {"name": "model_27/tf.math.add_122/Add/y", "op": "Const", "attr": {"value": {"tensor": {"dtype": "DT_FLOAT", "tensorShape": {"dim": [{"size": "32"}]}}}, "dtype": {"type": "DT_FLOAT"}}}, {"name": "model_27/tf.concat_25/concat/axis", "op": "Const", "attr": {"dtype": {"type": "DT_INT32"}, "value": {"tensor": {"dtype": "DT_INT32", "tensorShape": {}}}}}, {"name": "model_27/tf.nn.convolution_92/convolution/filter", "op": "Const", "attr": {"value": {"tensor": {"dtype": "DT_FLOAT", "tensorShape": {"dim": [{"size": "1"}, {"size": "1"}, {"size": "128"}, {"size": "64"}]}}}, "dtype": {"type": "DT_FLOAT"}}}, {"name": "model_27/tf.math.add_123/Add/y", "op": "Const", "attr": {"value": {"tensor": {"dtype": "DT_FLOAT", "tensorShape": {"dim": [{"size": "64"}]}}}, "dtype": {"type": "DT_FLOAT"}}}, {"name": "model_27/tf.compat.v1.pad_10/Pad/paddings", "op": "Const", "attr": {"value": {"tensor": {"dtype": "DT_INT32", "tensorShape": {"dim": [{"size": "4"}, {"size": "2"}]}}}, "dtype": {"type": "DT_INT32"}}}, {"name": "model_27/tf.nn.convolution_93/convolution/filter", "op": "Const", "attr": {"value": {"tensor": {"dtype": "DT_FLOAT", "tensorShape": {"dim": [{"size": "3"}, {"size": "3"}, {"size": "64"}, {"size": "96"}]}}}, "dtype": {"type": "DT_FLOAT"}}}, {"name": "model_27/tf.math.add_124/Add/y", "op": "Const", "attr": {"dtype": {"type": "DT_FLOAT"}, "value": {"tensor": {"dtype": "DT_FLOAT", "tensorShape": {"dim": [{"size": "96"}]}}}}}, {"name": "model_27/tf.nn.convolution_94/convolution/filter", "op": "Const", "attr": {"value": {"tensor": {"dtype": "DT_FLOAT", "tensorShape": {"dim": [{"size": "1"}, {"size": "1"}, {"size": "96"}, {"size": "96"}]}}}, "dtype": {"type": "DT_FLOAT"}}}, {"name": "model_27/tf.math.add_125/Add/y", "op": "Const", "attr": {"dtype": {"type": "DT_FLOAT"}, "value": {"tensor": {"dtype": "DT_FLOAT", "tensorShape": {"dim": [{"size": "96"}]}}}}}, {"name": "model_27/tf.strided_slice_25/ones_like/tensor", "op": "Const", "attr": {"value": {"tensor": {"dtype": "DT_INT64", "tensorShape": {"dim": [{"size": "4"}]}}}, "dtype": {"type": "DT_INT64"}}}, {"name": "model_27/tf.strided_slice_25/StridedSlice/end", "op": "Const", "attr": {"dtype": {"type": "DT_INT64"}, "value": {"tensor": {"dtype": "DT_INT64", "tensorShape": {"dim": [{"size": "4"}]}}}}}, {"name": "model_27/tf.strided_slice_25/ones_like", "op": "Const", "attr": {"dtype": {"type": "DT_INT64"}, "value": {"tensor": {"dtype": "DT_INT64", "tensorShape": {"dim": [{"size": "4"}]}}}}}, {"name": "model_27/tf.nn.convolution_96/convolution/filter", "op": "Const", "attr": {"value": {"tensor": {"dtype": "DT_FLOAT", "tensorShape": {"dim": [{"size": "1"}, {"size": "1"}, {"size": "48"}, {"size": "24"}]}}}, "dtype": {"type": "DT_FLOAT"}}}, {"name": "model_27/tf.math.add_127/Add/y", "op": "Const", "attr": {"dtype": {"type": "DT_FLOAT"}, "value": {"tensor": {"dtype": "DT_FLOAT", "tensorShape": {"dim": [{"size": "24"}]}}}}}, {"name": "model_27/tf.concat_26/concat/axis", "op": "Const", "attr": {"dtype": {"type": "DT_INT32"}, "value": {"tensor": {"dtype": "DT_INT32", "tensorShape": {}}}}}, {"name": "model_27/tf.nn.convolution_103/convolution/filter", "op": "Const", "attr": {"value": {"tensor": {"dtype": "DT_FLOAT", "tensorShape": {"dim": [{"size": "1"}, {"size": "1"}, {"size": "48"}, {"size": "48"}]}}}, "dtype": {"type": "DT_FLOAT"}}}, {"name": "model_27/tf.math.add_140/Add/y", "op": "Const", "attr": {"dtype": {"type": "DT_FLOAT"}, "value": {"tensor": {"dtype": "DT_FLOAT", "tensorShape": {"dim": [{"size": "48"}]}}}}}, {"name": "model_27/tf.nn.convolution_104/convolution/filter", "op": "Const", "attr": {"dtype": {"type": "DT_FLOAT"}, "value": {"tensor": {"dtype": "DT_FLOAT", "tensorShape": {"dim": [{"size": "3"}, {"size": "3"}, {"size": "48"}, {"size": "48"}]}}}}}, {"name": "model_27/tf.math.add_141/Add/y", "op": "Const", "attr": {"value": {"tensor": {"dtype": "DT_FLOAT", "tensorShape": {"dim": [{"size": "48"}]}}}, "dtype": {"type": "DT_FLOAT"}}}, {"name": "model_27/tf.nn.convolution_106/convolution/filter", "op": "Const", "attr": {"dtype": {"type": "DT_FLOAT"}, "value": {"tensor": {"dtype": "DT_FLOAT", "tensorShape": {"dim": [{"size": "1"}, {"size": "1"}, {"size": "48"}, {"size": "24"}]}}}}}, {"name": "model_27/tf.math.add_143/Add/y", "op": "Const", "attr": {"value": {"tensor": {"dtype": "DT_FLOAT", "tensorShape": {"dim": [{"size": "24"}]}}}, "dtype": {"type": "DT_FLOAT"}}}, {"name": "model_27/tf.concat_27/concat/axis", "op": "Const", "attr": {"value": {"tensor": {"dtype": "DT_INT32", "tensorShape": {}}}, "dtype": {"type": "DT_INT32"}}}, {"name": "model_27/tf.nn.convolution_113/convolution/filter", "op": "Const", "attr": {"dtype": {"type": "DT_FLOAT"}, "value": {"tensor": {"dtype": "DT_FLOAT", "tensorShape": {"dim": [{"size": "1"}, {"size": "1"}, {"size": "48"}, {"size": "48"}]}}}}}, {"name": "model_27/tf.math.add_156/Add/y", "op": "Const", "attr": {"dtype": {"type": "DT_FLOAT"}, "value": {"tensor": {"dtype": "DT_FLOAT", "tensorShape": {"dim": [{"size": "48"}]}}}}}, {"name": "model_27/tf.nn.convolution_114/convolution/filter", "op": "Const", "attr": {"dtype": {"type": "DT_FLOAT"}, "value": {"tensor": {"dtype": "DT_FLOAT", "tensorShape": {"dim": [{"size": "3"}, {"size": "3"}, {"size": "48"}, {"size": "48"}]}}}}}, {"name": "model_27/tf.math.add_157/Add/y", "op": "Const", "attr": {"value": {"tensor": {"dtype": "DT_FLOAT", "tensorShape": {"dim": [{"size": "48"}]}}}, "dtype": {"type": "DT_FLOAT"}}}, {"name": "model_27/tf.concat_28/concat/axis", "op": "Const", "attr": {"dtype": {"type": "DT_INT32"}, "value": {"tensor": {"dtype": "DT_INT32", "tensorShape": {}}}}}, {"name": "model_27/tf.nn.convolution_115/convolution/filter", "op": "Const", "attr": {"dtype": {"type": "DT_FLOAT"}, "value": {"tensor": {"dtype": "DT_FLOAT", "tensorShape": {"dim": [{"size": "1"}, {"size": "1"}, {"size": "192"}, {"size": "96"}]}}}}}, {"name": "model_27/tf.math.add_158/Add/y", "op": "Const", "attr": {"value": {"tensor": {"dtype": "DT_FLOAT", "tensorShape": {"dim": [{"size": "96"}]}}}, "dtype": {"type": "DT_FLOAT"}}}, {"name": "model_27/tf.compat.v1.pad_11/Pad/paddings", "op": "Const", "attr": {"value": {"tensor": {"dtype": "DT_INT32", "tensorShape": {"dim": [{"size": "4"}, {"size": "2"}]}}}, "dtype": {"type": "DT_INT32"}}}, {"name": "model_27/tf.nn.convolution_116/convolution/filter", "op": "Const", "attr": {"value": {"tensor": {"dtype": "DT_FLOAT", "tensorShape": {"dim": [{"size": "3"}, {"size": "3"}, {"size": "96"}, {"size": "128"}]}}}, "dtype": {"type": "DT_FLOAT"}}}, {"name": "model_27/tf.math.add_159/Add/y", "op": "Const", "attr": {"value": {"tensor": {"dtype": "DT_FLOAT", "tensorShape": {"dim": [{"size": "128"}]}}}, "dtype": {"type": "DT_FLOAT"}}}, {"name": "model_27/tf.nn.convolution_117/convolution/filter", "op": "Const", "attr": {"dtype": {"type": "DT_FLOAT"}, "value": {"tensor": {"dtype": "DT_FLOAT", "tensorShape": {"dim": [{"size": "1"}, {"size": "1"}, {"size": "128"}, {"size": "128"}]}}}}}, {"name": "model_27/tf.math.add_160/Add/y", "op": "Const", "attr": {"dtype": {"type": "DT_FLOAT"}, "value": {"tensor": {"dtype": "DT_FLOAT", "tensorShape": {"dim": [{"size": "128"}]}}}}}, {"name": "model_27/tf.strided_slice_27/ones_like/tensor", "op": "Const", "attr": {"dtype": {"type": "DT_INT64"}, "value": {"tensor": {"dtype": "DT_INT64", "tensorShape": {"dim": [{"size": "4"}]}}}}}, {"name": "model_27/tf.strided_slice_27/StridedSlice/end", "op": "Const", "attr": {"value": {"tensor": {"dtype": "DT_INT64", "tensorShape": {"dim": [{"size": "4"}]}}}, "dtype": {"type": "DT_INT64"}}}, {"name": "model_27/tf.strided_slice_27/ones_like", "op": "Const", "attr": {"dtype": {"type": "DT_INT64"}, "value": {"tensor": {"dtype": "DT_INT64", "tensorShape": {"dim": [{"size": "4"}]}}}}}, {"name": "model_27/tf.nn.convolution_119/convolution/filter", "op": "Const", "attr": {"dtype": {"type": "DT_FLOAT"}, "value": {"tensor": {"dtype": "DT_FLOAT", "tensorShape": {"dim": [{"size": "1"}, {"size": "1"}, {"size": "64"}, {"size": "32"}]}}}}}, {"name": "model_27/tf.math.add_162/Add/y", "op": "Const", "attr": {"dtype": {"type": "DT_FLOAT"}, "value": {"tensor": {"dtype": "DT_FLOAT", "tensorShape": {"dim": [{"size": "32"}]}}}}}, {"name": "model_27/tf.concat_29/concat/axis", "op": "Const", "attr": {"dtype": {"type": "DT_INT32"}, "value": {"tensor": {"dtype": "DT_INT32", "tensorShape": {}}}}}, {"name": "model_27/tf.nn.convolution_126/convolution/filter", "op": "Const", "attr": {"value": {"tensor": {"dtype": "DT_FLOAT", "tensorShape": {"dim": [{"size": "1"}, {"size": "1"}, {"size": "64"}, {"size": "64"}]}}}, "dtype": {"type": "DT_FLOAT"}}}, {"name": "model_27/tf.math.add_175/Add/y", "op": "Const", "attr": {"value": {"tensor": {"dtype": "DT_FLOAT", "tensorShape": {"dim": [{"size": "64"}]}}}, "dtype": {"type": "DT_FLOAT"}}}, {"name": "model_27/tf.nn.convolution_127/convolution/filter", "op": "Const", "attr": {"value": {"tensor": {"dtype": "DT_FLOAT", "tensorShape": {"dim": [{"size": "3"}, {"size": "3"}, {"size": "64"}, {"size": "64"}]}}}, "dtype": {"type": "DT_FLOAT"}}}, {"name": "model_27/tf.math.add_176/Add/y", "op": "Const", "attr": {"dtype": {"type": "DT_FLOAT"}, "value": {"tensor": {"dtype": "DT_FLOAT", "tensorShape": {"dim": [{"size": "64"}]}}}}}, {"name": "model_27/tf.nn.convolution_129/convolution/filter", "op": "Const", "attr": {"value": {"tensor": {"dtype": "DT_FLOAT", "tensorShape": {"dim": [{"size": "1"}, {"size": "1"}, {"size": "64"}, {"size": "32"}]}}}, "dtype": {"type": "DT_FLOAT"}}}, {"name": "model_27/tf.math.add_178/Add/y", "op": "Const", "attr": {"dtype": {"type": "DT_FLOAT"}, "value": {"tensor": {"dtype": "DT_FLOAT", "tensorShape": {"dim": [{"size": "32"}]}}}}}, {"name": "model_27/tf.concat_30/concat/axis", "op": "Const", "attr": {"dtype": {"type": "DT_INT32"}, "value": {"tensor": {"dtype": "DT_INT32", "tensorShape": {}}}}}, {"name": "model_27/tf.nn.convolution_136/convolution/filter", "op": "Const", "attr": {"dtype": {"type": "DT_FLOAT"}, "value": {"tensor": {"dtype": "DT_FLOAT", "tensorShape": {"dim": [{"size": "1"}, {"size": "1"}, {"size": "64"}, {"size": "64"}]}}}}}, {"name": "model_27/tf.math.add_191/Add/y", "op": "Const", "attr": {"dtype": {"type": "DT_FLOAT"}, "value": {"tensor": {"dtype": "DT_FLOAT", "tensorShape": {"dim": [{"size": "64"}]}}}}}, {"name": "model_27/tf.nn.convolution_137/convolution/filter", "op": "Const", "attr": {"dtype": {"type": "DT_FLOAT"}, "value": {"tensor": {"dtype": "DT_FLOAT", "tensorShape": {"dim": [{"size": "3"}, {"size": "3"}, {"size": "64"}, {"size": "64"}]}}}}}, {"name": "model_27/tf.math.add_192/Add/y", "op": "Const", "attr": {"value": {"tensor": {"dtype": "DT_FLOAT", "tensorShape": {"dim": [{"size": "64"}]}}}, "dtype": {"type": "DT_FLOAT"}}}, {"name": "model_27/tf.concat_31/concat/axis", "op": "Const", "attr": {"dtype": {"type": "DT_INT32"}, "value": {"tensor": {"dtype": "DT_INT32", "tensorShape": {}}}}}, {"name": "model_27/tf.nn.convolution_138/convolution/filter", "op": "Const", "attr": {"value": {"tensor": {"dtype": "DT_FLOAT", "tensorShape": {"dim": [{"size": "1"}, {"size": "1"}, {"size": "256"}, {"size": "128"}]}}}, "dtype": {"type": "DT_FLOAT"}}}, {"name": "model_27/tf.math.add_193/Add/y", "op": "Const", "attr": {"dtype": {"type": "DT_FLOAT"}, "value": {"tensor": {"dtype": "DT_FLOAT", "tensorShape": {"dim": [{"size": "128"}]}}}}}, {"name": "model_27/tf.nn.convolution_139/convolution/filter", "op": "Const", "attr": {"value": {"tensor": {"dtype": "DT_FLOAT", "tensorShape": {"dim": [{"size": "1"}, {"size": "1"}, {"size": "128"}, {"size": "64"}]}}}, "dtype": {"type": "DT_FLOAT"}}}, {"name": "model_27/tf.math.add_194/Add/y", "op": "Const", "attr": {"dtype": {"type": "DT_FLOAT"}, "value": {"tensor": {"dtype": "DT_FLOAT", "tensorShape": {"dim": [{"size": "64"}]}}}}}, {"name": "model_27/tf.concat_32/concat/axis", "op": "Const", "attr": {"dtype": {"type": "DT_INT32"}, "value": {"tensor": {"dtype": "DT_INT32", "tensorShape": {}}}}}, {"name": "model_27/tf.nn.convolution_140/convolution/filter", "op": "Const", "attr": {"dtype": {"type": "DT_FLOAT"}, "value": {"tensor": {"dtype": "DT_FLOAT", "tensorShape": {"dim": [{"size": "1"}, {"size": "1"}, {"size": "256"}, {"size": "128"}]}}}}}, {"name": "model_27/tf.math.add_195/Add/y", "op": "Const", "attr": {"dtype": {"type": "DT_FLOAT"}, "value": {"tensor": {"dtype": "DT_FLOAT", "tensorShape": {"dim": [{"size": "128"}]}}}}}, {"name": "model_27/tf.concat_46/concat/axis", "op": "Const", "attr": {"dtype": {"type": "DT_INT32"}, "value": {"tensor": {"dtype": "DT_INT32", "tensorShape": {}}}}}, {"name": "model_27/tf.nn.convolution_218/convolution/filter", "op": "Const", "attr": {"value": {"tensor": {"dtype": "DT_FLOAT", "tensorShape": {"dim": [{"size": "1"}, {"size": "1"}, {"size": "192"}, {"size": "128"}]}}}, "dtype": {"type": "DT_FLOAT"}}}, {"name": "model_27/tf.math.add_312/Add/y", "op": "Const", "attr": {"dtype": {"type": "DT_FLOAT"}, "value": {"tensor": {"dtype": "DT_FLOAT", "tensorShape": {"dim": [{"size": "128"}]}}}}}, {"name": "model_27/tf.strided_slice_35/ones_like/tensor", "op": "Const", "attr": {"dtype": {"type": "DT_INT64"}, "value": {"tensor": {"dtype": "DT_INT64", "tensorShape": {"dim": [{"size": "4"}]}}}}}, {"name": "model_27/tf.strided_slice_35/StridedSlice/end", "op": "Const", "attr": {"value": {"tensor": {"dtype": "DT_INT64", "tensorShape": {"dim": [{"size": "4"}]}}}, "dtype": {"type": "DT_INT64"}}}, {"name": "model_27/tf.strided_slice_35/ones_like", "op": "Const", "attr": {"value": {"tensor": {"dtype": "DT_INT64", "tensorShape": {"dim": [{"size": "4"}]}}}, "dtype": {"type": "DT_INT64"}}}, {"name": "model_27/tf.nn.convolution_222/convolution/filter", "op": "Const", "attr": {"dtype": {"type": "DT_FLOAT"}, "value": {"tensor": {"dtype": "DT_FLOAT", "tensorShape": {"dim": [{"size": "1"}, {"size": "1"}, {"size": "64"}, {"size": "32"}]}}}}}, {"name": "model_27/tf.math.add_317/Add/y", "op": "Const", "attr": {"dtype": {"type": "DT_FLOAT"}, "value": {"tensor": {"dtype": "DT_FLOAT", "tensorShape": {"dim": [{"size": "32"}]}}}}}, {"name": "model_27/tf.concat_48/concat/axis", "op": "Const", "attr": {"value": {"tensor": {"dtype": "DT_INT32", "tensorShape": {}}}, "dtype": {"type": "DT_INT32"}}}, {"name": "model_27/tf.nn.convolution_230/convolution/filter", "op": "Const", "attr": {"dtype": {"type": "DT_FLOAT"}, "value": {"tensor": {"dtype": "DT_FLOAT", "tensorShape": {"dim": [{"size": "1"}, {"size": "1"}, {"size": "64"}, {"size": "64"}]}}}}}, {"name": "model_27/tf.math.add_331/Add/y", "op": "Const", "attr": {"dtype": {"type": "DT_FLOAT"}, "value": {"tensor": {"dtype": "DT_FLOAT", "tensorShape": {"dim": [{"size": "64"}]}}}}}, {"name": "model_27/tf.nn.convolution_231/convolution/filter", "op": "Const", "attr": {"value": {"tensor": {"dtype": "DT_FLOAT", "tensorShape": {"dim": [{"size": "3"}, {"size": "3"}, {"size": "64"}, {"size": "64"}]}}}, "dtype": {"type": "DT_FLOAT"}}}, {"name": "model_27/tf.math.add_332/Add/y", "op": "Const", "attr": {"value": {"tensor": {"dtype": "DT_FLOAT", "tensorShape": {"dim": [{"size": "64"}]}}}, "dtype": {"type": "DT_FLOAT"}}}, {"name": "model_27/tf.nn.convolution_233/convolution/filter", "op": "Const", "attr": {"dtype": {"type": "DT_FLOAT"}, "value": {"tensor": {"dtype": "DT_FLOAT", "tensorShape": {"dim": [{"size": "1"}, {"size": "1"}, {"size": "64"}, {"size": "32"}]}}}}}, {"name": "model_27/tf.math.add_334/Add/y", "op": "Const", "attr": {"dtype": {"type": "DT_FLOAT"}, "value": {"tensor": {"dtype": "DT_FLOAT", "tensorShape": {"dim": [{"size": "32"}]}}}}}, {"name": "model_27/tf.concat_49/concat/axis", "op": "Const", "attr": {"dtype": {"type": "DT_INT32"}, "value": {"tensor": {"dtype": "DT_INT32", "tensorShape": {}}}}}, {"name": "model_27/tf.nn.convolution_240/convolution/filter", "op": "Const", "attr": {"dtype": {"type": "DT_FLOAT"}, "value": {"tensor": {"dtype": "DT_FLOAT", "tensorShape": {"dim": [{"size": "1"}, {"size": "1"}, {"size": "64"}, {"size": "64"}]}}}}}, {"name": "model_27/tf.math.add_347/Add/y", "op": "Const", "attr": {"dtype": {"type": "DT_FLOAT"}, "value": {"tensor": {"dtype": "DT_FLOAT", "tensorShape": {"dim": [{"size": "64"}]}}}}}, {"name": "model_27/tf.nn.convolution_241/convolution/filter", "op": "Const", "attr": {"value": {"tensor": {"dtype": "DT_FLOAT", "tensorShape": {"dim": [{"size": "3"}, {"size": "3"}, {"size": "64"}, {"size": "64"}]}}}, "dtype": {"type": "DT_FLOAT"}}}, {"name": "model_27/tf.math.add_348/Add/y", "op": "Const", "attr": {"dtype": {"type": "DT_FLOAT"}, "value": {"tensor": {"dtype": "DT_FLOAT", "tensorShape": {"dim": [{"size": "64"}]}}}}}, {"name": "model_27/tf.concat_50/concat/axis", "op": "Const", "attr": {"dtype": {"type": "DT_INT32"}, "value": {"tensor": {"dtype": "DT_INT32", "tensorShape": {}}}}}, {"name": "model_27/tf.nn.convolution_242/convolution/filter", "op": "Const", "attr": {"value": {"tensor": {"dtype": "DT_FLOAT", "tensorShape": {"dim": [{"size": "1"}, {"size": "1"}, {"size": "256"}, {"size": "128"}]}}}, "dtype": {"type": "DT_FLOAT"}}}, {"name": "model_27/tf.math.add_349/Add/y", "op": "Const", "attr": {"dtype": {"type": "DT_FLOAT"}, "value": {"tensor": {"dtype": "DT_FLOAT", "tensorShape": {"dim": [{"size": "128"}]}}}}}, {"name": "model_27/tf.compat.v1.nn.depthwise_conv2d_10/depthwise/filter_in", "op": "Const", "attr": {"dtype": {"type": "DT_FLOAT"}, "value": {"tensor": {"dtype": "DT_FLOAT", "tensorShape": {"dim": [{"size": "3"}, {"size": "3"}, {"size": "128"}, {"size": "1"}]}}}}}, {"name": "model_27/tf.math.add_351/Add/y", "op": "Const", "attr": {"value": {"tensor": {"dtype": "DT_FLOAT", "tensorShape": {"dim": [{"size": "128"}]}}}, "dtype": {"type": "DT_FLOAT"}}}, {"name": "model_27/tf.nn.convolution_245/convolution/filter", "op": "Const", "attr": {"dtype": {"type": "DT_FLOAT"}, "value": {"tensor": {"dtype": "DT_FLOAT", "tensorShape": {"dim": [{"size": "1"}, {"size": "1"}, {"size": "128"}, {"size": "64"}]}}}}}, {"name": "model_27/tf.math.add_353/Add/y", "op": "Const", "attr": {"value": {"tensor": {"dtype": "DT_FLOAT", "tensorShape": {"dim": [{"size": "64"}]}}}, "dtype": {"type": "DT_FLOAT"}}}, {"name": "model_27/tf.compat.v1.nn.depthwise_conv2d_11/depthwise/filter_in", "op": "Const", "attr": {"dtype": {"type": "DT_FLOAT"}, "value": {"tensor": {"dtype": "DT_FLOAT", "tensorShape": {"dim": [{"size": "3"}, {"size": "3"}, {"size": "64"}, {"size": "1"}]}}}}}, {"name": "model_27/tf.math.add_355/Add/y", "op": "Const", "attr": {"dtype": {"type": "DT_FLOAT"}, "value": {"tensor": {"dtype": "DT_FLOAT", "tensorShape": {"dim": [{"size": "64"}]}}}}}, {"name": "model_27/tf.nn.convolution_247/convolution/filter", "op": "Const", "attr": {"dtype": {"type": "DT_FLOAT"}, "value": {"tensor": {"dtype": "DT_FLOAT", "tensorShape": {"dim": [{"size": "1"}, {"size": "1"}, {"size": "64"}, {"size": "64"}]}}}}}, {"name": "model_27/tf.math.add_356/Add/y", "op": "Const", "attr": {"value": {"tensor": {"dtype": "DT_FLOAT", "tensorShape": {"dim": [{"size": "64"}]}}}, "dtype": {"type": "DT_FLOAT"}}}, {"name": "model_27/tf.nn.convolution_248/convolution/filter", "op": "Const", "attr": {"value": {"tensor": {"dtype": "DT_FLOAT", "tensorShape": {"dim": [{"size": "1"}, {"size": "1"}, {"size": "64"}, {"size": "2"}]}}}, "dtype": {"type": "DT_FLOAT"}}}, {"name": "model_27/tf.math.add_357/Add/y", "op": "Const", "attr": {"dtype": {"type": "DT_FLOAT"}, "value": {"tensor": {"dtype": "DT_FLOAT", "tensorShape": {"dim": [{"size": "2"}]}}}}}, {"name": "model_27/tf.concat_51/concat/axis", "op": "Const", "attr": {"dtype": {"type": "DT_INT32"}, "value": {"tensor": {"dtype": "DT_INT32", "tensorShape": {}}}}}, {"name": "model_27/tf.compat.v1.transpose_40/transpose/perm", "op": "Const", "attr": {"dtype": {"type": "DT_INT32"}, "value": {"tensor": {"dtype": "DT_INT32", "tensorShape": {"dim": [{"size": "4"}]}}}}}, {"name": "model_27/tf.reshape_23/Reshape/shape", "op": "Const", "attr": {"dtype": {"type": "DT_INT32"}, "value": {"tensor": {"dtype": "DT_INT32", "tensorShape": {"dim": [{"size": "3"}]}}}}}, {"name": "model_27/tf.concat_52/concat/axis", "op": "Const", "attr": {"value": {"tensor": {"dtype": "DT_INT32", "tensorShape": {}}}, "dtype": {"type": "DT_INT32"}}}, {"name": "model_27/tf.strided_slice_37/StridedSlice/begin", "op": "Const", "attr": {"value": {"tensor": {"dtype": "DT_INT64", "tensorShape": {"dim": [{"size": "3"}]}}}, "dtype": {"type": "DT_INT64"}}}, {"name": "model_27/tf.strided_slice_37/StridedSlice/end", "op": "Const", "attr": {"dtype": {"type": "DT_INT64"}, "value": {"tensor": {"dtype": "DT_INT64", "tensorShape": {"dim": [{"size": "3"}]}}}}}, {"name": "model_27/tf.strided_slice_37/StridedSlice/strides", "op": "Const", "attr": {"value": {"tensor": {"dtype": "DT_INT64", "tensorShape": {"dim": [{"size": "3"}]}}}, "dtype": {"type": "DT_INT64"}}}, {"name": "model_27/output0/concat/axis", "op": "Const", "attr": {"value": {"tensor": {"dtype": "DT_INT32", "tensorShape": {}}}, "dtype": {"type": "DT_INT32"}}}, {"name": "x", "op": "Placeholder", "attr": {"shape": {"shape": {"dim": [{"size": "1"}, {"size": "640"}, {"size": "640"}, {"size": "3"}]}}, "dtype": {"type": "DT_FLOAT"}}}, {"name": "model_27/tf.compat.v1.pad_7/Pad", "op": "Pad", "input": ["x", "model_27/tf.compat.v1.pad_7/Pad/paddings"], "attr": {"T": {"type": "DT_FLOAT"}, "Tpaddings": {"type": "DT_INT32"}}}, {"name": "model_27/tf.math.add_83/Add", "op": "_FusedConv2D", "input": ["model_27/tf.compat.v1.pad_7/Pad", "model_27/tf.nn.convolution_64/convolution/filter", "model_27/tf.math.add_83/Add/y"], "device": "/device:CPU:0", "attr": {"num_host_args": {"i": "0"}, "epsilon": {"f": 0.0}, "strides": {"list": {"i": ["1", "2", "2", "1"]}}, "T": {"type": "DT_FLOAT"}, "TArgs": {"list": {"type": ["DT_FLOAT"]}}, "filter_format": {"s": "SFdJTw=="}, "padding": {"s": "VkFMSUQ="}, "leakyrelu_alpha": {"f": 0.2}, "explicit_paddings": {"list": {}}, "num_args": {"i": "1"}, "data_format": {"s": "TkhXQw=="}, "use_cudnn_on_gpu": {"b": true}, "fused_ops": {"list": {"s": ["Qmlhc0FkZA=="]}}, "dilations": {"list": {"i": ["1", "1", "1", "1"]}}}}, {"name": "model_27/tf.math.sigmoid_64/Sigmoid", "op": "Sigmoid", "input": ["model_27/tf.math.add_83/Add"], "attr": {"T": {"type": "DT_FLOAT"}}}, {"name": "model_27/tf.math.multiply_280/Mul", "op": "Mul", "input": ["model_27/tf.math.add_83/Add", "model_27/tf.math.sigmoid_64/Sigmoid"], "attr": {"T": {"type": "DT_FLOAT"}}}, {"name": "model_27/tf.compat.v1.pad_8/Pad", "op": "Pad", "input": ["model_27/tf.math.multiply_280/Mul", "model_27/tf.compat.v1.pad_8/Pad/paddings"], "attr": {"T": {"type": "DT_FLOAT"}, "Tpaddings": {"type": "DT_INT32"}}}, {"name": "model_27/tf.math.add_84/Add", "op": "_FusedConv2D", "input": ["model_27/tf.compat.v1.pad_8/Pad", "model_27/tf.nn.convolution_65/convolution/filter", "model_27/tf.math.add_84/Add/y"], "device": "/device:CPU:0", "attr": {"leakyrelu_alpha": {"f": 0.2}, "epsilon": {"f": 0.0}, "fused_ops": {"list": {"s": ["Qmlhc0FkZA=="]}}, "dilations": {"list": {"i": ["1", "1", "1", "1"]}}, "explicit_paddings": {"list": {}}, "strides": {"list": {"i": ["1", "2", "2", "1"]}}, "padding": {"s": "VkFMSUQ="}, "use_cudnn_on_gpu": {"b": true}, "num_host_args": {"i": "0"}, "TArgs": {"list": {"type": ["DT_FLOAT"]}}, "data_format": {"s": "TkhXQw=="}, "num_args": {"i": "1"}, "T": {"type": "DT_FLOAT"}, "filter_format": {"s": "SFdJTw=="}}}, {"name": "model_27/tf.math.sigmoid_65/Sigmoid", "op": "Sigmoid", "input": ["model_27/tf.math.add_84/Add"], "attr": {"T": {"type": "DT_FLOAT"}}}, {"name": "model_27/tf.math.multiply_284/Mul", "op": "Mul", "input": ["model_27/tf.math.add_84/Add", "model_27/tf.math.sigmoid_65/Sigmoid"], "attr": {"T": {"type": "DT_FLOAT"}}}, {"name": "model_27/tf.math.add_85/Add", "op": "_FusedConv2D", "input": ["model_27/tf.math.multiply_284/Mul", "model_27/tf.nn.convolution_66/convolution/filter", "model_27/tf.math.add_85/Add/y"], "device": "/device:CPU:0", "attr": {"data_format": {"s": "TkhXQw=="}, "use_cudnn_on_gpu": {"b": true}, "num_host_args": {"i": "0"}, "leakyrelu_alpha": {"f": 0.2}, "filter_format": {"s": "SFdJTw=="}, "padding": {"s": "U0FNRQ=="}, "T": {"type": "DT_FLOAT"}, "TArgs": {"list": {"type": ["DT_FLOAT"]}}, "strides": {"list": {"i": ["1", "1", "1", "1"]}}, "explicit_paddings": {"list": {}}, "dilations": {"list": {"i": ["1", "1", "1", "1"]}}, "num_args": {"i": "1"}, "epsilon": {"f": 0.0}, "fused_ops": {"list": {"s": ["Qmlhc0FkZA=="]}}}}, {"name": "model_27/tf.math.sigmoid_66/Sigmoid", "op": "Sigmoid", "input": ["model_27/tf.math.add_85/Add"], "attr": {"T": {"type": "DT_FLOAT"}}}, {"name": "model_27/tf.math.multiply_288/Mul", "op": "Mul", "input": ["model_27/tf.math.add_85/Add", "model_27/tf.math.sigmoid_66/Sigmoid"], "attr": {"T": {"type": "DT_FLOAT"}}}, {"name": "model_27/tf.strided_slice_20/StridedSlice", "op": "StridedSlice", "input": ["model_27/tf.math.multiply_288/Mul", "model_27/tf.strided_slice_20/ones_like/tensor", "model_27/tf.strided_slice_20/StridedSlice/end", "model_27/tf.strided_slice_20/ones_like"], "attr": {"ellipsis_mask": {"i": "0"}, "end_mask": {"i": "7"}, "T": {"type": "DT_FLOAT"}, "shrink_axis_mask": {"i": "0"}, "Index": {"type": "DT_INT64"}, "begin_mask": {"i": "15"}, "new_axis_mask": {"i": "0"}}}, {"name": "model_27/tf.strided_slice_21/StridedSlice", "op": "StridedSlice", "input": ["model_27/tf.math.multiply_288/Mul", "model_27/tf.strided_slice_21/ones_like/tensor", "model_27/tf.strided_slice_21/StridedSlice/end", "model_27/tf.strided_slice_21/ones_like"], "attr": {"Index": {"type": "DT_INT64"}, "end_mask": {"i": "7"}, "begin_mask": {"i": "7"}, "T": {"type": "DT_FLOAT"}, "ellipsis_mask": {"i": "0"}, "new_axis_mask": {"i": "0"}, "shrink_axis_mask": {"i": "0"}}}, {"name": "model_27/tf.math.add_86/Add", "op": "_FusedConv2D", "input": ["model_27/tf.strided_slice_21/StridedSlice", "model_27/tf.nn.convolution_67/convolution/filter", "model_27/tf.math.add_86/Add/y"], "device": "/device:CPU:0", "attr": {"dilations": {"list": {"i": ["1", "1", "1", "1"]}}, "strides": {"list": {"i": ["1", "1", "1", "1"]}}, "TArgs": {"list": {"type": ["DT_FLOAT"]}}, "data_format": {"s": "TkhXQw=="}, "num_args": {"i": "1"}, "filter_format": {"s": "SFdJTw=="}, "use_cudnn_on_gpu": {"b": true}, "leakyrelu_alpha": {"f": 0.2}, "padding": {"s": "U0FNRQ=="}, "fused_ops": {"list": {"s": ["Qmlhc0FkZA=="]}}, "T": {"type": "DT_FLOAT"}, "num_host_args": {"i": "0"}, "explicit_paddings": {"list": {}}, "epsilon": {"f": 0.0}}}, {"name": "model_27/tf.math.sigmoid_67/Sigmoid", "op": "Sigmoid", "input": ["model_27/tf.math.add_86/Add"], "attr": {"T": {"type": "DT_FLOAT"}}}, {"name": "model_27/tf.math.multiply_292/Mul", "op": "Mul", "input": ["model_27/tf.math.add_86/Add", "model_27/tf.math.sigmoid_67/Sigmoid"], "attr": {"T": {"type": "DT_FLOAT"}}}, {"name": "model_27/tf.math.add_87/Add", "op": "_FusedConv2D", "input": ["model_27/tf.math.multiply_292/Mul", "model_27/tf.nn.convolution_68/convolution/filter", "model_27/tf.math.add_87/Add/y"], "device": "/device:CPU:0", "attr": {"dilations": {"list": {"i": ["1", "1", "1", "1"]}}, "filter_format": {"s": "SFdJTw=="}, "strides": {"list": {"i": ["1", "1", "1", "1"]}}, "leakyrelu_alpha": {"f": 0.2}, "padding": {"s": "U0FNRQ=="}, "fused_ops": {"list": {"s": ["Qmlhc0FkZA=="]}}, "epsilon": {"f": 0.0}, "TArgs": {"list": {"type": ["DT_FLOAT"]}}, "num_args": {"i": "1"}, "data_format": {"s": "TkhXQw=="}, "use_cudnn_on_gpu": {"b": true}, "num_host_args": {"i": "0"}, "T": {"type": "DT_FLOAT"}, "explicit_paddings": {"list": {}}}}, {"name": "model_27/tf.math.sigmoid_68/Sigmoid", "op": "Sigmoid", "input": ["model_27/tf.math.add_87/Add"], "attr": {"T": {"type": "DT_FLOAT"}}}, {"name": "model_27/tf.math.multiply_296/Mul", "op": "Mul", "input": ["model_27/tf.math.add_87/Add", "model_27/tf.math.sigmoid_68/Sigmoid"], "attr": {"T": {"type": "DT_FLOAT"}}}, {"name": "model_27/tf.concat_22/concat", "op": "ConcatV2", "input": ["model_27/tf.strided_slice_20/StridedSlice", "model_27/tf.strided_slice_21/StridedSlice", "model_27/tf.math.multiply_292/Mul", "model_27/tf.math.multiply_296/Mul", "model_27/tf.concat_22/concat/axis"], "attr": {"Tidx": {"type": "DT_INT32"}, "T": {"type": "DT_FLOAT"}, "N": {"i": "4"}}}, {"name": "model_27/tf.math.add_88/Add", "op": "_FusedConv2D", "input": ["model_27/tf.concat_22/concat", "model_27/tf.nn.convolution_69/convolution/filter", "model_27/tf.math.add_88/Add/y"], "device": "/device:CPU:0", "attr": {"filter_format": {"s": "SFdJTw=="}, "num_host_args": {"i": "0"}, "fused_ops": {"list": {"s": ["Qmlhc0FkZA=="]}}, "epsilon": {"f": 0.0}, "T": {"type": "DT_FLOAT"}, "explicit_paddings": {"list": {}}, "num_args": {"i": "1"}, "dilations": {"list": {"i": ["1", "1", "1", "1"]}}, "use_cudnn_on_gpu": {"b": true}, "strides": {"list": {"i": ["1", "1", "1", "1"]}}, "data_format": {"s": "TkhXQw=="}, "TArgs": {"list": {"type": ["DT_FLOAT"]}}, "padding": {"s": "U0FNRQ=="}, "leakyrelu_alpha": {"f": 0.2}}}, {"name": "model_27/tf.math.sigmoid_69/Sigmoid", "op": "Sigmoid", "input": ["model_27/tf.math.add_88/Add"], "attr": {"T": {"type": "DT_FLOAT"}}}, {"name": "model_27/tf.math.multiply_300/Mul", "op": "Mul", "input": ["model_27/tf.math.add_88/Add", "model_27/tf.math.sigmoid_69/Sigmoid"], "attr": {"T": {"type": "DT_FLOAT"}}}, {"name": "model_27/tf.compat.v1.nn.avg_pool/AvgPool", "op": "AvgPool", "input": ["model_27/tf.math.multiply_300/Mul"], "attr": {"padding": {"s": "VkFMSUQ="}, "ksize": {"list": {"i": ["1", "2", "2", "1"]}}, "T": {"type": "DT_FLOAT"}, "data_format": {"s": "TkhXQw=="}, "strides": {"list": {"i": ["1", "1", "1", "1"]}}}}, {"name": "model_27/tf.compat.v1.pad_9/Pad", "op": "Pad", "input": ["model_27/tf.compat.v1.nn.avg_pool/AvgPool", "model_27/tf.compat.v1.pad_9/Pad/paddings"], "attr": {"Tpaddings": {"type": "DT_INT32"}, "T": {"type": "DT_FLOAT"}}}, {"name": "model_27/tf.math.add_89/Add", "op": "_FusedConv2D", "input": ["model_27/tf.compat.v1.pad_9/Pad", "model_27/tf.nn.convolution_70/convolution/filter", "model_27/tf.math.add_89/Add/y"], "device": "/device:CPU:0", "attr": {"explicit_paddings": {"list": {}}, "padding": {"s": "VkFMSUQ="}, "T": {"type": "DT_FLOAT"}, "dilations": {"list": {"i": ["1", "1", "1", "1"]}}, "strides": {"list": {"i": ["1", "2", "2", "1"]}}, "data_format": {"s": "TkhXQw=="}, "TArgs": {"list": {"type": ["DT_FLOAT"]}}, "fused_ops": {"list": {"s": ["Qmlhc0FkZA=="]}}, "num_host_args": {"i": "0"}, "filter_format": {"s": "SFdJTw=="}, "leakyrelu_alpha": {"f": 0.2}, "epsilon": {"f": 0.0}, "num_args": {"i": "1"}, "use_cudnn_on_gpu": {"b": true}}}, {"name": "model_27/tf.math.sigmoid_70/Sigmoid", "op": "Sigmoid", "input": ["model_27/tf.math.add_89/Add"], "attr": {"T": {"type": "DT_FLOAT"}}}, {"name": "model_27/tf.math.multiply_304/Mul", "op": "Mul", "input": ["model_27/tf.math.add_89/Add", "model_27/tf.math.sigmoid_70/Sigmoid"], "attr": {"T": {"type": "DT_FLOAT"}}}, {"name": "model_27/tf.math.add_90/Add", "op": "_FusedConv2D", "input": ["model_27/tf.math.multiply_304/Mul", "model_27/tf.nn.convolution_71/convolution/filter", "model_27/tf.math.add_90/Add/y"], "device": "/device:CPU:0", "attr": {"data_format": {"s": "TkhXQw=="}, "dilations": {"list": {"i": ["1", "1", "1", "1"]}}, "num_host_args": {"i": "0"}, "padding": {"s": "U0FNRQ=="}, "fused_ops": {"list": {"s": ["Qmlhc0FkZA=="]}}, "epsilon": {"f": 0.0}, "T": {"type": "DT_FLOAT"}, "num_args": {"i": "1"}, "explicit_paddings": {"list": {}}, "leakyrelu_alpha": {"f": 0.2}, "use_cudnn_on_gpu": {"b": true}, "strides": {"list": {"i": ["1", "1", "1", "1"]}}, "filter_format": {"s": "SFdJTw=="}, "TArgs": {"list": {"type": ["DT_FLOAT"]}}}}, {"name": "model_27/tf.math.sigmoid_71/Sigmoid", "op": "Sigmoid", "input": ["model_27/tf.math.add_90/Add"], "attr": {"T": {"type": "DT_FLOAT"}}}, {"name": "model_27/tf.math.multiply_308/Mul", "op": "Mul", "input": ["model_27/tf.math.add_90/Add", "model_27/tf.math.sigmoid_71/Sigmoid"], "attr": {"T": {"type": "DT_FLOAT"}}}, {"name": "model_27/tf.strided_slice_22/StridedSlice", "op": "StridedSlice", "input": ["model_27/tf.math.multiply_308/Mul", "model_27/tf.strided_slice_22/ones_like/tensor", "model_27/tf.strided_slice_22/StridedSlice/end", "model_27/tf.strided_slice_22/ones_like"], "attr": {"ellipsis_mask": {"i": "0"}, "T": {"type": "DT_FLOAT"}, "begin_mask": {"i": "15"}, "shrink_axis_mask": {"i": "0"}, "Index": {"type": "DT_INT64"}, "end_mask": {"i": "7"}, "new_axis_mask": {"i": "0"}}}, {"name": "model_27/tf.strided_slice_23/StridedSlice", "op": "StridedSlice", "input": ["model_27/tf.math.multiply_308/Mul", "model_27/tf.strided_slice_23/ones_like/tensor", "model_27/tf.strided_slice_23/StridedSlice/end", "model_27/tf.strided_slice_23/ones_like"], "attr": {"new_axis_mask": {"i": "0"}, "end_mask": {"i": "7"}, "Index": {"type": "DT_INT64"}, "ellipsis_mask": {"i": "0"}, "begin_mask": {"i": "7"}, "shrink_axis_mask": {"i": "0"}, "T": {"type": "DT_FLOAT"}}}, {"name": "model_27/tf.math.add_91/Add", "op": "_FusedConv2D", "input": ["model_27/tf.strided_slice_23/StridedSlice", "model_27/tf.nn.convolution_72/convolution/filter", "model_27/tf.math.add_91/Add/y"], "device": "/device:CPU:0", "attr": {"filter_format": {"s": "SFdJTw=="}, "dilations": {"list": {"i": ["1", "1", "1", "1"]}}, "use_cudnn_on_gpu": {"b": true}, "strides": {"list": {"i": ["1", "1", "1", "1"]}}, "TArgs": {"list": {"type": ["DT_FLOAT"]}}, "leakyrelu_alpha": {"f": 0.2}, "num_host_args": {"i": "0"}, "padding": {"s": "U0FNRQ=="}, "num_args": {"i": "1"}, "T": {"type": "DT_FLOAT"}, "epsilon": {"f": 0.0}, "fused_ops": {"list": {"s": ["Qmlhc0FkZA=="]}}, "explicit_paddings": {"list": {}}, "data_format": {"s": "TkhXQw=="}}}, {"name": "model_27/tf.math.add_92/Add", "op": "_FusedConv2D", "input": ["model_27/tf.strided_slice_23/StridedSlice", "model_27/tf.nn.convolution_73/convolution/filter", "model_27/tf.math.add_92/Add/y"], "device": "/device:CPU:0", "attr": {"T": {"type": "DT_FLOAT"}, "num_args": {"i": "1"}, "data_format": {"s": "TkhXQw=="}, "strides": {"list": {"i": ["1", "1", "1", "1"]}}, "dilations": {"list": {"i": ["1", "1", "1", "1"]}}, "filter_format": {"s": "SFdJTw=="}, "num_host_args": {"i": "0"}, "TArgs": {"list": {"type": ["DT_FLOAT"]}}, "explicit_paddings": {"list": {}}, "padding": {"s": "U0FNRQ=="}, "epsilon": {"f": 0.0}, "fused_ops": {"list": {"s": ["Qmlhc0FkZA=="]}}, "leakyrelu_alpha": {"f": 0.2}, "use_cudnn_on_gpu": {"b": true}}}, {"name": "model_27/tf.math.sigmoid_72/Sigmoid", "op": "Sigmoid", "input": ["model_27/tf.math.add_91/Add"], "attr": {"T": {"type": "DT_FLOAT"}}}, {"name": "model_27/tf.math.sigmoid_73/Sigmoid", "op": "Sigmoid", "input": ["model_27/tf.math.add_92/Add"], "attr": {"T": {"type": "DT_FLOAT"}}}, {"name": "model_27/tf.math.multiply_312/Mul", "op": "Mul", "input": ["model_27/tf.math.add_91/Add", "model_27/tf.math.sigmoid_72/Sigmoid"], "attr": {"T": {"type": "DT_FLOAT"}}}, {"name": "model_27/tf.math.multiply_316/Mul", "op": "Mul", "input": ["model_27/tf.math.add_92/Add", "model_27/tf.math.sigmoid_73/Sigmoid"], "attr": {"T": {"type": "DT_FLOAT"}}}, {"name": "model_27/tf.math.add_93/Add", "op": "_FusedConv2D", "input": ["model_27/tf.math.multiply_312/Mul", "model_27/tf.nn.convolution_74/convolution/filter", "model_27/tf.math.add_93/Add/y"], "device": "/device:CPU:0", "attr": {"use_cudnn_on_gpu": {"b": true}, "epsilon": {"f": 0.0}, "strides": {"list": {"i": ["1", "1", "1", "1"]}}, "leakyrelu_alpha": {"f": 0.2}, "num_host_args": {"i": "0"}, "explicit_paddings": {"list": {}}, "padding": {"s": "U0FNRQ=="}, "T": {"type": "DT_FLOAT"}, "dilations": {"list": {"i": ["1", "1", "1", "1"]}}, "data_format": {"s": "TkhXQw=="}, "TArgs": {"list": {"type": ["DT_FLOAT"]}}, "fused_ops": {"list": {"s": ["Qmlhc0FkZA=="]}}, "filter_format": {"s": "SFdJTw=="}, "num_args": {"i": "1"}}}, {"name": "model_27/tf.math.sigmoid_74/Sigmoid", "op": "Sigmoid", "input": ["model_27/tf.math.add_93/Add"], "attr": {"T": {"type": "DT_FLOAT"}}}, {"name": "model_27/tf.math.multiply_320/Mul", "op": "Mul", "input": ["model_27/tf.math.add_93/Add", "model_27/tf.math.sigmoid_74/Sigmoid"], "attr": {"T": {"type": "DT_FLOAT"}}}, {"name": "model_27/tf.math.add_94/Add", "op": "_FusedConv2D", "input": ["model_27/tf.math.multiply_320/Mul", "model_27/tf.nn.convolution_75/convolution/filter", "model_27/tf.math.add_94/Add/y"], "device": "/device:CPU:0", "attr": {"num_args": {"i": "1"}, "leakyrelu_alpha": {"f": 0.2}, "T": {"type": "DT_FLOAT"}, "epsilon": {"f": 0.0}, "data_format": {"s": "TkhXQw=="}, "padding": {"s": "U0FNRQ=="}, "use_cudnn_on_gpu": {"b": true}, "dilations": {"list": {"i": ["1", "1", "1", "1"]}}, "strides": {"list": {"i": ["1", "1", "1", "1"]}}, "fused_ops": {"list": {"s": ["Qmlhc0FkZA=="]}}, "explicit_paddings": {"list": {}}, "num_host_args": {"i": "0"}, "filter_format": {"s": "SFdJTw=="}, "TArgs": {"list": {"type": ["DT_FLOAT"]}}}}, {"name": "model_27/tf.math.sigmoid_75/Sigmoid", "op": "Sigmoid", "input": ["model_27/tf.math.add_94/Add"], "attr": {"T": {"type": "DT_FLOAT"}}}, {"name": "model_27/tf.math.multiply_324/Mul", "op": "Mul", "input": ["model_27/tf.math.add_94/Add", "model_27/tf.math.sigmoid_75/Sigmoid"], "attr": {"T": {"type": "DT_FLOAT"}}}, {"name": "model_27/tf.math.add_96/Add", "op": "AddV2", "input": ["model_27/tf.math.multiply_312/Mul", "model_27/tf.math.multiply_324/Mul"], "attr": {"T": {"type": "DT_FLOAT"}}}, {"name": "model_27/tf.math.add_97/Add", "op": "_FusedConv2D", "input": ["model_27/tf.math.add_96/Add", "model_27/tf.nn.convolution_76/convolution/filter", "model_27/tf.math.add_97/Add/y"], "device": "/device:CPU:0", "attr": {"num_args": {"i": "1"}, "num_host_args": {"i": "0"}, "padding": {"s": "U0FNRQ=="}, "dilations": {"list": {"i": ["1", "1", "1", "1"]}}, "explicit_paddings": {"list": {}}, "T": {"type": "DT_FLOAT"}, "data_format": {"s": "TkhXQw=="}, "filter_format": {"s": "SFdJTw=="}, "leakyrelu_alpha": {"f": 0.2}, "fused_ops": {"list": {"s": ["Qmlhc0FkZA=="]}}, "TArgs": {"list": {"type": ["DT_FLOAT"]}}, "strides": {"list": {"i": ["1", "1", "1", "1"]}}, "epsilon": {"f": 0.0}, "use_cudnn_on_gpu": {"b": true}}}, {"name": "model_27/tf.math.sigmoid_76/Sigmoid", "op": "Sigmoid", "input": ["model_27/tf.math.add_97/Add"], "attr": {"T": {"type": "DT_FLOAT"}}}, {"name": "model_27/tf.math.multiply_330/Mul", "op": "Mul", "input": ["model_27/tf.math.add_97/Add", "model_27/tf.math.sigmoid_76/Sigmoid"], "attr": {"T": {"type": "DT_FLOAT"}}}, {"name": "model_27/tf.math.add_98/Add", "op": "_FusedConv2D", "input": ["model_27/tf.math.multiply_330/Mul", "model_27/tf.nn.convolution_77/convolution/filter", "model_27/tf.math.add_98/Add/y"], "device": "/device:CPU:0", "attr": {"TArgs": {"list": {"type": ["DT_FLOAT"]}}, "T": {"type": "DT_FLOAT"}, "dilations": {"list": {"i": ["1", "1", "1", "1"]}}, "explicit_paddings": {"list": {}}, "fused_ops": {"list": {"s": ["Qmlhc0FkZA=="]}}, "leakyrelu_alpha": {"f": 0.2}, "num_host_args": {"i": "0"}, "num_args": {"i": "1"}, "data_format": {"s": "TkhXQw=="}, "strides": {"list": {"i": ["1", "1", "1", "1"]}}, "filter_format": {"s": "SFdJTw=="}, "use_cudnn_on_gpu": {"b": true}, "epsilon": {"f": 0.0}, "padding": {"s": "U0FNRQ=="}}}, {"name": "model_27/tf.math.sigmoid_77/Sigmoid", "op": "Sigmoid", "input": ["model_27/tf.math.add_98/Add"], "attr": {"T": {"type": "DT_FLOAT"}}}, {"name": "model_27/tf.math.multiply_334/Mul", "op": "Mul", "input": ["model_27/tf.math.add_98/Add", "model_27/tf.math.sigmoid_77/Sigmoid"], "attr": {"T": {"type": "DT_FLOAT"}}}, {"name": "model_27/tf.math.add_100/Add", "op": "AddV2", "input": ["model_27/tf.math.add_96/Add", "model_27/tf.math.multiply_334/Mul"], "attr": {"T": {"type": "DT_FLOAT"}}}, {"name": "model_27/tf.math.add_101/Add", "op": "_FusedConv2D", "input": ["model_27/tf.math.add_100/Add", "model_27/tf.nn.convolution_78/convolution/filter", "model_27/tf.math.add_101/Add/y"], "device": "/device:CPU:0", "attr": {"leakyrelu_alpha": {"f": 0.2}, "padding": {"s": "U0FNRQ=="}, "epsilon": {"f": 0.0}, "fused_ops": {"list": {"s": ["Qmlhc0FkZA=="]}}, "num_host_args": {"i": "0"}, "num_args": {"i": "1"}, "TArgs": {"list": {"type": ["DT_FLOAT"]}}, "explicit_paddings": {"list": {}}, "dilations": {"list": {"i": ["1", "1", "1", "1"]}}, "filter_format": {"s": "SFdJTw=="}, "use_cudnn_on_gpu": {"b": true}, "T": {"type": "DT_FLOAT"}, "data_format": {"s": "TkhXQw=="}, "strides": {"list": {"i": ["1", "1", "1", "1"]}}}}, {"name": "model_27/tf.math.sigmoid_78/Sigmoid", "op": "Sigmoid", "input": ["model_27/tf.math.add_101/Add"], "attr": {"T": {"type": "DT_FLOAT"}}}, {"name": "model_27/tf.math.multiply_340/Mul", "op": "Mul", "input": ["model_27/tf.math.add_101/Add", "model_27/tf.math.sigmoid_78/Sigmoid"], "attr": {"T": {"type": "DT_FLOAT"}}}, {"name": "model_27/tf.math.add_102/Add", "op": "_FusedConv2D", "input": ["model_27/tf.math.multiply_340/Mul", "model_27/tf.nn.convolution_79/convolution/filter", "model_27/tf.math.add_102/Add/y"], "device": "/device:CPU:0", "attr": {"explicit_paddings": {"list": {}}, "T": {"type": "DT_FLOAT"}, "TArgs": {"list": {"type": ["DT_FLOAT"]}}, "padding": {"s": "U0FNRQ=="}, "strides": {"list": {"i": ["1", "1", "1", "1"]}}, "epsilon": {"f": 0.0}, "num_args": {"i": "1"}, "filter_format": {"s": "SFdJTw=="}, "data_format": {"s": "TkhXQw=="}, "leakyrelu_alpha": {"f": 0.2}, "fused_ops": {"list": {"s": ["Qmlhc0FkZA=="]}}, "use_cudnn_on_gpu": {"b": true}, "num_host_args": {"i": "0"}, "dilations": {"list": {"i": ["1", "1", "1", "1"]}}}}, {"name": "model_27/tf.math.sigmoid_79/Sigmoid", "op": "Sigmoid", "input": ["model_27/tf.math.add_102/Add"], "attr": {"T": {"type": "DT_FLOAT"}}}, {"name": "model_27/tf.math.multiply_344/Mul", "op": "Mul", "input": ["model_27/tf.math.add_102/Add", "model_27/tf.math.sigmoid_79/Sigmoid"], "attr": {"T": {"type": "DT_FLOAT"}}}, {"name": "model_27/tf.math.add_104/Add", "op": "AddV2", "input": ["model_27/tf.math.add_100/Add", "model_27/tf.math.multiply_344/Mul"], "attr": {"T": {"type": "DT_FLOAT"}}}, {"name": "model_27/tf.concat_23/concat", "op": "ConcatV2", "input": ["model_27/tf.math.add_104/Add", "model_27/tf.math.multiply_316/Mul", "model_27/tf.concat_23/concat/axis"], "attr": {"T": {"type": "DT_FLOAT"}, "N": {"i": "2"}, "Tidx": {"type": "DT_INT32"}}}, {"name": "model_27/tf.math.add_105/Add", "op": "_FusedConv2D", "input": ["model_27/tf.concat_23/concat", "model_27/tf.nn.convolution_80/convolution/filter", "model_27/tf.math.add_105/Add/y"], "device": "/device:CPU:0", "attr": {"num_args": {"i": "1"}, "data_format": {"s": "TkhXQw=="}, "padding": {"s": "U0FNRQ=="}, "T": {"type": "DT_FLOAT"}, "use_cudnn_on_gpu": {"b": true}, "epsilon": {"f": 0.0}, "fused_ops": {"list": {"s": ["Qmlhc0FkZA=="]}}, "num_host_args": {"i": "0"}, "TArgs": {"list": {"type": ["DT_FLOAT"]}}, "dilations": {"list": {"i": ["1", "1", "1", "1"]}}, "leakyrelu_alpha": {"f": 0.2}, "filter_format": {"s": "SFdJTw=="}, "explicit_paddings": {"list": {}}, "strides": {"list": {"i": ["1", "1", "1", "1"]}}}}, {"name": "model_27/tf.math.sigmoid_80/Sigmoid", "op": "Sigmoid", "input": ["model_27/tf.math.add_105/Add"], "attr": {"T": {"type": "DT_FLOAT"}}}, {"name": "model_27/tf.math.multiply_350/Mul", "op": "Mul", "input": ["model_27/tf.math.add_105/Add", "model_27/tf.math.sigmoid_80/Sigmoid"], "attr": {"T": {"type": "DT_FLOAT"}}}, {"name": "model_27/tf.math.add_106/Add", "op": "_FusedConv2D", "input": ["model_27/tf.math.multiply_350/Mul", "model_27/tf.nn.convolution_81/convolution/filter", "model_27/tf.math.add_106/Add/y"], "device": "/device:CPU:0", "attr": {"dilations": {"list": {"i": ["1", "1", "1", "1"]}}, "use_cudnn_on_gpu": {"b": true}, "strides": {"list": {"i": ["1", "1", "1", "1"]}}, "explicit_paddings": {"list": {}}, "filter_format": {"s": "SFdJTw=="}, "padding": {"s": "U0FNRQ=="}, "leakyrelu_alpha": {"f": 0.2}, "fused_ops": {"list": {"s": ["Qmlhc0FkZA=="]}}, "num_args": {"i": "1"}, "num_host_args": {"i": "0"}, "epsilon": {"f": 0.0}, "data_format": {"s": "TkhXQw=="}, "T": {"type": "DT_FLOAT"}, "TArgs": {"list": {"type": ["DT_FLOAT"]}}}}, {"name": "model_27/tf.math.sigmoid_81/Sigmoid", "op": "Sigmoid", "input": ["model_27/tf.math.add_106/Add"], "attr": {"T": {"type": "DT_FLOAT"}}}, {"name": "model_27/tf.math.multiply_354/Mul", "op": "Mul", "input": ["model_27/tf.math.add_106/Add", "model_27/tf.math.sigmoid_81/Sigmoid"], "attr": {"T": {"type": "DT_FLOAT"}}}, {"name": "model_27/tf.math.add_107/Add", "op": "_FusedConv2D", "input": ["model_27/tf.math.multiply_354/Mul", "model_27/tf.nn.convolution_82/convolution/filter", "model_27/tf.math.add_107/Add/y"], "device": "/device:CPU:0", "attr": {"epsilon": {"f": 0.0}, "explicit_paddings": {"list": {}}, "data_format": {"s": "TkhXQw=="}, "strides": {"list": {"i": ["1", "1", "1", "1"]}}, "T": {"type": "DT_FLOAT"}, "num_host_args": {"i": "0"}, "TArgs": {"list": {"type": ["DT_FLOAT"]}}, "fused_ops": {"list": {"s": ["Qmlhc0FkZA=="]}}, "dilations": {"list": {"i": ["1", "1", "1", "1"]}}, "leakyrelu_alpha": {"f": 0.2}, "filter_format": {"s": "SFdJTw=="}, "use_cudnn_on_gpu": {"b": true}, "padding": {"s": "U0FNRQ=="}, "num_args": {"i": "1"}}}, {"name": "model_27/tf.math.add_108/Add", "op": "_FusedConv2D", "input": ["model_27/tf.math.multiply_354/Mul", "model_27/tf.nn.convolution_83/convolution/filter", "model_27/tf.math.add_108/Add/y"], "device": "/device:CPU:0", "attr": {"use_cudnn_on_gpu": {"b": true}, "fused_ops": {"list": {"s": ["Qmlhc0FkZA=="]}}, "data_format": {"s": "TkhXQw=="}, "strides": {"list": {"i": ["1", "1", "1", "1"]}}, "filter_format": {"s": "SFdJTw=="}, "leakyrelu_alpha": {"f": 0.2}, "padding": {"s": "U0FNRQ=="}, "epsilon": {"f": 0.0}, "dilations": {"list": {"i": ["1", "1", "1", "1"]}}, "T": {"type": "DT_FLOAT"}, "explicit_paddings": {"list": {}}, "TArgs": {"list": {"type": ["DT_FLOAT"]}}, "num_args": {"i": "1"}, "num_host_args": {"i": "0"}}}, {"name": "model_27/tf.math.sigmoid_82/Sigmoid", "op": "Sigmoid", "input": ["model_27/tf.math.add_107/Add"], "attr": {"T": {"type": "DT_FLOAT"}}}, {"name": "model_27/tf.math.sigmoid_83/Sigmoid", "op": "Sigmoid", "input": ["model_27/tf.math.add_108/Add"], "attr": {"T": {"type": "DT_FLOAT"}}}, {"name": "model_27/tf.math.multiply_358/Mul", "op": "Mul", "input": ["model_27/tf.math.add_107/Add", "model_27/tf.math.sigmoid_82/Sigmoid"], "attr": {"T": {"type": "DT_FLOAT"}}}, {"name": "model_27/tf.math.multiply_362/Mul", "op": "Mul", "input": ["model_27/tf.math.add_108/Add", "model_27/tf.math.sigmoid_83/Sigmoid"], "attr": {"T": {"type": "DT_FLOAT"}}}, {"name": "model_27/tf.math.add_109/Add", "op": "_FusedConv2D", "input": ["model_27/tf.math.multiply_358/Mul", "model_27/tf.nn.convolution_84/convolution/filter", "model_27/tf.math.add_109/Add/y"], "device": "/device:CPU:0", "attr": {"padding": {"s": "U0FNRQ=="}, "num_host_args": {"i": "0"}, "num_args": {"i": "1"}, "dilations": {"list": {"i": ["1", "1", "1", "1"]}}, "use_cudnn_on_gpu": {"b": true}, "epsilon": {"f": 0.0}, "data_format": {"s": "TkhXQw=="}, "T": {"type": "DT_FLOAT"}, "TArgs": {"list": {"type": ["DT_FLOAT"]}}, "fused_ops": {"list": {"s": ["Qmlhc0FkZA=="]}}, "filter_format": {"s": "SFdJTw=="}, "leakyrelu_alpha": {"f": 0.2}, "strides": {"list": {"i": ["1", "1", "1", "1"]}}, "explicit_paddings": {"list": {}}}}, {"name": "model_27/tf.math.sigmoid_84/Sigmoid", "op": "Sigmoid", "input": ["model_27/tf.math.add_109/Add"], "attr": {"T": {"type": "DT_FLOAT"}}}, {"name": "model_27/tf.math.multiply_366/Mul", "op": "Mul", "input": ["model_27/tf.math.add_109/Add", "model_27/tf.math.sigmoid_84/Sigmoid"], "attr": {"T": {"type": "DT_FLOAT"}}}, {"name": "model_27/tf.math.add_110/Add", "op": "_FusedConv2D", "input": ["model_27/tf.math.multiply_366/Mul", "model_27/tf.nn.convolution_85/convolution/filter", "model_27/tf.math.add_110/Add/y"], "device": "/device:CPU:0", "attr": {"data_format": {"s": "TkhXQw=="}, "TArgs": {"list": {"type": ["DT_FLOAT"]}}, "filter_format": {"s": "SFdJTw=="}, "strides": {"list": {"i": ["1", "1", "1", "1"]}}, "num_args": {"i": "1"}, "use_cudnn_on_gpu": {"b": true}, "epsilon": {"f": 0.0}, "leakyrelu_alpha": {"f": 0.2}, "explicit_paddings": {"list": {}}, "num_host_args": {"i": "0"}, "T": {"type": "DT_FLOAT"}, "fused_ops": {"list": {"s": ["Qmlhc0FkZA=="]}}, "padding": {"s": "U0FNRQ=="}, "dilations": {"list": {"i": ["1", "1", "1", "1"]}}}}, {"name": "model_27/tf.math.sigmoid_85/Sigmoid", "op": "Sigmoid", "input": ["model_27/tf.math.add_110/Add"], "attr": {"T": {"type": "DT_FLOAT"}}}, {"name": "model_27/tf.math.multiply_370/Mul", "op": "Mul", "input": ["model_27/tf.math.add_110/Add", "model_27/tf.math.sigmoid_85/Sigmoid"], "attr": {"T": {"type": "DT_FLOAT"}}}, {"name": "model_27/tf.math.add_112/Add", "op": "AddV2", "input": ["model_27/tf.math.multiply_358/Mul", "model_27/tf.math.multiply_370/Mul"], "attr": {"T": {"type": "DT_FLOAT"}}}, {"name": "model_27/tf.math.add_113/Add", "op": "_FusedConv2D", "input": ["model_27/tf.math.add_112/Add", "model_27/tf.nn.convolution_86/convolution/filter", "model_27/tf.math.add_113/Add/y"], "device": "/device:CPU:0", "attr": {"leakyrelu_alpha": {"f": 0.2}, "num_args": {"i": "1"}, "epsilon": {"f": 0.0}, "num_host_args": {"i": "0"}, "fused_ops": {"list": {"s": ["Qmlhc0FkZA=="]}}, "T": {"type": "DT_FLOAT"}, "TArgs": {"list": {"type": ["DT_FLOAT"]}}, "dilations": {"list": {"i": ["1", "1", "1", "1"]}}, "use_cudnn_on_gpu": {"b": true}, "strides": {"list": {"i": ["1", "1", "1", "1"]}}, "filter_format": {"s": "SFdJTw=="}, "data_format": {"s": "TkhXQw=="}, "explicit_paddings": {"list": {}}, "padding": {"s": "U0FNRQ=="}}}, {"name": "model_27/tf.math.sigmoid_86/Sigmoid", "op": "Sigmoid", "input": ["model_27/tf.math.add_113/Add"], "attr": {"T": {"type": "DT_FLOAT"}}}, {"name": "model_27/tf.math.multiply_376/Mul", "op": "Mul", "input": ["model_27/tf.math.add_113/Add", "model_27/tf.math.sigmoid_86/Sigmoid"], "attr": {"T": {"type": "DT_FLOAT"}}}, {"name": "model_27/tf.math.add_114/Add", "op": "_FusedConv2D", "input": ["model_27/tf.math.multiply_376/Mul", "model_27/tf.nn.convolution_87/convolution/filter", "model_27/tf.math.add_114/Add/y"], "device": "/device:CPU:0", "attr": {"explicit_paddings": {"list": {}}, "filter_format": {"s": "SFdJTw=="}, "padding": {"s": "U0FNRQ=="}, "use_cudnn_on_gpu": {"b": true}, "num_args": {"i": "1"}, "epsilon": {"f": 0.0}, "fused_ops": {"list": {"s": ["Qmlhc0FkZA=="]}}, "leakyrelu_alpha": {"f": 0.2}, "strides": {"list": {"i": ["1", "1", "1", "1"]}}, "dilations": {"list": {"i": ["1", "1", "1", "1"]}}, "T": {"type": "DT_FLOAT"}, "data_format": {"s": "TkhXQw=="}, "TArgs": {"list": {"type": ["DT_FLOAT"]}}, "num_host_args": {"i": "0"}}}, {"name": "model_27/tf.math.sigmoid_87/Sigmoid", "op": "Sigmoid", "input": ["model_27/tf.math.add_114/Add"], "attr": {"T": {"type": "DT_FLOAT"}}}, {"name": "model_27/tf.math.multiply_380/Mul", "op": "Mul", "input": ["model_27/tf.math.add_114/Add", "model_27/tf.math.sigmoid_87/Sigmoid"], "attr": {"T": {"type": "DT_FLOAT"}}}, {"name": "model_27/tf.math.add_116/Add", "op": "AddV2", "input": ["model_27/tf.math.add_112/Add", "model_27/tf.math.multiply_380/Mul"], "attr": {"T": {"type": "DT_FLOAT"}}}, {"name": "model_27/tf.math.add_117/Add", "op": "_FusedConv2D", "input": ["model_27/tf.math.add_116/Add", "model_27/tf.nn.convolution_88/convolution/filter", "model_27/tf.math.add_117/Add/y"], "device": "/device:CPU:0", "attr": {"padding": {"s": "U0FNRQ=="}, "use_cudnn_on_gpu": {"b": true}, "data_format": {"s": "TkhXQw=="}, "TArgs": {"list": {"type": ["DT_FLOAT"]}}, "explicit_paddings": {"list": {}}, "leakyrelu_alpha": {"f": 0.2}, "T": {"type": "DT_FLOAT"}, "dilations": {"list": {"i": ["1", "1", "1", "1"]}}, "epsilon": {"f": 0.0}, "num_host_args": {"i": "0"}, "num_args": {"i": "1"}, "fused_ops": {"list": {"s": ["Qmlhc0FkZA=="]}}, "filter_format": {"s": "SFdJTw=="}, "strides": {"list": {"i": ["1", "1", "1", "1"]}}}}, {"name": "model_27/tf.math.sigmoid_88/Sigmoid", "op": "Sigmoid", "input": ["model_27/tf.math.add_117/Add"], "attr": {"T": {"type": "DT_FLOAT"}}}, {"name": "model_27/tf.math.multiply_386/Mul", "op": "Mul", "input": ["model_27/tf.math.add_117/Add", "model_27/tf.math.sigmoid_88/Sigmoid"], "attr": {"T": {"type": "DT_FLOAT"}}}, {"name": "model_27/tf.math.add_118/Add", "op": "_FusedConv2D", "input": ["model_27/tf.math.multiply_386/Mul", "model_27/tf.nn.convolution_89/convolution/filter", "model_27/tf.math.add_118/Add/y"], "device": "/device:CPU:0", "attr": {"strides": {"list": {"i": ["1", "1", "1", "1"]}}, "data_format": {"s": "TkhXQw=="}, "T": {"type": "DT_FLOAT"}, "leakyrelu_alpha": {"f": 0.2}, "fused_ops": {"list": {"s": ["Qmlhc0FkZA=="]}}, "explicit_paddings": {"list": {}}, "use_cudnn_on_gpu": {"b": true}, "num_host_args": {"i": "0"}, "epsilon": {"f": 0.0}, "TArgs": {"list": {"type": ["DT_FLOAT"]}}, "filter_format": {"s": "SFdJTw=="}, "padding": {"s": "U0FNRQ=="}, "dilations": {"list": {"i": ["1", "1", "1", "1"]}}, "num_args": {"i": "1"}}}, {"name": "model_27/tf.math.sigmoid_89/Sigmoid", "op": "Sigmoid", "input": ["model_27/tf.math.add_118/Add"], "attr": {"T": {"type": "DT_FLOAT"}}}, {"name": "model_27/tf.math.multiply_390/Mul", "op": "Mul", "input": ["model_27/tf.math.add_118/Add", "model_27/tf.math.sigmoid_89/Sigmoid"], "attr": {"T": {"type": "DT_FLOAT"}}}, {"name": "model_27/tf.math.add_120/Add", "op": "AddV2", "input": ["model_27/tf.math.add_116/Add", "model_27/tf.math.multiply_390/Mul"], "attr": {"T": {"type": "DT_FLOAT"}}}, {"name": "model_27/tf.concat_24/concat", "op": "ConcatV2", "input": ["model_27/tf.math.add_120/Add", "model_27/tf.math.multiply_362/Mul", "model_27/tf.concat_24/concat/axis"], "attr": {"N": {"i": "2"}, "Tidx": {"type": "DT_INT32"}, "T": {"type": "DT_FLOAT"}}}, {"name": "model_27/tf.math.add_121/Add", "op": "_FusedConv2D", "input": ["model_27/tf.concat_24/concat", "model_27/tf.nn.convolution_90/convolution/filter", "model_27/tf.math.add_121/Add/y"], "device": "/device:CPU:0", "attr": {"data_format": {"s": "TkhXQw=="}, "epsilon": {"f": 0.0}, "explicit_paddings": {"list": {}}, "strides": {"list": {"i": ["1", "1", "1", "1"]}}, "padding": {"s": "U0FNRQ=="}, "use_cudnn_on_gpu": {"b": true}, "num_host_args": {"i": "0"}, "fused_ops": {"list": {"s": ["Qmlhc0FkZA=="]}}, "num_args": {"i": "1"}, "leakyrelu_alpha": {"f": 0.2}, "T": {"type": "DT_FLOAT"}, "filter_format": {"s": "SFdJTw=="}, "dilations": {"list": {"i": ["1", "1", "1", "1"]}}, "TArgs": {"list": {"type": ["DT_FLOAT"]}}}}, {"name": "model_27/tf.math.sigmoid_90/Sigmoid", "op": "Sigmoid", "input": ["model_27/tf.math.add_121/Add"], "attr": {"T": {"type": "DT_FLOAT"}}}, {"name": "model_27/tf.math.multiply_396/Mul", "op": "Mul", "input": ["model_27/tf.math.add_121/Add", "model_27/tf.math.sigmoid_90/Sigmoid"], "attr": {"T": {"type": "DT_FLOAT"}}}, {"name": "model_27/tf.math.add_122/Add", "op": "_FusedConv2D", "input": ["model_27/tf.math.multiply_396/Mul", "model_27/tf.nn.convolution_91/convolution/filter", "model_27/tf.math.add_122/Add/y"], "device": "/device:CPU:0", "attr": {"leakyrelu_alpha": {"f": 0.2}, "explicit_paddings": {"list": {}}, "epsilon": {"f": 0.0}, "fused_ops": {"list": {"s": ["Qmlhc0FkZA=="]}}, "use_cudnn_on_gpu": {"b": true}, "padding": {"s": "U0FNRQ=="}, "strides": {"list": {"i": ["1", "1", "1", "1"]}}, "filter_format": {"s": "SFdJTw=="}, "num_host_args": {"i": "0"}, "num_args": {"i": "1"}, "TArgs": {"list": {"type": ["DT_FLOAT"]}}, "T": {"type": "DT_FLOAT"}, "data_format": {"s": "TkhXQw=="}, "dilations": {"list": {"i": ["1", "1", "1", "1"]}}}}, {"name": "model_27/tf.math.sigmoid_91/Sigmoid", "op": "Sigmoid", "input": ["model_27/tf.math.add_122/Add"], "attr": {"T": {"type": "DT_FLOAT"}}}, {"name": "model_27/tf.math.multiply_400/Mul", "op": "Mul", "input": ["model_27/tf.math.add_122/Add", "model_27/tf.math.sigmoid_91/Sigmoid"], "attr": {"T": {"type": "DT_FLOAT"}}}, {"name": "model_27/tf.concat_25/concat", "op": "ConcatV2", "input": ["model_27/tf.strided_slice_22/StridedSlice", "model_27/tf.strided_slice_23/StridedSlice", "model_27/tf.math.multiply_354/Mul", "model_27/tf.math.multiply_400/Mul", "model_27/tf.concat_25/concat/axis"], "attr": {"N": {"i": "4"}, "Tidx": {"type": "DT_INT32"}, "T": {"type": "DT_FLOAT"}}}, {"name": "model_27/tf.math.add_123/Add", "op": "_FusedConv2D", "input": ["model_27/tf.concat_25/concat", "model_27/tf.nn.convolution_92/convolution/filter", "model_27/tf.math.add_123/Add/y"], "device": "/device:CPU:0", "attr": {"fused_ops": {"list": {"s": ["Qmlhc0FkZA=="]}}, "filter_format": {"s": "SFdJTw=="}, "leakyrelu_alpha": {"f": 0.2}, "num_args": {"i": "1"}, "TArgs": {"list": {"type": ["DT_FLOAT"]}}, "padding": {"s": "U0FNRQ=="}, "strides": {"list": {"i": ["1", "1", "1", "1"]}}, "data_format": {"s": "TkhXQw=="}, "explicit_paddings": {"list": {}}, "num_host_args": {"i": "0"}, "use_cudnn_on_gpu": {"b": true}, "T": {"type": "DT_FLOAT"}, "epsilon": {"f": 0.0}, "dilations": {"list": {"i": ["1", "1", "1", "1"]}}}}, {"name": "model_27/tf.math.sigmoid_92/Sigmoid", "op": "Sigmoid", "input": ["model_27/tf.math.add_123/Add"], "attr": {"T": {"type": "DT_FLOAT"}}}, {"name": "model_27/tf.math.multiply_404/Mul", "op": "Mul", "input": ["model_27/tf.math.add_123/Add", "model_27/tf.math.sigmoid_92/Sigmoid"], "attr": {"T": {"type": "DT_FLOAT"}}}, {"name": "model_27/tf.compat.v1.nn.avg_pool_1/AvgPool", "op": "AvgPool", "input": ["model_27/tf.math.multiply_404/Mul"], "attr": {"T": {"type": "DT_FLOAT"}, "padding": {"s": "VkFMSUQ="}, "ksize": {"list": {"i": ["1", "2", "2", "1"]}}, "strides": {"list": {"i": ["1", "1", "1", "1"]}}, "data_format": {"s": "TkhXQw=="}}}, {"name": "model_27/tf.compat.v1.pad_10/Pad", "op": "Pad", "input": ["model_27/tf.compat.v1.nn.avg_pool_1/AvgPool", "model_27/tf.compat.v1.pad_10/Pad/paddings"], "attr": {"Tpaddings": {"type": "DT_INT32"}, "T": {"type": "DT_FLOAT"}}}, {"name": "model_27/tf.math.add_124/Add", "op": "_FusedConv2D", "input": ["model_27/tf.compat.v1.pad_10/Pad", "model_27/tf.nn.convolution_93/convolution/filter", "model_27/tf.math.add_124/Add/y"], "device": "/device:CPU:0", "attr": {"num_args": {"i": "1"}, "num_host_args": {"i": "0"}, "T": {"type": "DT_FLOAT"}, "data_format": {"s": "TkhXQw=="}, "use_cudnn_on_gpu": {"b": true}, "explicit_paddings": {"list": {}}, "fused_ops": {"list": {"s": ["Qmlhc0FkZA=="]}}, "leakyrelu_alpha": {"f": 0.2}, "epsilon": {"f": 0.0}, "strides": {"list": {"i": ["1", "2", "2", "1"]}}, "TArgs": {"list": {"type": ["DT_FLOAT"]}}, "padding": {"s": "VkFMSUQ="}, "dilations": {"list": {"i": ["1", "1", "1", "1"]}}, "filter_format": {"s": "SFdJTw=="}}}, {"name": "model_27/tf.math.sigmoid_93/Sigmoid", "op": "Sigmoid", "input": ["model_27/tf.math.add_124/Add"], "attr": {"T": {"type": "DT_FLOAT"}}}, {"name": "model_27/tf.math.multiply_408/Mul", "op": "Mul", "input": ["model_27/tf.math.add_124/Add", "model_27/tf.math.sigmoid_93/Sigmoid"], "attr": {"T": {"type": "DT_FLOAT"}}}, {"name": "model_27/tf.math.add_125/Add", "op": "_FusedConv2D", "input": ["model_27/tf.math.multiply_408/Mul", "model_27/tf.nn.convolution_94/convolution/filter", "model_27/tf.math.add_125/Add/y"], "device": "/device:CPU:0", "attr": {"dilations": {"list": {"i": ["1", "1", "1", "1"]}}, "filter_format": {"s": "SFdJTw=="}, "T": {"type": "DT_FLOAT"}, "leakyrelu_alpha": {"f": 0.2}, "explicit_paddings": {"list": {}}, "use_cudnn_on_gpu": {"b": true}, "strides": {"list": {"i": ["1", "1", "1", "1"]}}, "num_args": {"i": "1"}, "data_format": {"s": "TkhXQw=="}, "num_host_args": {"i": "0"}, "padding": {"s": "U0FNRQ=="}, "TArgs": {"list": {"type": ["DT_FLOAT"]}}, "fused_ops": {"list": {"s": ["Qmlhc0FkZA=="]}}, "epsilon": {"f": 0.0}}}, {"name": "model_27/tf.math.sigmoid_94/Sigmoid", "op": "Sigmoid", "input": ["model_27/tf.math.add_125/Add"], "attr": {"T": {"type": "DT_FLOAT"}}}, {"name": "model_27/tf.math.multiply_412/Mul", "op": "Mul", "input": ["model_27/tf.math.add_125/Add", "model_27/tf.math.sigmoid_94/Sigmoid"], "attr": {"T": {"type": "DT_FLOAT"}}}, {"name": "model_27/tf.strided_slice_24/StridedSlice", "op": "StridedSlice", "input": ["model_27/tf.math.multiply_412/Mul", "model_27/tf.strided_slice_24/ones_like/tensor", "model_27/tf.strided_slice_24/StridedSlice/end", "model_27/tf.strided_slice_24/ones_like"], "attr": {"ellipsis_mask": {"i": "0"}, "new_axis_mask": {"i": "0"}, "shrink_axis_mask": {"i": "0"}, "begin_mask": {"i": "15"}, "T": {"type": "DT_FLOAT"}, "end_mask": {"i": "7"}, "Index": {"type": "DT_INT64"}}}, {"name": "model_27/tf.strided_slice_25/StridedSlice", "op": "StridedSlice", "input": ["model_27/tf.math.multiply_412/Mul", "model_27/tf.strided_slice_25/ones_like/tensor", "model_27/tf.strided_slice_25/StridedSlice/end", "model_27/tf.strided_slice_25/ones_like"], "attr": {"shrink_axis_mask": {"i": "0"}, "ellipsis_mask": {"i": "0"}, "Index": {"type": "DT_INT64"}, "end_mask": {"i": "7"}, "begin_mask": {"i": "7"}, "new_axis_mask": {"i": "0"}, "T": {"type": "DT_FLOAT"}}}, {"name": "model_27/tf.math.add_126/Add", "op": "_FusedConv2D", "input": ["model_27/tf.strided_slice_25/StridedSlice", "model_27/tf.nn.convolution_95/convolution/filter", "model_27/tf.math.add_126/Add/y"], "device": "/device:CPU:0", "attr": {"TArgs": {"list": {"type": ["DT_FLOAT"]}}, "padding": {"s": "U0FNRQ=="}, "epsilon": {"f": 0.0}, "leakyrelu_alpha": {"f": 0.2}, "num_host_args": {"i": "0"}, "explicit_paddings": {"list": {}}, "use_cudnn_on_gpu": {"b": true}, "T": {"type": "DT_FLOAT"}, "strides": {"list": {"i": ["1", "1", "1", "1"]}}, "data_format": {"s": "TkhXQw=="}, "num_args": {"i": "1"}, "dilations": {"list": {"i": ["1", "1", "1", "1"]}}, "filter_format": {"s": "SFdJTw=="}, "fused_ops": {"list": {"s": ["Qmlhc0FkZA=="]}}}}, {"name": "model_27/tf.math.add_127/Add", "op": "_FusedConv2D", "input": ["model_27/tf.strided_slice_25/StridedSlice", "model_27/tf.nn.convolution_96/convolution/filter", "model_27/tf.math.add_127/Add/y"], "device": "/device:CPU:0", "attr": {"padding": {"s": "U0FNRQ=="}, "TArgs": {"list": {"type": ["DT_FLOAT"]}}, "explicit_paddings": {"list": {}}, "epsilon": {"f": 0.0}, "data_format": {"s": "TkhXQw=="}, "dilations": {"list": {"i": ["1", "1", "1", "1"]}}, "T": {"type": "DT_FLOAT"}, "fused_ops": {"list": {"s": ["Qmlhc0FkZA=="]}}, "strides": {"list": {"i": ["1", "1", "1", "1"]}}, "leakyrelu_alpha": {"f": 0.2}, "filter_format": {"s": "SFdJTw=="}, "num_host_args": {"i": "0"}, "use_cudnn_on_gpu": {"b": true}, "num_args": {"i": "1"}}}, {"name": "model_27/tf.math.sigmoid_95/Sigmoid", "op": "Sigmoid", "input": ["model_27/tf.math.add_126/Add"], "attr": {"T": {"type": "DT_FLOAT"}}}, {"name": "model_27/tf.math.sigmoid_96/Sigmoid", "op": "Sigmoid", "input": ["model_27/tf.math.add_127/Add"], "attr": {"T": {"type": "DT_FLOAT"}}}, {"name": "model_27/tf.math.multiply_416/Mul", "op": "Mul", "input": ["model_27/tf.math.add_126/Add", "model_27/tf.math.sigmoid_95/Sigmoid"], "attr": {"T": {"type": "DT_FLOAT"}}}, {"name": "model_27/tf.math.multiply_420/Mul", "op": "Mul", "input": ["model_27/tf.math.add_127/Add", "model_27/tf.math.sigmoid_96/Sigmoid"], "attr": {"T": {"type": "DT_FLOAT"}}}, {"name": "model_27/tf.math.add_128/Add", "op": "_FusedConv2D", "input": ["model_27/tf.math.multiply_416/Mul", "model_27/tf.nn.convolution_97/convolution/filter", "model_27/tf.math.add_128/Add/y"], "device": "/device:CPU:0", "attr": {"num_host_args": {"i": "0"}, "filter_format": {"s": "SFdJTw=="}, "TArgs": {"list": {"type": ["DT_FLOAT"]}}, "T": {"type": "DT_FLOAT"}, "use_cudnn_on_gpu": {"b": true}, "data_format": {"s": "TkhXQw=="}, "epsilon": {"f": 0.0}, "padding": {"s": "U0FNRQ=="}, "num_args": {"i": "1"}, "dilations": {"list": {"i": ["1", "1", "1", "1"]}}, "strides": {"list": {"i": ["1", "1", "1", "1"]}}, "explicit_paddings": {"list": {}}, "fused_ops": {"list": {"s": ["Qmlhc0FkZA=="]}}, "leakyrelu_alpha": {"f": 0.2}}}, {"name": "model_27/tf.math.sigmoid_97/Sigmoid", "op": "Sigmoid", "input": ["model_27/tf.math.add_128/Add"], "attr": {"T": {"type": "DT_FLOAT"}}}, {"name": "model_27/tf.math.multiply_424/Mul", "op": "Mul", "input": ["model_27/tf.math.add_128/Add", "model_27/tf.math.sigmoid_97/Sigmoid"], "attr": {"T": {"type": "DT_FLOAT"}}}, {"name": "model_27/tf.math.add_129/Add", "op": "_FusedConv2D", "input": ["model_27/tf.math.multiply_424/Mul", "model_27/tf.nn.convolution_98/convolution/filter", "model_27/tf.math.add_129/Add/y"], "device": "/device:CPU:0", "attr": {"explicit_paddings": {"list": {}}, "epsilon": {"f": 0.0}, "num_args": {"i": "1"}, "num_host_args": {"i": "0"}, "padding": {"s": "U0FNRQ=="}, "dilations": {"list": {"i": ["1", "1", "1", "1"]}}, "filter_format": {"s": "SFdJTw=="}, "T": {"type": "DT_FLOAT"}, "use_cudnn_on_gpu": {"b": true}, "fused_ops": {"list": {"s": ["Qmlhc0FkZA=="]}}, "strides": {"list": {"i": ["1", "1", "1", "1"]}}, "leakyrelu_alpha": {"f": 0.2}, "data_format": {"s": "TkhXQw=="}, "TArgs": {"list": {"type": ["DT_FLOAT"]}}}}, {"name": "model_27/tf.math.sigmoid_98/Sigmoid", "op": "Sigmoid", "input": ["model_27/tf.math.add_129/Add"], "attr": {"T": {"type": "DT_FLOAT"}}}, {"name": "model_27/tf.math.multiply_428/Mul", "op": "Mul", "input": ["model_27/tf.math.add_129/Add", "model_27/tf.math.sigmoid_98/Sigmoid"], "attr": {"T": {"type": "DT_FLOAT"}}}, {"name": "model_27/tf.math.add_131/Add", "op": "AddV2", "input": ["model_27/tf.math.multiply_4…
27/tf.compat.v1.transpose_47/transpose", "model_27/tf.compat.v1.transpose_48/transpose/perm"], "attr": {"Tperm": {"type": "DT_INT32"}, "T": {"type": "DT_FLOAT"}}}, {"name": "model_27/tf.nn.softmax_1//model.22/dfl/Softmax", "op": "Softmax", "input": ["model_27/tf.compat.v1.transpose_48/transpose"], "attr": {"T": {"type": "DT_FLOAT"}}}, {"name": "model_27/tf.nn.convolution_249/convolution", "op": "Conv2D", "input": ["model_27/tf.nn.softmax_1//model.22/dfl/Softmax", "model_27/tf.nn.convolution_249/convolution/filter"], "device": "/device:CPU:0", "attr": {"strides": {"list": {"i": ["1", "1", "1", "1"]}}, "explicit_paddings": {"list": {}}, "use_cudnn_on_gpu": {"b": true}, "T": {"type": "DT_FLOAT"}, "data_format": {"s": "TkhXQw=="}, "dilations": {"list": {"i": ["1", "1", "1", "1"]}}, "padding": {"s": "U0FNRQ=="}}}, {"name": "model_27/tf.compat.v1.transpose_53/transpose", "op": "Transpose", "input": ["model_27/tf.nn.convolution_249/convolution", "model_27/tf.compat.v1.transpose_53/transpose/perm"], "attr": {"T": {"type": "DT_FLOAT"}, "Tperm": {"type": "DT_INT32"}}}, {"name": "model_27/tf.reshape_29/Reshape", "op": "Reshape", "input": ["model_27/tf.compat.v1.transpose_53/transpose", "model_27/tf.reshape_29/Reshape/shape"], "attr": {"T": {"type": "DT_FLOAT"}, "Tshape": {"type": "DT_INT32"}}}, {"name": "model_27/tf.strided_slice_39/StridedSlice", "op": "StridedSlice", "input": ["model_27/tf.reshape_29/Reshape", "model_27/tf.strided_slice_39/ones_like/tensor", "model_27/tf.strided_slice_39/StridedSlice/end", "model_27/tf.strided_slice_39/ones_like"], "attr": {"shrink_axis_mask": {"i": "0"}, "new_axis_mask": {"i": "0"}, "ellipsis_mask": {"i": "0"}, "Index": {"type": "DT_INT64"}, "begin_mask": {"i": "5"}, "end_mask": {"i": "5"}, "T": {"type": "DT_FLOAT"}}}, {"name": "model_27/tf.strided_slice_38/StridedSlice", "op": "StridedSlice", "input": ["model_27/tf.reshape_29/Reshape", "model_27/tf.strided_slice_38/ones_like/tensor", "model_27/tf.strided_slice_38/StridedSlice/end", "model_27/tf.strided_slice_38/ones_like"], "attr": {"begin_mask": {"i": "7"}, "Index": {"type": "DT_INT64"}, "new_axis_mask": {"i": "0"}, "ellipsis_mask": {"i": "0"}, "end_mask": {"i": "5"}, "shrink_axis_mask": {"i": "0"}, "T": {"type": "DT_FLOAT"}}}, {"name": "model_27/tf.math.add_358/Add", "op": "AddV2", "input": ["model_27/46734", "model_27/tf.strided_slice_39/StridedSlice"], "attr": {"T": {"type": "DT_FLOAT"}}}, {"name": "model_27/tf.math.subtract_2/Sub", "op": "Sub", "input": ["model_27/46737", "model_27/tf.strided_slice_38/StridedSlice"], "attr": {"T": {"type": "DT_FLOAT"}}}, {"name": "model_27/tf.math.add_359/Add", "op": "AddV2", "input": ["model_27/tf.math.subtract_2/Sub", "model_27/tf.math.add_358/Add"], "attr": {"T": {"type": "DT_FLOAT"}}}, {"name": "model_27/tf.math.subtract_3/Sub", "op": "Sub", "input": ["model_27/tf.math.add_358/Add", "model_27/tf.math.subtract_2/Sub"], "attr": {"T": {"type": "DT_FLOAT"}}}, {"name": "model_27/tf.math.divide_1/truediv", "op": "Mul", "input": ["model_27/tf.math.add_359/Add", "ConstantFolding/model_27/tf.math.divide_1/truediv_recip"], "attr": {"T": {"type": "DT_FLOAT"}}}, {"name": "model_27/tf.concat_56/concat", "op": "ConcatV2", "input": ["model_27/tf.math.divide_1/truediv", "model_27/tf.math.subtract_3/Sub", "model_27/tf.concat_56/concat/axis"], "attr": {"Tidx": {"type": "DT_INT32"}, "N": {"i": "2"}, "T": {"type": "DT_FLOAT"}}}, {"name": "model_27/tf.math.multiply_1113/Mul", "op": "Mul", "input": ["model_27/tf.concat_56/concat", "model_27/tf.math.multiply_1113/Mul/y"], "attr": {"T": {"type": "DT_FLOAT"}}}, {"name": "model_27/output0/concat", "op": "ConcatV2", "input": ["model_27/tf.math.multiply_1113/Mul", "model_27/tf.math.sigmoid_249/Sigmoid", "model_27/output0/concat/axis"], "attr": {"N": {"i": "2"}, "Tidx": {"type": "DT_INT32"}, "T": {"type": "DT_FLOAT"}}}, {"name": "Identity", "op": "Identity", "input": ["model_27/output0/concat"], "attr": {"T": {"type": "DT_FLOAT"}}}], "library": {}, "versions": {"producer": 1882}}, "weightsManifest": [{"paths": ["group1-shard1of2.bin", "group1-shard2of2.bin"], "weights": [{"name": "ConstantFolding/model_27/tf.math.divide_1/truediv_recip", "shape": [1, 1, 1], "dtype": "float32"}, {"name": "model_27/46734", "shape": [1, 2, 8400], "dtype": "float32"}, {"name": "model_27/tf.strided_slice_39/ones_like/tensor", "shape": [3], "dtype": "int32"}, {"name": "model_27/tf.strided_slice_39/StridedSlice/end", "shape": [3], "dtype": "int32"}, {"name": "model_27/tf.strided_slice_39/ones_like", "shape": [3], "dtype": "int32"}, {"name": "model_27/46737", "shape": [1, 2, 8400], "dtype": "float32"}, {"name": "model_27/tf.strided_slice_36/StridedSlice/begin", "shape": [3], "dtype": "int32"}, {"name": "model_27/tf.strided_slice_36/StridedSlice/end", "shape": [3], "dtype": "int32"}, {"name": "model_27/tf.strided_slice_36/StridedSlice/strides", "shape": [3], "dtype": "int32"}, {"name": "model_27/tf.reshape_26/Reshape/shape", "shape": [4], "dtype": "int32"}, {"name": "model_27/tf.compat.v1.transpose_47/transpose/perm", "shape": [4], "dtype": "int32"}, {"name": "model_27/tf.compat.v1.transpose_48/transpose/perm", "shape": [4], "dtype": "int32"}, {"name": "model_27/tf.nn.convolution_249/convolution/filter", "shape": [1, 1, 16, 1], "dtype": "float32"}, {"name": "model_27/tf.compat.v1.transpose_53/transpose/perm", "shape": [4], "dtype": "int32"}, {"name": "model_27/tf.reshape_29/Reshape/shape", "shape": [3], "dtype": "int32"}, {"name": "model_27/tf.strided_slice_38/ones_like/tensor", "shape": [3], "dtype": "int32"}, {"name": "model_27/tf.strided_slice_38/StridedSlice/end", "shape": [3], "dtype": "int32"}, {"name": "model_27/tf.strided_slice_38/ones_like", "shape": [3], "dtype": "int32"}, {"name": "model_27/tf.concat_56/concat/axis", "shape": [], "dtype": "int32"}, {"name": "model_27/tf.math.multiply_1113/Mul/y", "shape": [1, 1, 8400], "dtype": "float32"}, {"name": "model_27/tf.nn.convolution_185/convolution/filter", "shape": [3, 3, 64, 64], "dtype": "float32"}, {"name": "model_27/tf.math.add_264/Add/y", "shape": [64], "dtype": "float32"}, {"name": "model_27/tf.nn.convolution_187/convolution/filter", "shape": [3, 3, 64, 64], "dtype": "float32"}, {"name": "model_27/tf.math.add_267/Add/y", "shape": [64], "dtype": "float32"}, {"name": "model_27/tf.nn.convolution_190/convolution/filter", "shape": [1, 1, 64, 64], "dtype": "float32"}, {"name": "model_27/tf.math.add_270/Add/y", "shape": [64], "dtype": "float32"}, {"name": "model_27/tf.compat.v1.nn.depthwise_conv2d_6/depthwise/filter_in", "shape": [3, 3, 64, 1], "dtype": "float32"}, {"name": "model_27/tf.math.add_265/Add/y", "shape": [64], "dtype": "float32"}, {"name": "model_27/tf.nn.convolution_188/convolution/filter", "shape": [1, 1, 64, 64], "dtype": "float32"}, {"name": "model_27/tf.math.add_268/Add/y", "shape": [64], "dtype": "float32"}, {"name": "model_27/tf.compat.v1.nn.depthwise_conv2d_7/depthwise/filter_in", "shape": [3, 3, 64, 1], "dtype": "float32"}, {"name": "model_27/tf.math.add_271/Add/y", "shape": [64], "dtype": "float32"}, {"name": "model_27/tf.nn.convolution_191/convolution/filter", "shape": [1, 1, 64, 64], "dtype": "float32"}, {"name": "model_27/tf.math.add_272/Add/y", "shape": [64], "dtype": "float32"}, {"name": "model_27/tf.nn.convolution_194/convolution/filter", "shape": [1, 1, 64, 2], "dtype": "float32"}, {"name": "model_27/tf.math.add_275/Add/y", "shape": [2], "dtype": "float32"}, {"name": "model_27/tf.concat_42/concat/axis", "shape": [], "dtype": "int32"}, {"name": "model_27/tf.compat.v1.transpose_30/transpose/perm", "shape": [4], "dtype": "int32"}, {"name": "model_27/tf.reshape_17/Reshape/shape", "shape": [3], "dtype": "int32"}, {"name": "model_27/tf.nn.convolution_214/convolution/filter", "shape": [3, 3, 96, 64], "dtype": "float32"}, {"name": "model_27/tf.math.add_307/Add/y", "shape": [64], "dtype": "float32"}, {"name": "model_27/tf.nn.convolution_216/convolution/filter", "shape": [3, 3, 64, 64], "dtype": "float32"}, {"name": "model_27/tf.math.add_310/Add/y", "shape": [64], "dtype": "float32"}, {"name": "model_27/tf.nn.convolution_219/convolution/filter", "shape": [1, 1, 64, 64], "dtype": "float32"}, {"name": "model_27/tf.math.add_313/Add/y", "shape": [64], "dtype": "float32"}, {"name": "model_27/tf.compat.v1.nn.depthwise_conv2d_8/depthwise/filter_in", "shape": [3, 3, 96, 1], "dtype": "float32"}, {"name": "model_27/tf.math.add_308/Add/y", "shape": [96], "dtype": "float32"}, {"name": "model_27/tf.nn.convolution_217/convolution/filter", "shape": [1, 1, 96, 64], "dtype": "float32"}, {"name": "model_27/tf.math.add_311/Add/y", "shape": [64], "dtype": "float32"}, {"name": "model_27/tf.compat.v1.nn.depthwise_conv2d_9/depthwise/filter_in", "shape": [3, 3, 64, 1], "dtype": "float32"}, {"name": "model_27/tf.math.add_314/Add/y", "shape": [64], "dtype": "float32"}, {"name": "model_27/tf.nn.convolution_220/convolution/filter", "shape": [1, 1, 64, 64], "dtype": "float32"}, {"name": "model_27/tf.math.add_315/Add/y", "shape": [64], "dtype": "float32"}, {"name": "model_27/tf.nn.convolution_223/convolution/filter", "shape": [1, 1, 64, 2], "dtype": "float32"}, {"name": "model_27/tf.math.add_318/Add/y", "shape": [2], "dtype": "float32"}, {"name": "model_27/tf.concat_47/concat/axis", "shape": [], "dtype": "int32"}, {"name": "model_27/tf.compat.v1.transpose_35/transpose/perm", "shape": [4], "dtype": "int32"}, {"name": "model_27/tf.reshape_20/Reshape/shape", "shape": [3], "dtype": "int32"}, {"name": "model_27/tf.nn.convolution_243/convolution/filter", "shape": [3, 3, 128, 64], "dtype": "float32"}, {"name": "model_27/tf.math.add_350/Add/y", "shape": [64], "dtype": "float32"}, {"name": "model_27/tf.nn.convolution_244/convolution/filter", "shape": [3, 3, 64, 64], "dtype": "float32"}, {"name": "model_27/tf.math.add_352/Add/y", "shape": [64], "dtype": "float32"}, {"name": "model_27/tf.nn.convolution_246/convolution/filter", "shape": [1, 1, 64, 64], "dtype": "float32"}, {"name": "model_27/tf.math.add_354/Add/y", "shape": [64], "dtype": "float32"}, {"name": "model_27/tf.strided_slice_34/ones_like/tensor", "shape": [4], "dtype": "int32"}, {"name": "model_27/tf.strided_slice_34/StridedSlice/end", "shape": [4], "dtype": "int32"}, {"name": "model_27/tf.strided_slice_34/ones_like", "shape": [4], "dtype": "int32"}, {"name": "model_27/tf.nn.convolution_232/convolution/filter", "shape": [1, 1, 64, 32], "dtype": "float32"}, {"name": "model_27/tf.math.add_333/Add/y", "shape": [32], "dtype": "float32"}, {"name": "model_27/tf.nn.convolution_234/convolution/filter", "shape": [3, 3, 32, 32], "dtype": "float32"}, {"name": "model_27/tf.math.add_335/Add/y", "shape": [32], "dtype": "float32"}, {"name": "model_27/tf.nn.convolution_235/convolution/filter", "shape": [3, 3, 32, 32], "dtype": "float32"}, {"name": "model_27/tf.math.add_336/Add/y", "shape": [32], "dtype": "float32"}, {"name": "model_27/tf.nn.convolution_236/convolution/filter", "shape": [3, 3, 32, 32], "dtype": "float32"}, {"name": "model_27/tf.math.add_339/Add/y", "shape": [32], "dtype": "float32"}, {"name": "model_27/tf.nn.convolution_237/convolution/filter", "shape": [3, 3, 32, 32], "dtype": "float32"}, {"name": "model_27/tf.math.add_340/Add/y", "shape": [32], "dtype": "float32"}, {"name": "model_27/tf.nn.convolution_238/convolution/filter", "shape": [3, 3, 32, 32], "dtype": "float32"}, {"name": "model_27/tf.math.add_343/Add/y", "shape": [32], "dtype": "float32"}, {"name": "model_27/tf.nn.convolution_239/convolution/filter", "shape": [3, 3, 32, 32], "dtype": "float32"}, {"name": "model_27/tf.math.add_344/Add/y", "shape": [32], "dtype": "float32"}, {"name": "model_27/tf.nn.convolution_221/convolution/filter", "shape": [1, 1, 64, 32], "dtype": "float32"}, {"name": "model_27/tf.math.add_316/Add/y", "shape": [32], "dtype": "float32"}, {"name": "model_27/tf.nn.convolution_224/convolution/filter", "shape": [3, 3, 32, 32], "dtype": "float32"}, {"name": "model_27/tf.math.add_319/Add/y", "shape": [32], "dtype": "float32"}, {"name": "model_27/tf.nn.convolution_225/convolution/filter", "shape": [3, 3, 32, 32], "dtype": "float32"}, {"name": "model_27/tf.math.add_320/Add/y", "shape": [32], "dtype": "float32"}, {"name": "model_27/tf.nn.convolution_226/convolution/filter", "shape": [3, 3, 32, 32], "dtype": "float32"}, {"name": "model_27/tf.math.add_323/Add/y", "shape": [32], "dtype": "float32"}, {"name": "model_27/tf.nn.convolution_227/convolution/filter", "shape": [3, 3, 32, 32], "dtype": "float32"}, {"name": "model_27/tf.math.add_324/Add/y", "shape": [32], "dtype": "float32"}, {"name": "model_27/tf.nn.convolution_228/convolution/filter", "shape": [3, 3, 32, 32], "dtype": "float32"}, {"name": "model_27/tf.math.add_327/Add/y", "shape": [32], "dtype": "float32"}, {"name": "model_27/tf.nn.convolution_229/convolution/filter", "shape": [3, 3, 32, 32], "dtype": "float32"}, {"name": "model_27/tf.math.add_328/Add/y", "shape": [32], "dtype": "float32"}, {"name": "model_27/tf.strided_slice_32/ones_like/tensor", "shape": [4], "dtype": "int32"}, {"name": "model_27/tf.strided_slice_32/StridedSlice/end", "shape": [4], "dtype": "int32"}, {"name": "model_27/tf.strided_slice_32/ones_like", "shape": [4], "dtype": "int32"}, {"name": "model_27/tf.nn.convolution_203/convolution/filter", "shape": [1, 1, 48, 24], "dtype": "float32"}, {"name": "model_27/tf.math.add_290/Add/y", "shape": [24], "dtype": "float32"}, {"name": "model_27/tf.nn.convolution_205/convolution/filter", "shape": [3, 3, 24, 24], "dtype": "float32"}, {"name": "model_27/tf.math.add_292/Add/y", "shape": [24], "dtype": "float32"}, {"name": "model_27/tf.nn.convolution_206/convolution/filter", "shape": [3, 3, 24, 24], "dtype": "float32"}, {"name": "model_27/tf.math.add_293/Add/y", "shape": [24], "dtype": "float32"}, {"name": "model_27/tf.nn.convolution_207/convolution/filter", "shape": [3, 3, 24, 24], "dtype": "float32"}, {"name": "model_27/tf.math.add_296/Add/y", "shape": [24], "dtype": "float32"}, {"name": "model_27/tf.nn.convolution_208/convolution/filter", "shape": [3, 3, 24, 24], "dtype": "float32"}, {"name": "model_27/tf.math.add_297/Add/y", "shape": [24], "dtype": "float32"}, {"name": "model_27/tf.nn.convolution_209/convolution/filter", "shape": [3, 3, 24, 24], "dtype": "float32"}, {"name": "model_27/tf.math.add_300/Add/y", "shape": [24], "dtype": "float32"}, {"name": "model_27/tf.nn.convolution_210/convolution/filter", "shape": [3, 3, 24, 24], "dtype": "float32"}, {"name": "model_27/tf.math.add_301/Add/y", "shape": [24], "dtype": "float32"}, {"name": "model_27/tf.nn.convolution_192/convolution/filter", "shape": [1, 1, 48, 24], "dtype": "float32"}, {"name": "model_27/tf.math.add_273/Add/y", "shape": [24], "dtype": "float32"}, {"name": "model_27/tf.nn.convolution_195/convolution/filter", "shape": [3, 3, 24, 24], "dtype": "float32"}, {"name": "model_27/tf.math.add_276/Add/y", "shape": [24], "dtype": "float32"}, {"name": "model_27/tf.nn.convolution_196/convolution/filter", "shape": [3, 3, 24, 24], "dtype": "float32"}, {"name": "model_27/tf.math.add_277/Add/y", "shape": [24], "dtype": "float32"}, {"name": "model_27/tf.nn.convolution_197/convolution/filter", "shape": [3, 3, 24, 24], "dtype": "float32"}, {"name": "model_27/tf.math.add_280/Add/y", "shape": [24], "dtype": "float32"}, {"name": "model_27/tf.nn.convolution_198/convolution/filter", "shape": [3, 3, 24, 24], "dtype": "float32"}, {"name": "model_27/tf.math.add_281/Add/y", "shape": [24], "dtype": "float32"}, {"name": "model_27/tf.nn.convolution_199/convolution/filter", "shape": [3, 3, 24, 24], "dtype": "float32"}, {"name": "model_27/tf.math.add_284/Add/y", "shape": [24], "dtype": "float32"}, {"name": "model_27/tf.nn.convolution_200/convolution/filter", "shape": [3, 3, 24, 24], "dtype": "float32"}, {"name": "model_27/tf.math.add_285/Add/y", "shape": [24], "dtype": "float32"}, {"name": "model_27/tf.strided_slice_30/ones_like/tensor", "shape": [4], "dtype": "int32"}, {"name": "model_27/tf.strided_slice_30/StridedSlice/end", "shape": [4], "dtype": "int32"}, {"name": "model_27/tf.strided_slice_30/ones_like", "shape": [4], "dtype": "int32"}, {"name": "model_27/tf.nn.convolution_174/convolution/filter", "shape": [1, 1, 32, 16], "dtype": "float32"}, {"name": "model_27/tf.math.add_247/Add/y", "shape": [16], "dtype": "float32"}, {"name": "model_27/tf.nn.convolution_176/convolution/filter", "shape": [3, 3, 16, 16], "dtype": "float32"}, {"name": "model_27/tf.math.add_249/Add/y", "shape": [16], "dtype": "float32"}, {"name": "model_27/tf.nn.convolution_177/convolution/filter", "shape": [3, 3, 16, 16], "dtype": "float32"}, {"name": "model_27/tf.math.add_250/Add/y", "shape": [16], "dtype": "float32"}, {"name": "model_27/tf.nn.convolution_178/convolution/filter", "shape": [3, 3, 16, 16], "dtype": "float32"}, {"name": "model_27/tf.math.add_253/Add/y", "shape": [16], "dtype": "float32"}, {"name": "model_27/tf.nn.convolution_179/convolution/filter", "shape": [3, 3, 16, 16], "dtype": "float32"}, {"name": "model_27/tf.math.add_254/Add/y", "shape": [16], "dtype": "float32"}, {"name": "model_27/tf.nn.convolution_180/convolution/filter", "shape": [3, 3, 16, 16], "dtype": "float32"}, {"name": "model_27/tf.math.add_257/Add/y", "shape": [16], "dtype": "float32"}, {"name": "model_27/tf.nn.convolution_181/convolution/filter", "shape": [3, 3, 16, 16], "dtype": "float32"}, {"name": "model_27/tf.math.add_258/Add/y", "shape": [16], "dtype": "float32"}, {"name": "model_27/tf.nn.convolution_164/convolution/filter", "shape": [1, 1, 32, 16], "dtype": "float32"}, {"name": "model_27/tf.math.add_231/Add/y", "shape": [16], "dtype": "float32"}, {"name": "model_27/tf.nn.convolution_166/convolution/filter", "shape": [3, 3, 16, 16], "dtype": "float32"}, {"name": "model_27/tf.math.add_233/Add/y", "shape": [16], "dtype": "float32"}, {"name": "model_27/tf.nn.convolution_167/convolution/filter", "shape": [3, 3, 16, 16], "dtype": "float32"}, {"name": "model_27/tf.math.add_234/Add/y", "shape": [16], "dtype": "float32"}, {"name": "model_27/tf.nn.convolution_168/convolution/filter", "shape": [3, 3, 16, 16], "dtype": "float32"}, {"name": "model_27/tf.math.add_237/Add/y", "shape": [16], "dtype": "float32"}, {"name": "model_27/tf.nn.convolution_169/convolution/filter", "shape": [3, 3, 16, 16], "dtype": "float32"}, {"name": "model_27/tf.math.add_238/Add/y", "shape": [16], "dtype": "float32"}, {"name": "model_27/tf.nn.convolution_170/convolution/filter", "shape": [3, 3, 16, 16], "dtype": "float32"}, {"name": "model_27/tf.math.add_241/Add/y", "shape": [16], "dtype": "float32"}, {"name": "model_27/tf.nn.convolution_171/convolution/filter", "shape": [3, 3, 16, 16], "dtype": "float32"}, {"name": "model_27/tf.math.add_242/Add/y", "shape": [16], "dtype": "float32"}, {"name": "model_27/tf.image.resize_3/resize/size", "shape": [2], "dtype": "int32"}, {"name": "model_27/tf.concat_37/concat/axis", "shape": [], "dtype": "int32"}, {"name": "model_27/tf.nn.convolution_163/convolution/filter", "shape": [1, 1, 160, 64], "dtype": "float32"}, {"name": "model_27/tf.math.add_230/Add/y", "shape": [64], "dtype": "float32"}, {"name": "model_27/tf.strided_slice_31/ones_like/tensor", "shape": [4], "dtype": "int32"}, {"name": "model_27/tf.strided_slice_31/StridedSlice/end", "shape": [4], "dtype": "int32"}, {"name": "model_27/tf.strided_slice_31/ones_like", "shape": [4], "dtype": "int32"}, {"name": "model_27/tf.nn.convolution_165/convolution/filter", "shape": [1, 1, 32, 16], "dtype": "float32"}, {"name": "model_27/tf.math.add_232/Add/y", "shape": [16], "dtype": "float32"}, {"name": "model_27/tf.concat_38/concat/axis", "shape": [], "dtype": "int32"}, {"name": "model_27/tf.nn.convolution_172/convolution/filter", "shape": [1, 1, 32, 32], "dtype": "float32"}, {"name": "model_27/tf.math.add_245/Add/y", "shape": [32], "dtype": "float32"}, {"name": "model_27/tf.nn.convolution_173/convolution/filter", "shape": [3, 3, 32, 32], "dtype": "float32"}, {"name": "model_27/tf.math.add_246/Add/y", "shape": [32], "dtype": "float32"}, {"name": "model_27/tf.nn.convolution_175/convolution/filter", "shape": [1, 1, 32, 16], "dtype": "float32"}, {"name": "model_27/tf.math.add_248/Add/y", "shape": [16], "dtype": "float32"}, {"name": "model_27/tf.concat_39/concat/axis", "shape": [], "dtype": "int32"}, {"name": "model_27/tf.nn.convolution_182/convolution/filter", "shape": [1, 1, 32, 32], "dtype": "float32"}, {"name": "model_27/tf.math.add_261/Add/y", "shape": [32], "dtype": "float32"}, {"name": "model_27/tf.nn.convolution_183/convolution/filter", "shape": [3, 3, 32, 32], "dtype": "float32"}, {"name": "model_27/tf.math.add_262/Add/y", "shape": [32], "dtype": "float32"}, {"name": "model_27/tf.concat_40/concat/axis", "shape": [], "dtype": "int32"}, {"name": "model_27/tf.nn.convolution_184/convolution/filter", "shape": [1, 1, 128, 64], "dtype": "float32"}, {"name": "model_27/tf.math.add_263/Add/y", "shape": [64], "dtype": "float32"}, {"name": "model_27/tf.compat.v1.pad_12/Pad/paddings", "shape": [4, 2], "dtype": "int32"}, {"name": "model_27/tf.nn.convolution_186/convolution/filter", "shape": [3, 3, 64, 48], "dtype": "float32"}, {"name": "model_27/tf.math.add_266/Add/y", "shape": [48], "dtype": "float32"}, {"name": "model_27/tf.strided_slice_28/ones_like/tensor", "shape": [4], "dtype": "int32"}, {"name": "model_27/tf.strided_slice_28/StridedSlice/end", "shape": [4], "dtype": "int32"}, {"name": "model_27/tf.strided_slice_28/ones_like", "shape": [4], "dtype": "int32"}, {"name": "model_27/tf.nn.convolution_152/convolution/filter", "shape": [1, 1, 48, 24], "dtype": "float32"}, {"name": "model_27/tf.math.add_213/Add/y", "shape": [24], "dtype": "float32"}, {"name": "model_27/tf.nn.convolution_154/convolution/filter", "shape": [3, 3, 24, 24], "dtype": "float32"}, {"name": "model_27/tf.math.add_215/Add/y", "shape": [24], "dtype": "float32"}, {"name": "model_27/tf.nn.convolution_155/convolution/filter", "shape": [3, 3, 24, 24], "dtype": "float32"}, {"name": "model_27/tf.math.add_216/Add/y", "shape": [24], "dtype": "float32"}, {"name": "model_27/tf.nn.convolution_156/convolution/filter", "shape": [3, 3, 24, 24], "dtype": "float32"}, {"name": "model_27/tf.math.add_219/Add/y", "shape": [24], "dtype": "float32"}, {"name": "model_27/tf.nn.convolution_157/convolution/filter", "shape": [3, 3, 24, 24], "dtype": "float32"}, {"name": "model_27/tf.math.add_220/Add/y", "shape": [24], "dtype": "float32"}, {"name": "model_27/tf.nn.convolution_158/convolution/filter", "shape": [3, 3, 24, 24], "dtype": "float32"}, {"name": "model_27/tf.math.add_223/Add/y", "shape": [24], "dtype": "float32"}, {"name": "model_27/tf.nn.convolution_159/convolution/filter", "shape": [3, 3, 24, 24], "dtype": "float32"}, {"name": "model_27/tf.math.add_224/Add/y", "shape": [24], "dtype": "float32"}, {"name": "model_27/tf.nn.convolution_142/convolution/filter", "shape": [1, 1, 48, 24], "dtype": "float32"}, {"name": "model_27/tf.math.add_197/Add/y", "shape": [24], "dtype": "float32"}, {"name": "model_27/tf.nn.convolution_144/convolution/filter", "shape": [3, 3, 24, 24], "dtype": "float32"}, {"name": "model_27/tf.math.add_199/Add/y", "shape": [24], "dtype": "float32"}, {"name": "model_27/tf.nn.convolution_145/convolution/filter", "shape": [3, 3, 24, 24], "dtype": "float32"}, {"name": "model_27/tf.math.add_200/Add/y", "shape": [24], "dtype": "float32"}, {"name": "model_27/tf.nn.convolution_146/convolution/filter", "shape": [3, 3, 24, 24], "dtype": "float32"}, {"name": "model_27/tf.math.add_203/Add/y", "shape": [24], "dtype": "float32"}, {"name": "model_27/tf.nn.convolution_147/convolution/filter", "shape": [3, 3, 24, 24], "dtype": "float32"}, {"name": "model_27/tf.math.add_204/Add/y", "shape": [24], "dtype": "float32"}, {"name": "model_27/tf.nn.convolution_148/convolution/filter", "shape": [3, 3, 24, 24], "dtype": "float32"}, {"name": "model_27/tf.math.add_207/Add/y", "shape": [24], "dtype": "float32"}, {"name": "model_27/tf.nn.convolution_149/convolution/filter", "shape": [3, 3, 24, 24], "dtype": "float32"}, {"name": "model_27/tf.math.add_208/Add/y", "shape": [24], "dtype": "float32"}, {"name": "model_27/tf.image.resize_2/resize/size", "shape": [2], "dtype": "int32"}, {"name": "model_27/tf.concat_33/concat/axis", "shape": [], "dtype": "int32"}, {"name": "model_27/tf.nn.convolution_141/convolution/filter", "shape": [1, 1, 224, 96], "dtype": "float32"}, {"name": "model_27/tf.math.add_196/Add/y", "shape": [96], "dtype": "float32"}, {"name": "model_27/tf.strided_slice_29/ones_like/tensor", "shape": [4], "dtype": "int32"}, {"name": "model_27/tf.strided_slice_29/StridedSlice/end", "shape": [4], "dtype": "int32"}, {"name": "model_27/tf.strided_slice_29/ones_like", "shape": [4], "dtype": "int32"}, {"name": "model_27/tf.nn.convolution_143/convolution/filter", "shape": [1, 1, 48, 24], "dtype": "float32"}, {"name": "model_27/tf.math.add_198/Add/y", "shape": [24], "dtype": "float32"}, {"name": "model_27/tf.concat_34/concat/axis", "shape": [], "dtype": "int32"}, {"name": "model_27/tf.nn.convolution_150/convolution/filter", "shape": [1, 1, 48, 48], "dtype": "float32"}, {"name": "model_27/tf.math.add_211/Add/y", "shape": [48], "dtype": "float32"}, {"name": "model_27/tf.nn.convolution_151/convolution/filter", "shape": [3, 3, 48, 48], "dtype": "float32"}, {"name": "model_27/tf.math.add_212/Add/y", "shape": [48], "dtype": "float32"}, {"name": "model_27/tf.nn.convolution_153/convolution/filter", "shape": [1, 1, 48, 24], "dtype": "float32"}, {"name": "model_27/tf.math.add_214/Add/y", "shape": [24], "dtype": "float32"}, {"name": "model_27/tf.concat_35/concat/axis", "shape": [], "dtype": "int32"}, {"name": "model_27/tf.nn.convolution_160/convolution/filter", "shape": [1, 1, 48, 48], "dtype": "float32"}, {"name": "model_27/tf.math.add_227/Add/y", "shape": [48], "dtype": "float32"}, {"name": "model_27/tf.nn.convolution_161/convolution/filter", "shape": [3, 3, 48, 48], "dtype": "float32"}, {"name": "model_27/tf.math.add_228/Add/y", "shape": [48], "dtype": "float32"}, {"name": "model_27/tf.concat_36/concat/axis", "shape": [], "dtype": "int32"}, {"name": "model_27/tf.nn.convolution_162/convolution/filter", "shape": [1, 1, 192, 96], "dtype": "float32"}, {"name": "model_27/tf.math.add_229/Add/y", "shape": [96], "dtype": "float32"}, {"name": "model_27/tf.concat_41/concat/axis", "shape": [], "dtype": "int32"}, {"name": "model_27/tf.nn.convolution_189/convolution/filter", "shape": [1, 1, 144, 96], "dtype": "float32"}, {"name": "model_27/tf.math.add_269/Add/y", "shape": [96], "dtype": "float32"}, {"name": "model_27/tf.strided_slice_33/ones_like/tensor", "shape": [4], "dtype": "int32"}, {"name": "model_27/tf.strided_slice_33/StridedSlice/end", "shape": [4], "dtype": "int32"}, {"name": "model_27/tf.strided_slice_33/ones_like", "shape": [4], "dtype": "int32"}, {"name": "model_27/tf.nn.convolution_193/convolution/filter", "shape": [1, 1, 48, 24], "dtype": "float32"}, {"name": "model_27/tf.math.add_274/Add/y", "shape": [24], "dtype": "float32"}, {"name": "model_27/tf.concat_43/concat/axis", "shape": [], "dtype": "int32"}, {"name": "model_27/tf.nn.convolution_201/convolution/filter", "shape": [1, 1, 48, 48], "dtype": "float32"}, {"name": "model_27/tf.math.add_288/Add/y", "shape": [48], "dtype": "float32"}, {"name": "model_27/tf.nn.convolution_202/convolution/filter", "shape": [3, 3, 48, 48], "dtype": "float32"}, {"name": "model_27/tf.math.add_289/Add/y", "shape": [48], "dtype": "float32"}, {"name": "model_27/tf.nn.convolution_204/convolution/filter", "shape": [1, 1, 48, 24], "dtype": "float32"}, {"name": "model_27/tf.math.add_291/Add/y", "shape": [24], "dtype": "float32"}, {"name": "model_27/tf.concat_44/concat/axis", "shape": [], "dtype": "int32"}, {"name": "model_27/tf.nn.convolution_211/convolution/filter", "shape": [1, 1, 48, 48], "dtype": "float32"}, {"name": "model_27/tf.math.add_304/Add/y", "shape": [48], "dtype": "float32"}, {"name": "model_27/tf.nn.convolution_212/convolution/filter", "shape": [3, 3, 48, 48], "dtype": "float32"}, {"name": "model_27/tf.math.add_305/Add/y", "shape": [48], "dtype": "float32"}, {"name": "model_27/tf.concat_45/concat/axis", "shape": [], "dtype": "int32"}, {"name": "model_27/tf.nn.convolution_213/convolution/filter", "shape": [1, 1, 192, 96], "dtype": "float32"}, {"name": "model_27/tf.math.add_306/Add/y", "shape": [96], "dtype": "float32"}, {"name": "model_27/tf.compat.v1.pad_13/Pad/paddings", "shape": [4, 2], "dtype": "int32"}, {"name": "model_27/tf.nn.convolution_215/convolution/filter", "shape": [3, 3, 96, 64], "dtype": "float32"}, {"name": "model_27/tf.math.add_309/Add/y", "shape": [64], "dtype": "float32"}, {"name": "model_27/tf.strided_slice_26/ones_like/tensor", "shape": [4], "dtype": "int32"}, {"name": "model_27/tf.strided_slice_26/StridedSlice/end", "shape": [4], "dtype": "int32"}, {"name": "model_27/tf.strided_slice_26/ones_like", "shape": [4], "dtype": "int32"}, {"name": "model_27/tf.nn.convolution_128/convolution/filter", "shape": [1, 1, 64, 32], "dtype": "float32"}, {"name": "model_27/tf.math.add_177/Add/y", "shape": [32], "dtype": "float32"}, {"name": "model_27/tf.nn.convolution_130/convolution/filter", "shape": [3, 3, 32, 32], "dtype": "float32"}, {"name": "model_27/tf.math.add_179/Add/y", "shape": [32], "dtype": "float32"}, {"name": "model_27/tf.nn.convolution_131/convolution/filter", "shape": [3, 3, 32, 32], "dtype": "float32"}, {"name": "model_27/tf.math.add_180/Add/y", "shape": [32], "dtype": "float32"}, {"name": "model_27/tf.nn.convolution_132/convolution/filter", "shape": [3, 3, 32, 32], "dtype": "float32"}, {"name": "model_27/tf.math.add_183/Add/y", "shape": [32], "dtype": "float32"}, {"name": "model_27/tf.nn.convolution_133/convolution/filter", "shape": [3, 3, 32, 32], "dtype": "float32"}, {"name": "model_27/tf.math.add_184/Add/y", "shape": [32], "dtype": "float32"}, {"name": "model_27/tf.nn.convolution_134/convolution/filter", "shape": [3, 3, 32, 32], "dtype": "float32"}, {"name": "model_27/tf.math.add_187/Add/y", "shape": [32], "dtype": "float32"}, {"name": "model_27/tf.nn.convolution_135/convolution/filter", "shape": [3, 3, 32, 32], "dtype": "float32"}, {"name": "model_27/tf.math.add_188/Add/y", "shape": [32], "dtype": "float32"}, {"name": "model_27/tf.nn.convolution_118/convolution/filter", "shape": [1, 1, 64, 32], "dtype": "float32"}, {"name": "model_27/tf.math.add_161/Add/y", "shape": [32], "dtype": "float32"}, {"name": "model_27/tf.nn.convolution_120/convolution/filter", "shape": [3, 3, 32, 32], "dtype": "float32"}, {"name": "model_27/tf.math.add_163/Add/y", "shape": [32], "dtype": "float32"}, {"name": "model_27/tf.nn.convolution_121/convolution/filter", "shape": [3, 3, 32, 32], "dtype": "float32"}, {"name": "model_27/tf.math.add_164/Add/y", "shape": [32], "dtype": "float32"}, {"name": "model_27/tf.nn.convolution_122/convolution/filter", "shape": [3, 3, 32, 32], "dtype": "float32"}, {"name": "model_27/tf.math.add_167/Add/y", "shape": [32], "dtype": "float32"}, {"name": "model_27/tf.nn.convolution_123/convolution/filter", "shape": [3, 3, 32, 32], "dtype": "float32"}, {"name": "model_27/tf.math.add_168/Add/y", "shape": [32], "dtype": "float32"}, {"name": "model_27/tf.nn.convolution_124/convolution/filter", "shape": [3, 3, 32, 32], "dtype": "float32"}, {"name": "model_27/tf.math.add_171/Add/y", "shape": [32], "dtype": "float32"}, {"name": "model_27/tf.nn.convolution_125/convolution/filter", "shape": [3, 3, 32, 32], "dtype": "float32"}, {"name": "model_27/tf.math.add_172/Add/y", "shape": [32], "dtype": "float32"}, {"name": "model_27/tf.strided_slice_24/ones_like/tensor", "shape": [4], "dtype": "int32"}, {"name": "model_27/tf.strided_slice_24/StridedSlice/end", "shape": [4], "dtype": "int32"}, {"name": "model_27/tf.strided_slice_24/ones_like", "shape": [4], "dtype": "int32"}, {"name": "model_27/tf.nn.convolution_105/convolution/filter", "shape": [1, 1, 48, 24], "dtype": "float32"}, {"name": "model_27/tf.math.add_142/Add/y", "shape": [24], "dtype": "float32"}, {"name": "model_27/tf.nn.convolution_107/convolution/filter", "shape": [3, 3, 24, 24], "dtype": "float32"}, {"name": "model_27/tf.math.add_144/Add/y", "shape": [24], "dtype": "float32"}, {"name": "model_27/tf.nn.convolution_108/convolution/filter", "shape": [3, 3, 24, 24], "dtype": "float32"}, {"name": "model_27/tf.math.add_145/Add/y", "shape": [24], "dtype": "float32"}, {"name": "model_27/tf.nn.convolution_109/convolution/filter", "shape": [3, 3, 24, 24], "dtype": "float32"}, {"name": "model_27/tf.math.add_148/Add/y", "shape": [24], "dtype": "float32"}, {"name": "model_27/tf.nn.convolution_110/convolution/filter", "shape": [3, 3, 24, 24], "dtype": "float32"}, {"name": "model_27/tf.math.add_149/Add/y", "shape": [24], "dtype": "float32"}, {"name": "model_27/tf.nn.convolution_111/convolution/filter", "shape": [3, 3, 24, 24], "dtype": "float32"}, {"name": "model_27/tf.math.add_152/Add/y", "shape": [24], "dtype": "float32"}, {"name": "model_27/tf.nn.convolution_112/convolution/filter", "shape": [3, 3, 24, 24], "dtype": "float32"}, {"name": "model_27/tf.math.add_153/Add/y", "shape": [24], "dtype": "float32"}, {"name": "model_27/tf.nn.convolution_95/convolution/filter", "shape": [1, 1, 48, 24], "dtype": "float32"}, {"name": "model_27/tf.math.add_126/Add/y", "shape": [24], "dtype": "float32"}, {"name": "model_27/tf.nn.convolution_97/convolution/filter", "shape": [3, 3, 24, 24], "dtype": "float32"}, {"name": "model_27/tf.math.add_128/Add/y", "shape": [24], "dtype": "float32"}, {"name": "model_27/tf.nn.convolution_98/convolution/filter", "shape": [3, 3, 24, 24], "dtype": "float32"}, {"name": "model_27/tf.math.add_129/Add/y", "shape": [24], "dtype": "float32"}, {"name": "model_27/tf.nn.convolution_99/convolution/filter", "shape": [3, 3, 24, 24], "dtype": "float32"}, {"name": "model_27/tf.math.add_132/Add/y", "shape": [24], "dtype": "float32"}, {"name": "model_27/tf.nn.convolution_100/convolution/filter", "shape": [3, 3, 24, 24], "dtype": "float32"}, {"name": "model_27/tf.math.add_133/Add/y", "shape": [24], "dtype": "float32"}, {"name": "model_27/tf.nn.convolution_101/convolution/filter", "shape": [3, 3, 24, 24], "dtype": "float32"}, {"name": "model_27/tf.math.add_136/Add/y", "shape": [24], "dtype": "float32"}, {"name": "model_27/tf.nn.convolution_102/convolution/filter", "shape": [3, 3, 24, 24], "dtype": "float32"}, {"name": "model_27/tf.math.add_137/Add/y", "shape": [24], "dtype": "float32"}, {"name": "model_27/tf.strided_slice_22/ones_like/tensor", "shape": [4], "dtype": "int32"}, {"name": "model_27/tf.strided_slice_22/StridedSlice/end", "shape": [4], "dtype": "int32"}, {"name": "model_27/tf.strided_slice_22/ones_like", "shape": [4], "dtype": "int32"}, {"name": "model_27/tf.nn.convolution_82/convolution/filter", "shape": [1, 1, 32, 16], "dtype": "float32"}, {"name": "model_27/tf.math.add_107/Add/y", "shape": [16], "dtype": "float32"}, {"name": "model_27/tf.nn.convolution_84/convolution/filter", "shape": [3, 3, 16, 16], "dtype": "float32"}, {"name": "model_27/tf.math.add_109/Add/y", "shape": [16], "dtype": "float32"}, {"name": "model_27/tf.nn.convolution_85/convolution/filter", "shape": [3, 3, 16, 16], "dtype": "float32"}, {"name": "model_27/tf.math.add_110/Add/y", "shape": [16], "dtype": "float32"}, {"name": "model_27/tf.nn.convolution_86/convolution/filter", "shape": [3, 3, 16, 16], "dtype": "float32"}, {"name": "model_27/tf.math.add_113/Add/y", "shape": [16], "dtype": "float32"}, {"name": "model_27/tf.nn.convolution_87/convolution/filter", "shape": [3, 3, 16, 16], "dtype": "float32"}, {"name": "model_27/tf.math.add_114/Add/y", "shape": [16], "dtype": "float32"}, {"name": "model_27/tf.nn.convolution_88/convolution/filter", "shape": [3, 3, 16, 16], "dtype": "float32"}, {"name": "model_27/tf.math.add_117/Add/y", "shape": [16], "dtype": "float32"}, {"name": "model_27/tf.nn.convolution_89/convolution/filter", "shape": [3, 3, 16, 16], "dtype": "float32"}, {"name": "model_27/tf.math.add_118/Add/y", "shape": [16], "dtype": "float32"}, {"name": "model_27/tf.nn.convolution_72/convolution/filter", "shape": [1, 1, 32, 16], "dtype": "float32"}, {"name": "model_27/tf.math.add_91/Add/y", "shape": [16], "dtype": "float32"}, {"name": "model_27/tf.nn.convolution_74/convolution/filter", "shape": [3, 3, 16, 16], "dtype": "float32"}, {"name": "model_27/tf.math.add_93/Add/y", "shape": [16], "dtype": "float32"}, {"name": "model_27/tf.nn.convolution_75/convolution/filter", "shape": [3, 3, 16, 16], "dtype": "float32"}, {"name": "model_27/tf.math.add_94/Add/y", "shape": [16], "dtype": "float32"}, {"name": "model_27/tf.nn.convolution_76/convolution/filter", "shape": [3, 3, 16, 16], "dtype": "float32"}, {"name": "model_27/tf.math.add_97/Add/y", "shape": [16], "dtype": "float32"}, {"name": "model_27/tf.nn.convolution_77/convolution/filter", "shape": [3, 3, 16, 16], "dtype": "float32"}, {"name": "model_27/tf.math.add_98/Add/y", "shape": [16], "dtype": "float32"}, {"name": "model_27/tf.nn.convolution_78/convolution/filter", "shape": [3, 3, 16, 16], "dtype": "float32"}, {"name": "model_27/tf.math.add_101/Add/y", "shape": [16], "dtype": "float32"}, {"name": "model_27/tf.nn.convolution_79/convolution/filter", "shape": [3, 3, 16, 16], "dtype": "float32"}, {"name": "model_27/tf.math.add_102/Add/y", "shape": [16], "dtype": "float32"}, {"name": "model_27/tf.strided_slice_20/ones_like/tensor", "shape": [4], "dtype": "int32"}, {"name": "model_27/tf.strided_slice_20/StridedSlice/end", "shape": [4], "dtype": "int32"}, {"name": "model_27/tf.strided_slice_20/ones_like", "shape": [4], "dtype": "int32"}, {"name": "model_27/tf.compat.v1.pad_7/Pad/paddings", "shape": [4, 2], "dtype": "int32"}, {"name": "model_27/tf.nn.convolution_64/convolution/filter", "shape": [3, 3, 3, 16], "dtype": "float32"}, {"name": "model_27/tf.math.add_83/Add/y", "shape": [16], "dtype": "float32"}, {"name": "model_27/tf.compat.v1.pad_8/Pad/paddings", "shape": [4, 2], "dtype": "int32"}, {"name": "model_27/tf.nn.convolution_65/convolution/filter", "shape": [3, 3, 16, 32], "dtype": "float32"}, {"name": "model_27/tf.math.add_84/Add/y", "shape": [32], "dtype": "float32"}, {"name": "model_27/tf.nn.convolution_66/convolution/filter", "shape": [1, 1, 32, 32], "dtype": "float32"}, {"name": "model_27/tf.math.add_85/Add/y", "shape": [32], "dtype": "float32"}, {"name": "model_27/tf.strided_slice_21/ones_like/tensor", "shape": [4], "dtype": "int32"}, {"name": "model_27/tf.strided_slice_21/StridedSlice/end", "shape": [4], "dtype": "int32"}, {"name": "model_27/tf.strided_slice_21/ones_like", "shape": [4], "dtype": "int32"}, {"name": "model_27/tf.nn.convolution_67/convolution/filter", "shape": [3, 3, 16, 16], "dtype": "float32"}, {"name": "model_27/tf.math.add_86/Add/y", "shape": [16], "dtype": "float32"}, {"name": "model_27/tf.nn.convolution_68/convolution/filter", "shape": [3, 3, 16, 16], "dtype": "float32"}, {"name": "model_27/tf.math.add_87/Add/y", "shape": [16], "dtype": "float32"}, {"name": "model_27/tf.concat_22/concat/axis", "shape": [], "dtype": "int32"}, {"name": "model_27/tf.nn.convolution_69/convolution/filter", "shape": [1, 1, 64, 32], "dtype": "float32"}, {"name": "model_27/tf.math.add_88/Add/y", "shape": [32], "dtype": "float32"}, {"name": "model_27/tf.compat.v1.pad_9/Pad/paddings", "shape": [4, 2], "dtype": "int32"}, {"name": "model_27/tf.nn.convolution_70/convolution/filter", "shape": [3, 3, 32, 64], "dtype": "float32"}, {"name": "model_27/tf.math.add_89/Add/y", "shape": [64], "dtype": "float32"}, {"name": "model_27/tf.nn.convolution_71/convolution/filter", "shape": [1, 1, 64, 64], "dtype": "float32"}, {"name": "model_27/tf.math.add_90/Add/y", "shape": [64], "dtype": "float32"}, {"name": "model_27/tf.strided_slice_23/ones_like/tensor", "shape": [4], "dtype": "int32"}, {"name": "model_27/tf.strided_slice_23/StridedSlice/end", "shape": [4], "dtype": "int32"}, {"name": "model_27/tf.strided_slice_23/ones_like", "shape": [4], "dtype": "int32"}, {"name": "model_27/tf.nn.convolution_73/convolution/filter", "shape": [1, 1, 32, 16], "dtype": "float32"}, {"name": "model_27/tf.math.add_92/Add/y", "shape": [16], "dtype": "float32"}, {"name": "model_27/tf.concat_23/concat/axis", "shape": [], "dtype": "int32"}, {"name": "model_27/tf.nn.convolution_80/convolution/filter", "shape": [1, 1, 32, 32], "dtype": "float32"}, {"name": "model_27/tf.math.add_105/Add/y", "shape": [32], "dtype": "float32"}, {"name": "model_27/tf.nn.convolution_81/convolution/filter", "shape": [3, 3, 32, 32], "dtype": "float32"}, {"name": "model_27/tf.math.add_106/Add/y", "shape": [32], "dtype": "float32"}, {"name": "model_27/tf.nn.convolution_83/convolution/filter", "shape": [1, 1, 32, 16], "dtype": "float32"}, {"name": "model_27/tf.math.add_108/Add/y", "shape": [16], "dtype": "float32"}, {"name": "model_27/tf.concat_24/concat/axis", "shape": [], "dtype": "int32"}, {"name": "model_27/tf.nn.convolution_90/convolution/filter", "shape": [1, 1, 32, 32], "dtype": "float32"}, {"name": "model_27/tf.math.add_121/Add/y", "shape": [32], "dtype": "float32"}, {"name": "model_27/tf.nn.convolution_91/convolution/filter", "shape": [3, 3, 32, 32], "dtype": "float32"}, {"name": "model_27/tf.math.add_122/Add/y", "shape": [32], "dtype": "float32"}, {"name": "model_27/tf.concat_25/concat/axis", "shape": [], "dtype": "int32"}, {"name": "model_27/tf.nn.convolution_92/convolution/filter", "shape": [1, 1, 128, 64], "dtype": "float32"}, {"name": "model_27/tf.math.add_123/Add/y", "shape": [64], "dtype": "float32"}, {"name": "model_27/tf.compat.v1.pad_10/Pad/paddings", "shape": [4, 2], "dtype": "int32"}, {"name": "model_27/tf.nn.convolution_93/convolution/filter", "shape": [3, 3, 64, 96], "dtype": "float32"}, {"name": "model_27/tf.math.add_124/Add/y", "shape": [96], "dtype": "float32"}, {"name": "model_27/tf.nn.convolution_94/convolution/filter", "shape": [1, 1, 96, 96], "dtype": "float32"}, {"name": "model_27/tf.math.add_125/Add/y", "shape": [96], "dtype": "float32"}, {"name": "model_27/tf.strided_slice_25/ones_like/tensor", "shape": [4], "dtype": "int32"}, {"name": "model_27/tf.strided_slice_25/StridedSlice/end", "shape": [4], "dtype": "int32"}, {"name": "model_27/tf.strided_slice_25/ones_like", "shape": [4], "dtype": "int32"}, {"name": "model_27/tf.nn.convolution_96/convolution/filter", "shape": [1, 1, 48, 24], "dtype": "float32"}, {"name": "model_27/tf.math.add_127/Add/y", "shape": [24], "dtype": "float32"}, {"name": "model_27/tf.concat_26/concat/axis", "shape": [], "dtype": "int32"}, {"name": "model_27/tf.nn.convolution_103/convolution/filter", "shape": [1, 1, 48, 48], "dtype": "float32"}, {"name": "model_27/tf.math.add_140/Add/y", "shape": [48], "dtype": "float32"}, {"name": "model_27/tf.nn.convolution_104/convolution/filter", "shape": [3, 3, 48, 48], "dtype": "float32"}, {"name": "model_27/tf.math.add_141/Add/y", "shape": [48], "dtype": "float32"}, {"name": "model_27/tf.nn.convolution_106/convolution/filter", "shape": [1, 1, 48, 24], "dtype": "float32"}, {"name": "model_27/tf.math.add_143/Add/y", "shape": [24], "dtype": "float32"}, {"name": "model_27/tf.concat_27/concat/axis", "shape": [], "dtype": "int32"}, {"name": "model_27/tf.nn.convolution_113/convolution/filter", "shape": [1, 1, 48, 48], "dtype": "float32"}, {"name": "model_27/tf.math.add_156/Add/y", "shape": [48], "dtype": "float32"}, {"name": "model_27/tf.nn.convolution_114/convolution/filter", "shape": [3, 3, 48, 48], "dtype": "float32"}, {"name": "model_27/tf.math.add_157/Add/y", "shape": [48], "dtype": "float32"}, {"name": "model_27/tf.concat_28/concat/axis", "shape": [], "dtype": "int32"}, {"name": "model_27/tf.nn.convolution_115/convolution/filter", "shape": [1, 1, 192, 96], "dtype": "float32"}, {"name": "model_27/tf.math.add_158/Add/y", "shape": [96], "dtype": "float32"}, {"name": "model_27/tf.compat.v1.pad_11/Pad/paddings", "shape": [4, 2], "dtype": "int32"}, {"name": "model_27/tf.nn.convolution_116/convolution/filter", "shape": [3, 3, 96, 128], "dtype": "float32"}, {"name": "model_27/tf.math.add_159/Add/y", "shape": [128], "dtype": "float32"}, {"name": "model_27/tf.nn.convolution_117/convolution/filter", "shape": [1, 1, 128, 128], "dtype": "float32"}, {"name": "model_27/tf.math.add_160/Add/y", "shape": [128], "dtype": "float32"}, {"name": "model_27/tf.strided_slice_27/ones_like/tensor", "shape": [4], "dtype": "int32"}, {"name": "model_27/tf.strided_slice_27/StridedSlice/end", "shape": [4], "dtype": "int32"}, {"name": "model_27/tf.strided_slice_27/ones_like", "shape": [4], "dtype": "int32"}, {"name": "model_27/tf.nn.convolution_119/convolution/filter", "shape": [1, 1, 64, 32], "dtype": "float32"}, {"name": "model_27/tf.math.add_162/Add/y", "shape": [32], "dtype": "float32"}, {"name": "model_27/tf.concat_29/concat/axis", "shape": [], "dtype": "int32"}, {"name": "model_27/tf.nn.convolution_126/convolution/filter", "shape": [1, 1, 64, 64], "dtype": "float32"}, {"name": "model_27/tf.math.add_175/Add/y", "shape": [64], "dtype": "float32"}, {"name": "model_27/tf.nn.convolution_127/convolution/filter", "shape": [3, 3, 64, 64], "dtype": "float32"}, {"name": "model_27/tf.math.add_176/Add/y", "shape": [64], "dtype": "float32"}, {"name": "model_27/tf.nn.convolution_129/convolution/filter", "shape": [1, 1, 64, 32], "dtype": "float32"}, {"name": "model_27/tf.math.add_178/Add/y", "shape": [32], "dtype": "float32"}, {"name": "model_27/tf.concat_30/concat/axis", "shape": [], "dtype": "int32"}, {"name": "model_27/tf.nn.convolution_136/convolution/filter", "shape": [1, 1, 64, 64], "dtype": "float32"}, {"name": "model_27/tf.math.add_191/Add/y", "shape": [64], "dtype": "float32"}, {"name": "model_27/tf.nn.convolution_137/convolution/filter", "shape": [3, 3, 64, 64], "dtype": "float32"}, {"name": "model_27/tf.math.add_192/Add/y", "shape": [64], "dtype": "float32"}, {"name": "model_27/tf.concat_31/concat/axis", "shape": [], "dtype": "int32"}, {"name": "model_27/tf.nn.convolution_138/convolution/filter", "shape": [1, 1, 256, 128], "dtype": "float32"}, {"name": "model_27/tf.math.add_193/Add/y", "shape": [128], "dtype": "float32"}, {"name": "model_27/tf.nn.convolution_139/convolution/filter", "shape": [1, 1, 128, 64], "dtype": "float32"}, {"name": "model_27/tf.math.add_194/Add/y", "shape": [64], "dtype": "float32"}, {"name": "model_27/tf.concat_32/concat/axis", "shape": [], "dtype": "int32"}, {"name": "model_27/tf.nn.convolution_140/convolution/filter", "shape": [1, 1, 256, 128], "dtype": "float32"}, {"name": "model_27/tf.math.add_195/Add/y", "shape": [128], "dtype": "float32"}, {"name": "model_27/tf.concat_46/concat/axis", "shape": [], "dtype": "int32"}, {"name": "model_27/tf.nn.convolution_218/convolution/filter", "shape": [1, 1, 192, 128], "dtype": "float32"}, {"name": "model_27/tf.math.add_312/Add/y", "shape": [128], "dtype": "float32"}, {"name": "model_27/tf.strided_slice_35/ones_like/tensor", "shape": [4], "dtype": "int32"}, {"name": "model_27/tf.strided_slice_35/StridedSlice/end", "shape": [4], "dtype": "int32"}, {"name": "model_27/tf.strided_slice_35/ones_like", "shape": [4], "dtype": "int32"}, {"name": "model_27/tf.nn.convolution_222/convolution/filter", "shape": [1, 1, 64, 32], "dtype": "float32"}, {"name": "model_27/tf.math.add_317/Add/y", "shape": [32], "dtype": "float32"}, {"name": "model_27/tf.concat_48/concat/axis", "shape": [], "dtype": "int32"}, {"name": "model_27/tf.nn.convolution_230/convolution/filter", "shape": [1, 1, 64, 64], "dtype": "float32"}, {"name": "model_27/tf.math.add_331/Add/y", "shape": [64], "dtype": "float32"}, {"name": "model_27/tf.nn.convolution_231/convolution/filter", "shape": [3, 3, 64, 64], "dtype": "float32"}, {"name": "model_27/tf.math.add_332/Add/y", "shape": [64], "dtype": "float32"}, {"name": "model_27/tf.nn.convolution_233/convolution/filter", "shape": [1, 1, 64, 32], "dtype": "float32"}, {"name": "model_27/tf.math.add_334/Add/y", "shape": [32], "dtype": "float32"}, {"name": "model_27/tf.concat_49/concat/axis", "shape": [], "dtype": "int32"}, {"name": "model_27/tf.nn.convolution_240/convolution/filter", "shape": [1, 1, 64, 64], "dtype": "float32"}, {"name": "model_27/tf.math.add_347/Add/y", "shape": [64], "dtype": "float32"}, {"name": "model_27/tf.nn.convolution_241/convolution/filter", "shape": [3, 3, 64, 64], "dtype": "float32"}, {"name": "model_27/tf.math.add_348/Add/y", "shape": [64], "dtype": "float32"}, {"name": "model_27/tf.concat_50/concat/axis", "shape": [], "dtype": "int32"}, {"name": "model_27/tf.nn.convolution_242/convolution/filter", "shape": [1, 1, 256, 128], "dtype": "float32"}, {"name": "model_27/tf.math.add_349/Add/y", "shape": [128], "dtype": "float32"}, {"name": "model_27/tf.compat.v1.nn.depthwise_conv2d_10/depthwise/filter_in", "shape": [3, 3, 128, 1], "dtype": "float32"}, {"name": "model_27/tf.math.add_351/Add/y", "shape": [128], "dtype": "float32"}, {"name": "model_27/tf.nn.convolution_245/convolution/filter", "shape": [1, 1, 128, 64], "dtype": "float32"}, {"name": "model_27/tf.math.add_353/Add/y", "shape": [64], "dtype": "float32"}, {"name": "model_27/tf.compat.v1.nn.depthwise_conv2d_11/depthwise/filter_in", "shape": [3, 3, 64, 1], "dtype": "float32"}, {"name": "model_27/tf.math.add_355/Add/y", "shape": [64], "dtype": "float32"}, {"name": "model_27/tf.nn.convolution_247/convolution/filter", "shape": [1, 1, 64, 64], "dtype": "float32"}, {"name": "model_27/tf.math.add_356/Add/y", "shape": [64], "dtype": "float32"}, {"name": "model_27/tf.nn.convolution_248/convolution/filter", "shape": [1, 1, 64, 2], "dtype": "float32"}, {"name": "model_27/tf.math.add_357/Add/y", "shape": [2], "dtype": "float32"}, {"name": "model_27/tf.concat_51/concat/axis", "shape": [], "dtype": "int32"}, {"name": "model_27/tf.compat.v1.transpose_40/transpose/perm", "shape": [4], "dtype": "int32"}, {"name": "model_27/tf.reshape_23/Reshape/shape", "shape": [3], "dtype": "int32"}, {"name": "model_27/tf.concat_52/concat/axis", "shape": [], "dtype": "int32"}, {"name": "model_27/tf.strided_slice_37/StridedSlice/begin", "shape": [3], "dtype": "int32"}, {"name": "model_27/tf.strided_slice_37/StridedSlice/end", "shape": [3], "dtype": "int32"}, {"name": "model_27/tf.strided_slice_37/StridedSlice/strides", "shape": [3], "dtype": "int32"}, {"name": "model_27/output0/concat/axis", "shape": [], "dtype": "int32"}]}]}